bots/Sponge_Bob.chatbot/Sponge_Bobconverted_model.tflite (tflite, 209580 bytes, 4 tensors)

in/MatMul_bias f4 [64]
0.3724208 0.21100084 0.26379582 0.1974781 0.19922236 0.2438469 0.29833168 0.34048533
0.35329586 0.3621581 0.23789208 0.32991284 0.24684842 0.19153556 0.2443987 0.2878369
0.24543162 0.30750757 0.24772157 0.29228458 0.23470847 0.20791923 0.338889 0.23823604
0.26541966 0.19628648 0.18455848 0.26487473 0.22913188 0.22005904 0.28530514 0.24136673
0.28372633 0.2878564 0.21479775 0.33690864 0.23134871 0.24932584 0.26868933 0.23862468
0.16891135 0.15313126 0.3552542 0.20310277 0.31348252 0.2830546 0.32790965 0.27412206
0.29486337 0.22507563 0.21022113 0.24375325 0.24569628 0.27593717 0.24928251 0.23102172
0.20193048 0.24602495 0.23300497 0.20061131 0.2675898 0.21648526 0.316668 0.26546708
00000000: f0ad be3e 9b10 583e 3f10 873e b337 4a3e
00000010: f200 4c3e 00b3 793e eebe 983e 1854 ae3e
00000020: 32e3 b43e c96c b93e fb99 733e 56ea a83e
00000030: d5c5 7c3e e621 443e a743 7a3e 5c5f 933e
00000040: 6d52 7b3e a271 9d3e b9aa 7d3e 53a6 953e
00000050: 6b57 703e c7e8 543e dc82 ad3e 26f4 733e
00000060: 16e5 873e 53ff 483e e6fc 3c3e a99d 873e
00000070: 8ca1 6a3e 2857 613e 8413 923e d728 773e
00000080: 9444 913e ea61 933e f1f3 5b3e 4a7f ac3e
00000090: ade6 6c3e 464f 7f3e a691 893e 075a 743e
000000a0: 19f7 2c3e 71ce 1c3e e1e3 b53e 2cfa 4f3e
000000b0: c880 a03e 88ec 903e c6e3 a73e ba59 8c3e
000000c0: 55f8 963e 3a7a 663e 3544 573e 749a 793e
000000d0: ce97 7b3e a347 8d3e ea43 7f3e f590 6c3e
000000e0: ddc6 4e3e f7ed 7b3e db98 6e3e 0d6d 4d3e
000000f0: 8801 893e 50ae 5d3e 4f22 a23e 4deb 873e

in/kernel/transpose f4 [64, 776]
0.13178016 0.057739455 0.121317394 0.1815598 0.12903567 -0.123781115 -0.09240655 0.080618165
-0.06889589 0.23865837 0.20021772 -0.08128901 0.15994911 0.007608721 0.14955969 -0.14147991
0.1879469 0.16153522 0.1685746 0.1489385 -0.10296756 0.07271862 0.20633231 0.20173928
0.1243828 0.16018589 0.10864622 -0.083517484 0.26828724 0.2818098 -0.1262881 0.18647212
0.14515051 0.096016556 -0.031559393 0.24972685 -0.057529896 -0.030657003 -0.085166246 0.0066265455
-0.03679029 0.28380337 0.049963333 -0.18907426 0.19318077 -0.09553131 -0.159523 -0.13734965
-0.064545006 0.25916335 0.17494446 -0.122930236 -0.13809374 0.13158123 0.0025959583 0.27158123
0.17475954 -0.13566709 -0.10136742 -0.050733365 -0.24136865 0.0072731064 0.007777324 0.18514179
0.21085031 0.05600106 0.12231995 0.2836843 0.16845556 -0.18120758 -0.23588793 0.15602353
0.11845154 0.14909406 -0.057436112 0.18156306 -0.085232064 0.09906254 0.029730102 0.21387601
0.062515736 -0.09694085 -0.08416262 0.036444303 -0.07113824 0.17925736 -0.22706485 -0.19195028
-0.091455214 0.033858627 -0.14393964 0.03041178 -0.23935731 0.2395634 0.35331097 0.26826048
0.17143825 -0.028461806 -0.13097906 -0.22844565 0.07939306 -0.14715374 -0.064443074 0.088739805
0.18660092 0.13020651 0.0011935731 0.3382847 -0.1549739 0.16553485 -0.10770243 -0.01008578
0.03143487 -0.036351748 -0.23720492 -0.25724643 -0.12377769 0.06384505 0.0062149763 -0.080409475
-0.2102287 -0.087666884 0.21501921 -0.26703215 -0.13387683 -0.051879294 -0.11891295 0.047629837
0.1253596 0.3289392 -0.06830819 0.17694078 0.1948468 0.20767365 0.094137676 0.15364674
0.038117703 0.20758563 -0.083920896 -0.21712041 -0.1040849 -0.0006393211 -0.120685846 0.20474447
0.007802166 -0.17481332 -0.1594943 -0.13932475 -0.10155546 0.23427734 -0.07925444 -0.09439743
-0.27330542 -0.12545827 -0.032921664 0.22707842 0.2424527 -0.09119143 -0.07253332 -0.13588656
0.16040732 0.25695765 0.19854285 -0.26286018 -0.10477031 -0.048117146 -0.109252125 -0.116138764
-0.13262744 0.24192834 -0.20613647 0.04184602 0.22488078 0.24918225 0.03899781 -0.1822406
-0.03296432 0.18566638 0.16423337 0.23662092 0.06993049 0.1695817 0.17068094 0.27711624
-0.16724984 0.26730168 -0.037080307 0.10246784 -0.16674252 0.02507488 0.20636645 -0.10744013
-0.006949447 -0.19937156 -0.097230546 -0.049097866 -0.25232798 -0.19283745 -0.25394323 0.22242178
0.0031695452 0.18024361 -0.1058841 0.016733907 0.2892933 -0.17374696 0.1991196 -0.14530134
0.117384866 0.1573928 -0.1798124 0.1362616 0.21399853 0.3033372 0.109645255 0.14369382
-0.095461495 0.20588389 0.113216065 -0.20489289 0.12215411 -0.13177724 -0.22522794 -0.2255601
0.14943814 -0.12243666 -0.03790798 0.20292746 -0.10639329 -0.068155095 -0.049976677 -0.035023797
-0.16917872 -0.097094506 -0.24828601 0.13412552 0.07793115 0.23129645 0.17536713 0.16655335
0.05099976 -0.10658853 0.17783822 -0.16162254 0.29637387 -0.1510419 -0.08936816 -0.047492974
-0.061312575 0.055880312 -0.10103099 0.1532968 -0.17213012 -0.08898851 0.10449356 0.23658423
00000000: 61f1 063e 3580 6c3d 4175 f83d d0ea 393e
00000010: ed21 043e f480 fdbd a53f bdbd 231b a53d
00000020: 4a19 8dbd dc62 743e e005 4d3e da7a a6bd
00000030: b3c9 233e 9452 f93b 2d26 193e 1ce0 10be
00000040: 2775 403e 7d69 253e d29e 2c3e 5683 183e
00000050: a8e0 d2bd 80ed 943d c748 533e be94 4e3e
00000060: 69bc fe3d c507 243e e981 de3d 370b abbd
00000070: f25c 893e 6049 903e ab51 01be 8cf2 3e3e
00000080: 56a2 143e 54a4 c43d 6c44 01bd 65b8 7f3e
00000090: 78a4 6bbd 6524 fbbc a46b aebd 7e23 d93b
000000a0: 6ab1 16bd ad4e 913e 5aa6 4c3d af9c 41be
000000b0: 2ed1 453e eba5 c3bd ff59 23be 63a5 0cbe
000000c0: 2c30 84bd 0fb1 843e a424 333e d9c2 fbbd
000000d0: 7268 0dbe 3bbd 063e f420 2a3b b20c 8b3e
000000e0: 2af4 323e 50ec 0abe b999 cfbd cacd 4fbd
000000f0: 5829 77be 3d53 ee3b ecd8 fe3b cf95 3d3e
00000100: 25e9 573e 5e61 653d e282 fa3d 123f 913e
00000110: 9d7f 2c3e 7b8e 39be 9b8c 71be a2c4 1f3e
00000120: b996 f23d 1dac 183e 2142 6bbd abeb 393e
00000130: 268e aebd 4de1 ca3d 8b8c f33c 5002 5b3e
00000140: 4008 803d ed88 c6bd 745d acbd 9f46 153d
00000150: edb0 91bd 3e8f 373e b083 68be 9d8e 44be
00000160: df4c bbbd 58af 0a3d ea64 13be 2022 f93c
00000170: 151a 75be 1c50 753e 2de5 b43e 7059 893e
00000180: 828d 2f3e bc28 e9bc 601f 06be a8ed 69be
00000190: d498 a23d 78af 16be bbfa 83bd 37bd b53d
000001a0: 5014 3f3e db54 053e ab71 9c3a a733 ad3e
000001b0: 7ab1 1ebe f881 293e 1793 dcbd d43e 25bc
000001c0: dac1 003d 92e5 14bd d9e5 72be ceb5 83be
000001d0: 287f fdbd 32c1 823d 00a7 cb3b b9ad a4bd
000001e0: 3146 57be b28a b3bd ff2d 5c3e 70b8 88be
000001f0: 0217 09be 627f 54bd a288 f3bd 8117 433d
00000200: 445e 003e b86a a83e 2ae5 8bbd f72f 353e
00000210: eb85 473e 67a8 543e 41cb c03d 9255 1d3e
00000220: 4f21 1c3d 5491 543e b8de abbd d054 5ebe
00000230: 772a d5bd 1d98 27ba 242a f7bd 89a8 513e
00000240: 50a9 ff3b 4302 33be 7952 23be 26ab 0ebe
00000250: 4ffc cfbd 66e6 6f3e 2750 a2bd 7153 c1bd
00000260: b0ee 8bbe 2278 00be ded8 06bd 3f87 683e
00000270: 8545 783e 93c2 babd 598c 94bd d925 0bbe
00000280: d141 243e f48f 833e d14e 4b3e 9c95 86be
00000290: d191 d6bd 7c16 45bd 94bf dfbd 29da edbd
000002a0: 7dcf 07be 10bc 773e 7015 53be bb66 2b3d
000002b0: 2647 663e a229 7f3e 2bbc 1f3d 489d 3abe
000002c0: 9805 07bd 541f 3e3e cb2c 283e c14c 723e
000002d0: b737 8f3d d3a6 2d3e fcc6 2e3e 2ee2 8d3e
000002e0: 8b43 2bbe c4db 883e 85e1 17bd a9da d13d
000002f0: 8dbe 2abe d669 cd3c ba51 533e 9209 dcbd
00000300: 30b8 e3bb 0f28 4cbe cf20 c7bd d81a 49bd
00000310: 2231 81be 2e77 45be d904 82be 89c2 633e
00000320: 25b8 4f3b c891 383e c3d9 d8bd 8c15 893c
00000330: 401e 943e b9ea 31be 02e6 4b3e e0c9 14be
00000340: 7a67 f03d 942b 213e be20 38be 2988 0b3e
00000350: 6e22 5b3e 034f 9b3e b18d e03d 7924 133e
00000360: 5181 c3bd 3ad3 523e d3dd e73d 71cf 51be
00000370: ef2b fa3d 9df0 06be 27a2 66be 3af9 66be
00000380: 5006 193e 12c0 fabd 6645 1bbd 37cc 4f3e
00000390: bae4 d9bd e694 8bbd 58b4 4cbd 1d75 0fbd
000003a0: 303d 2dbe 7cd9 c6bd b03e 7ebe 3358 093e
000003b0: 5e9a 9f3d fad8 6c3e 7193 333e f68c 2a3e
000003c0: 20e5 503d 164b dabd 391b 363e 6180 25be
000003d0: 51be 973e baaa 1abe a706 b7bd fe87 42bd
000003e0: e522 7bbd c1e2 643d 56e9 cebd d6f9 1c3e
000003f0: e142 30be 9c3f b6bd b800 d63d 2343 723e

out/MatMul_bias f4 [37]
0.010624024 0.09260708 -0.0378013 0.06370845 0.057746537 0.05702859 -0.019464454 0.12265173
-0.06892429 -0.06347012 -0.05274098 -0.15690969 0.05955206 0.048298445 0.038635902 0.009643495
-0.18874303 -0.02236224 -0.057340886 0.021692319 0.2926071 -0.052234404 0.1527867 -0.0508013
-0.05552764 -0.015518387 0.080189444 0.10877197 -0.102448896 0.0356454 0.0066346787 -0.016759798
-0.062363654 -0.06440457 -0.054069612 -0.22801566 -0.101520665
00000000: 6310 2e3c c8a8 bd3d 89d5 1abd 9379 823d
00000010: a287 6c3d d096 693d eb73 9fbc d530 fb3d
00000020: 2e28 8dbd 9ffc 81bd ed06 58bd efac 20be
00000030: dcec 733d 97d4 453d ae40 1e3d c0ff 1d3c
00000040: da45 41be 0431 b7bc 47de 6abd 17b4 b13c
00000050: 99d0 953e bef3 55bd 1e74 1c3e 0615 50bd
00000060: f370 63bd d540 7ebc 5d3a a43d d7c3 de3d
00000070: bad0 d1bd e900 123d b867 d93b d84b 89bc
00000080: 0871 7fbd 8be6 83bd 1978 5dbd f07c 69be
00000090: 11ea cfbd

out/kernel/transpose f4 [37, 64]
-0.5168677 -0.8072363 -0.6319826 -0.7268167 0.24922541 -0.9923752 -1.1321378 -0.7386361
-0.5037514 -0.94325924 -0.89258796 0.36795926 -0.13326062 0.22443701 -1.1187322 -0.629333
0.25848597 0.28888503 -0.88867587 -0.76460695 0.25016254 0.299247 0.1996737 0.15938558
0.24582383 -0.021230098 -0.57528955 0.070002235 -1.0038275 -0.9848472 0.29686612 0.31387225
0.28383812 0.3899207 0.24855462 -0.81013274 0.11520542 0.17968553 0.24395317 -1.3457329
0.2516945 -1.1011342 0.30064616 -0.9003828 0.45586342 -0.90845895 0.21913718 0.37696314
0.22600056 -0.91067487 0.31216922 -0.7793233 0.27594832 -0.52462846 0.18509884 0.26912192
-1.0842391 -0.6232347 -0.55111766 -0.91364765 0.42145678 0.2779418 0.038498934 -1.1291021
-0.58444434 0.4322805 0.24566522 -0.7306462 -0.28170797 -0.28051746 0.31320387 -0.650052
-0.29271302 -0.37064525 -0.8994588 -0.32869115 -0.11102758 0.47177517 -0.9098293 0.4898559
-0.7228639 -0.32067168 0.33180475 0.18010189 -0.9128191 0.11931383 -0.41269097 0.34424505
0.397992 -0.5611816 0.3804579 -0.79436064 -0.9918971 0.07231666 -1.0392479 0.32909757
-0.24330145 -0.9027482 -0.28148383 -0.93357414 -0.7746413 -1.1710962 -1.040164 -1.0093826
-0.85345507 -1.3515854 -0.47967875 0.4184571 0.32225016 -1.1368922 -0.38868004 0.48097542
0.41748655 -0.8042661 0.34095755 0.57738686 -0.54401565 0.19088338 0.39311868 0.33904138
-1.0940522 -0.62977767 0.40681335 -0.4751902 -0.33949313 0.28184748 -0.40011492 -1.0852951
0.17490937 0.20229812 -0.8549127 -0.49350682 -1.2008642 -0.20493986 -0.5780172 -0.8688735
-0.78012544 -0.49467877 -0.68732095 0.21220523 0.26254725 -0.6955424 0.38775796 -0.57124966
-0.4295443 0.27932543 -0.7828318 0.1676098 -1.2374555 0.3231327 0.2534083 -0.9286207
-0.27578387 -0.9001964 0.21415238 -0.7124899 -0.88219285 -0.39586815 0.2857994 0.42443898
-0.04496644 -0.17359884 -0.58337176 0.1830979 -0.91489613 0.3019752 -0.7792496 -0.75181955
0.26835948 0.23723075 -0.71924126 0.346384 -0.7260677 0.30929136 -0.9232685 -0.9084162
0.18367289 0.22586535 0.31202802 0.15663953 0.3229331 0.4148094 -0.5945364 0.4034479
0.34711125 -1.2580773 -0.22744653 -0.55704737 -0.9497087 0.41839942 0.40183026 0.19308026
-1.2326728 -0.5952333 0.14741881 0.5081343 0.28616443 -1.1934419 0.44324946 0.43160892
-0.59823066 0.019887686 -1.1731191 -0.38408434 0.36980733 -0.5319058 -1.2466356 -0.21132436
-0.75410014 -0.6087306 -0.79450095 -0.5137789 0.42955157 0.11404788 -0.5072644 -1.0739185
-0.74872386 0.36399823 -0.2754358 0.38889006 0.34593052 0.25711516 -0.5494842 0.2273313
-0.31378326 -0.85758394 -0.70396054 0.35679814 -0.73756725 0.33434856 -0.74763256 0.31693086
0.4021081 -0.2855037 -0.9951293 -0.7141235 -0.6249226 0.28767642 -0.4688925 0.3433462
0.40097758 -0.6178088 -0.16891453 -0.90782315 -0.7549749 0.31646088 -0.63406324 -0.9134145
0.44041806 -1.1207495 0.40956894 -0.8511565 -0.43830433 0.20459308 0.15608786 -0.91004974
00000000: 7151 04bf 0aa7 4ebf 9dc9 21bf a910 3abf
00000010: f234 7f3e 4d0c 7ebf e4e9 90bf 4117 3dbf
00000020: daf5 00bf 7079 71bf a580 64bf 2865 bc3e
00000030: 7975 08be d1d2 653e 9e32 8fbf f81b 21bf
00000040: 4658 843e bde8 933e 4380 63bf 48bd 43bf
00000050: 4e15 803e e736 993e 4377 4c3e f935 233e
00000060: 3eb9 7b3e beea adbc 2d46 13bf 555d 8f3d
00000070: 6b7d 80bf f21e 7cbf d6fe 973e ddb3 a03e
00000080: 3b53 913e b0a3 c73e 1a85 7e3e dc64 4fbf
00000090: d2f0 eb3d 7cff 373e dcce 793e fa40 acbf
000000a0: 1ade 803e f7f1 8cbf 4bee 993e 7d7f 66bf
000000b0: ee66 e93e c490 68bf 7f65 603e 5001 c13e
000000c0: b16c 673e fd21 69bf a5d4 9f3e bb81 47bf
000000d0: 1949 8d3e 0d4e 06bf 8d8a 3d3e 59ca 893e
000000e0: 59c8 8abf 4f8c 1fbf 0c16 0dbf d0e4 69bf
000000f0: 2fc9 d73e 634e 8e3e 0fb1 1d3d 6b86 90bf
00000100: 259e 15bf df53 dd3e aa8f 7b3e a10b 3bbf
00000110: 073c 90be fc9f 8fbe 425c a03e cf69 26bf
00000120: 7bde 95be 37c5 bdbe ef42 66bf 354a a8be
00000130: 6e62 e3bd 848c f13e 93ea 68bf 64ce fa3e
00000140: 9c0d 39bf 142f a4be 50e2 a93e a16c 383e
00000150: 83ae 69bf cf5a f43d 3b4c d3be e340 b03e
00000160: 9cc5 cb3e 99a9 0fbf 61cb c23e 385b 4bbf
00000170: f8ec 7dbf c21a 943d 1306 85bf 7a7f a83e
00000180: 0424 79be 821a 67bf a61e 90be b7fe 6ebf
00000190: e44e 46bf 7be6 95bf 1824 85bf 7333 81bf
000001a0: 087c 5abf c000 adbf 7498 f5be 0240 d63e
000001b0: f9fd a43e af85 91bf 1201 c7be 6942 f63e
000001c0: ccc0 d53e 62e4 4dbf fd91 ae3e a0cf 133f
000001d0: 9c44 0bbf ef76 433e da46 c93e d596 ad3e
000001e0: e709 8cbf 1c39 21bf d749 d03e 214c f3be
000001f0: 0bd2 adbe 504e 903e dddb ccbe f3ea 8abf
00000200: 711b 333e 3d27 4f3e 8fdb 5abf edac fcbe
00000210: ebb5 99bf c1db 51be eff8 13bf 7e6e 5ebf
00000220: 4db6 47bf 8946 fdbe 44f4 2fbf 544c 593e
00000230: 986c 863e 110f 32bf 3688 c63e 6b3d 12bf
00000240: 3bed dbbe be03 8f3e aa67 48bf e7a1 2b3e
00000250: f164 9ebf a671 a53e bcbe 813e 16ba 6dbf
00000260: 8b33 8dbe 4573 66bf c34a 5b3e bd65 36bf
00000270: 64d7 61bf 3baf cabe 4d54 923e 1150 d93e
00000280: bb2e 38bd e5c3 31be da57 15bf 047e 3b3e
00000290: a236 6abf 7e9c 9a3e e77c 47bf 3f77 40bf
000002a0: 6a66 893e 9eec 723e 3220 38bf 3e59 b13e
000002b0: 93df 39bf 705b 9e3e 535b 6cbf f78d 68bf
000002c0: bf14 3c3e 3f49 673e 23c2 9f3e 1d66 203e
000002d0: 7d57 a53e e661 d43e 8a33 18bf b990 ce3e
000002e0: 91b8 b13e ad08 a1bf bee7 68be a89a 0ebf
000002f0: 1c20 73bf 7338 d63e b2bc cd3e d5b6 453e
00000300: 39c8 9dbf 3661 18bf f5f4 163e 1715 023f
00000310: 2584 923e b4c2 98bf 98f1 e23e d8fb dc3e
00000320: a525 19bf 80eb a23c c428 96bf b4a6 c4be
00000330: 6357 bd3e fa2a 08bf c191 9fbf 6a65 58be
00000340: b50c 41bf c5d5 1bbf 6a64 4bbf 0487 03bf
00000350: 2fee db3e ef91 e93d 14dc 01bf 2976 89bf
00000360: 5eac 3fbf fa5d ba3e ec05 8dbe 991c c73e
00000370: ce1d b13e 99a4 833e ffaa 0cbf 89c9 683e
00000380: 33a8 a0be 9f8a 5bbf c236 34bf 3fae b63e
00000390: 35d1 3cbf bc2f ab3e d964 3fbf c344 a23e
000003a0: 1de1 cd3e 8a2d 92be cbc0 7ebf ccd0 36bf
000003b0: edfa 1fbf 534a 933e ae12 f0be 13cb af3e
000003c0: ef4c cd3e b828 1ebf eef7 2cbe 1967 68bf
000003d0: 0946 41bf 2907 a23e f851 22bf 88d5 69bf
000003e0: 7a7e e13e b874 8fbf 05b3 d13e 64e5 59bf
000003f0: 6d69 e0be d980 513e 7fd5 1f3e 05f9 68bf
