bots/Scooby_Doo.chatbot/Scooby_Dooconverted_model.tflite (tflite, 110952 bytes, 4 tensors)

in/MatMul_bias f4 [64]
0.27302 0.19579923 0.187116 0.30570278 0.17018358 0.18535985 0.2549241 0.24140225
0.24916968 0.24309026 0.26856938 0.1992593 0.24809682 0.23240736 0.19169904 0.2114042
0.1866662 0.18197149 0.22526875 0.18804638 0.2078494 0.216517 0.16740243 0.23199849
0.15457803 0.1906124 0.24931228 0.29551747 0.20227836 0.15332082 0.19269115 0.21862264
0.23614235 0.24305288 0.17446819 0.21431331 0.14724967 0.17931093 0.21062157 0.2726345
0.19685659 0.23154783 0.22199099 0.19344695 0.21672802 0.14657684 0.22514005 0.24289729
0.19645835 0.21521482 0.27619347 0.26993662 0.23602699 0.19413026 0.1353213 0.2247618
0.17068262 0.2083255 0.20428106 0.28238693 0.2463579 0.23837638 0.2522026 0.21592565
00000000: 47c9 8b3e 987f 483e 569b 3f3e 1385 9c3e
00000010: 9b44 2e3e f9ce 3d3e 6985 823e 2732 773e
00000020: 5626 7f3e a7ec 783e ed81 893e a10a 4c3e
00000030: 180d 7e3e 32fc 6d3e c14c 443e 587a 583e
00000040: 6d25 3f3e bc56 3a3e daac 663e 3b8f 403e
00000050: 79d6 543e a2b6 5d3e 8b6b 2b3e 0391 6d3e
00000060: b449 1e3e e62f 433e b84b 7f3e 114e 973e
00000070: 0f22 4f3e 2200 1d3e d450 453e 9dde 5f3e
00000080: 4dcf 713e dbe2 783e caa7 323e f374 5b3e
00000090: 9ec8 163e 499d 373e 2ead 573e c096 8b3e
000000a0: c694 493e e01a 6d3e 9b51 633e f516 463e
000000b0: f3ed 5d3e 3d18 163e 1d8b 663e 11ba 783e
000000c0: 612c 493e 4661 5c3e 3b69 8d3e 2235 8a3e
000000d0: 0fb1 713e 15ca 463e ab91 0a3e f527 663e
000000e0: 6dc7 2e3e 4853 553e 0e2f 513e 0595 903e
000000f0: 3f45 7c3e f018 743e b320 813e 9d1b 5d3e

in/kernel/transpose f4 [64, 408]
0.15937869 0.17354938 0.1812113 0.020016428 0.051457886 0.02524267 -0.17757888 0.031391647
-0.09337606 -0.026105482 -0.2506762 -0.091592334 0.11575205 -0.25649828 0.09513446 0.13437192
0.0057600206 0.15620819 -0.06642357 0.13156019 0.04127215 -0.050210457 0.23705608 0.24527934
0.09762719 -0.09391544 -0.1400194 -0.11943001 0.2810451 -0.2007246 -0.2600832 0.029578034
-0.11874342 0.14366649 0.06449479 -0.030538749 0.27554598 -0.16085675 -0.13452004 0.18862276
-0.099654086 -0.103754714 0.112415165 0.0031469841 0.20514764 0.089237824 0.18182352 -0.042807825
0.15754583 -0.06652382 0.26529616 0.23332854 0.1389969 -0.20439278 0.15162966 -0.012822139
0.18978228 0.16391085 -0.008245249 -0.07846764 0.03618595 0.22364111 0.08398662 -0.1469683
-0.09757395 0.039261524 -0.09440637 0.05081011 -0.19583337 0.21983321 -0.039525125 -0.071258806
-0.18564114 -0.1256829 0.10151184 0.078933544 0.36978695 0.09105335 0.105478995 0.22158171
0.00010266481 -0.0022883131 -0.1463044 0.16524608 0.22243132 -0.17821302 0.033915937 0.020642994
-0.12539151 0.14399981 0.116401464 -0.13893446 0.16574799 -0.014459689 -0.17658892 0.14745459
0.24217136 -0.11402905 -0.05613243 0.10953032 -0.14149043 0.19686906 0.057329614 0.018997723
-0.09571776 0.18538657 -0.1912158 -0.19867583 0.084803104 -0.01297077 -0.103667185 -0.07119416
0.013027581 0.041843098 -0.0468845 0.012903831 0.10296869 -0.026724566 -0.05806247 -0.1875048
-0.110145465 -0.068900846 -0.017087176 0.21632928 0.28509626 0.24533984 -0.0860429 0.17218167
0.08391944 -0.08250011 0.14306764 0.06277423 -0.1564425 -0.022045957 -0.012645785 0.06395153
-0.16560373 -0.04367466 -0.07175691 0.16524956 0.04814187 0.18414994 0.01135996 -0.21452905
0.1419224 -0.17021143 -0.07004826 0.25256076 0.10071108 0.035034165 -0.037002247 0.042882156
-0.07199971 -0.036963325 0.08354355 0.21952893 0.14636382 0.14536957 -0.1724307 -0.28263673
-0.18236224 -0.25012556 -0.19522429 0.107886225 -0.036999762 -0.18316628 0.14209874 -0.08424811
-0.1016913 0.18717335 0.08051898 -0.09275177 -0.035588495 -0.12185389 0.15499383 -0.04296149
0.10404338 -0.12260971 0.08592646 0.14710422 -0.1065885 -0.11659774 -0.16616322 -0.026555607
0.22881769 0.06269679 -0.037004314 -0.09907582 0.0014311417 -0.18042633 -0.13476326 0.0071635563
-0.026792783 -0.05598244 -0.14930998 0.079180196 0.3008645 -0.19520539 0.17003217 0.24665886
0.17588569 0.21865293 -0.13317141 0.088938214 -0.11912834 -0.07290564 0.24966046 -0.12700295
0.041898582 -0.07053845 -0.15375072 -0.008682322 -0.018229809 -0.095604554 0.13055035 -0.053059194
0.051507182 -0.06722826 -0.083465636 0.1417834 -0.24190909 0.08506797 0.14275368 0.15780917
-0.20341288 0.04816588 -0.0684081 0.22342412 -0.14701441 0.17944263 0.064357184 0.02733164
0.043152176 0.33274207 0.2064006 -0.06253362 0.18158515 0.16989394 -0.1261035 -0.31665254
0.112782545 -0.10456243 -0.17136244 0.12289496 0.1558505 -0.040697094 -0.0815054 0.16093959
0.20113593 -0.06053309 -0.043917593 0.0051836404 0.18013023 -0.09357276 -0.06553478 0.05763953
00000000: 2b34 233e eeb6 313e 748f 393e 7ef9 a33c
00000010: 81c5 523d b7c9 ce3c 3dd7 35be 8794 003d
00000020: f33b bfbd 2adb d5bc a258 80be c394 bbbd
00000030: 690f ed3d be53 83be dbd5 c23d cb98 093e
00000040: 8ebe bc3b 0af5 1f3e 1509 88bd b7b7 063e
00000050: fc0c 293d 7ba9 4dbd d4be 723e 822a 7b3e
00000060: c4f0 c73d bd56 c0bd 3f61 0fbe b997 f4bd
00000070: 25e5 8f3e c08a 4dbe a029 85be a24d f23c
00000080: c02f f3bd 4f1d 133e d815 843d 662c fabc
00000090: 5d14 8d3e a2b7 24be 9fbf 09be 5326 413e
000000a0: 7117 ccbd 5a7d d4bd ec39 e63d a23d 4e3b
000000b0: 3912 523e 52c2 b63d f22f 3a3e 4257 2fbd
000000c0: b253 213e a43d 88bd e6d4 873e aded 6e3e
000000d0: 3455 0e3e 574c 51be ce44 1b3e f313 52bc
000000e0: 4956 423e 3fd8 273e 1517 07bc a4b3 a0bd
000000f0: b837 143d 2d02 653e 2d01 ac3d dc7e 16be
00000100: dad4 c7bd b1d0 203d 2058 c1bd 431e 503d
00000110: 8b88 48be f51b 613e 19e5 21bd 23f0 91bd
00000120: b618 3ebe 05b3 00be 71e5 cf3d e9a7 a13d
00000130: b754 bd3e 2e7a ba3d 5f05 d83d 51e6 623e
00000140: c04d d738 86f7 15bb d2d0 15be 4536 293e
00000150: 09c5 633e 797d 36be 70eb 0a3d 7f1b a93c
00000160: a266 00be b074 133e e463 ee3d d644 0ebe
00000170: d7b9 293e 55e8 6cbc bad3 34be 56fe 163e
00000180: c5fb 773e 1088 e9bd 1eeb 65bd 6f51 e03d
00000190: dee2 10be 0b98 493e 75d2 6a3d 1da1 9b3c
000001a0: ac07 c4bd fad5 3d3e 13ce 43be ad71 4bbe
000001b0: 40ad ad3d 5a83 54bc 764f d4bd 3ece 91bd
000001c0: a371 553c ab63 2b3d f609 40bd 976a 533c
000001d0: 40e1 d23d 7aed dabc ead2 6dbd 4201 40be
000001e0: f293 e1bd e31b 8dbd 68fa 8bbc 6c85 5d3e
000001f0: 23f8 913e 5e3a 7b3e 4337 b0bd 6450 303e
00000200: f5dd ab3d d1f5 a8bd 5380 123e c78f 803d
00000210: 7632 20be b999 b4bc 4430 4fbc 05f9 823d
00000220: 0694 29be 33e4 32bd 49f5 92bd 2e37 293e
00000230: 6930 453d cd91 3c3e 201f 3a3c 81ad 5bbe
00000240: 1b54 113e e84b 2ebe 7675 8fbd a54f 813e
00000250: 9c41 ce3d fc7f 0f3d ab8f 17bd 33a5 2f3d
00000260: 9574 93bd db66 17bd e118 ab3d 31cc 603e
00000270: 66e0 153e c3db 143e ac91 30be c3b5 90be
00000280: 2bbd 3abe 7510 80be e0e8 47be 74f3 dc3d
00000290: 108d 17bd f18f 3bbe 5582 113e 468a acbd
000002a0: 8743 d0bd 5faa 3f3e 23e7 a43d a4f4 bdbd
000002b0: 3ec5 11bd 888e f9bd b4b6 1e3e 63f8 2fbd
000002c0: b214 d53d cd1a fbbd 36fa af3d 7da2 163e
000002d0: 124b dabd ccca eebd b126 2abe 258b d9bc
000002e0: 2f4f 6a3e 2d67 803d d691 17bd 43e8 cabd
000002f0: 2695 bb3a aec1 38be 61ff 09be 44bc ea3b
00000300: 8a7c dbbc d84d 65bd b7e4 18be 3a29 a23d
00000310: e90a 9a3e ece3 47be ea1c 2e3e 2494 7c3e
00000320: 611b 343e 8ee6 5f3e 165e 08be 3d25 b63d
00000330: 8ff9 f3bd 8d4f 95bd fea6 7f3e 100d 02be
00000340: d99d 2b3d 7676 90bd d470 1dbe 4c40 0ebc
00000350: ae56 95bc 52cc c3bd feae 053e 9954 59bd
00000360: 32f9 523d f8ae 89bd 08f0 aabd ab2f 113e
00000370: 04b7 77be 1e38 ae3d 052e 123e ba98 213e
00000380: 774b 50be 9649 453d 8c19 8cbd 4bc9 643e
00000390: f28a 16be cfbf 373e b3cd 833d 9ae6 df3c
000003a0: 56c0 303d 2b5d aa3e ae5a 533e a011 80bd
000003b0: 75f1 393e adf8 2d3e 4721 01be 4820 a2be
000003c0: 89fa e63d d424 d6bd a379 2fbe 5ab0 fb3d
000003d0: 4697 1f3e ffb1 26bd 4eec a6bd 59cd 243e
000003e0: 94f6 4d3e 8cf1 77bd efe2 33bd 87db a93b
000003f0: 0f74 383e 13a3 bfbd 1937 86bd 6e17 6c3d

out/MatMul_bias f4 [20]
0.052309155 -0.01783492 -0.06293136 0.076145954 -0.03727022 0.01920858 -0.0005864107 0.020414582
0.06182287 0.0073692403 0.1664834 0.0010492473 -0.011075086 -0.16688901 0.029182151 -0.079695806
0.022112368 -0.076812774 -0.11766171 0.038494512
00000000: 2042 563d 8a1a 92bc 28e2 80bd 69f2 9b3d
00000010: a9a8 18bd 505b 9d3c 5bb9 19ba 7b3c a73c
00000020: fa39 7d3d ab79 f13b a07a 2a3e e686 893a
00000030: 4774 35bc f4e4 2abe 680f ef3c 8e37 a3bd
00000040: ff24 b53c 0450 9dbd 9ff8 f0bd 6cac 1d3d

out/kernel/transpose f4 [20, 64]
0.4545991 -0.8818143 -0.5030958 0.0063646357 -0.48368874 0.3849226 0.32884473 -0.7019345
-0.93596166 0.22272491 0.2532646 -0.5981208 0.28865167 -0.5129826 0.13088143 -0.56446606
0.284661 -0.46455145 0.32930696 -0.74879843 0.20509386 0.35203132 -0.57908654 0.40200862
0.24698181 -0.34317583 -0.45689565 0.4025817 -0.7359638 -0.6912257 -0.62786674 -0.6189509
0.27240863 0.36096385 -0.70450115 0.14259954 0.24920878 0.33195326 -0.22249576 0.4760507
0.09596342 0.12969771 -0.6070568 0.27084133 -0.35469833 -0.5966226 0.37871715 -0.2759245
0.40767545 -0.6911461 -0.5080003 -0.75674516 -0.09746909 -0.57774806 -0.7462926 -0.47596553
0.11336025 -0.8571211 -0.70678127 0.23226637 -0.087323934 -0.26930273 0.19653109 -0.6851591
0.36194524 0.4266047 -0.66174275 -0.64383066 0.22315052 0.21319658 -0.008402433 -0.2554968
-0.4520432 -0.72191274 0.2872759 -0.4109897 -0.40005094 -0.6769038 -0.5529485 -0.5645205
0.3441762 -0.46286687 -0.78881115 -0.003617223 -0.70369935 -0.34871763 0.40852487 0.15660499
0.23845136 -0.5397967 -0.8425691 0.34104198 -0.33832595 0.36251336 0.31428847 -0.26327857
0.23739947 -0.7729112 0.37010023 -0.8475023 -0.46563193 -0.3847528 -0.37886968 -0.6292205
0.16400169 0.18430018 -0.6199272 -0.52254516 0.32027707 -0.6996948 -0.9103914 0.29816967
-0.2967943 0.3613821 -0.22566472 -0.08289692 0.21894643 -0.85111994 0.35323355 -0.41935804
0.32056734 -0.4570308 0.39027894 -0.75417143 0.31004605 -0.6385096 -0.49986383 0.3394522
-0.60627985 -0.43457854 -0.49831367 -0.92652357 0.16237909 -0.60029966 0.35004646 -0.5714743
-0.96438116 -0.31964213 -0.51406205 -0.768796 -0.41148683 0.14566773 0.086041115 0.20753855
0.13102908 -0.52350694 0.36379132 0.088922806 0.4028597 0.2991501 0.23715721 0.31102547
0.24514642 0.18366584 -0.36460975 -0.28245005 -0.45159096 0.22863808 -0.8330506 0.30991912
0.30911234 -0.7525501 -0.41047272 0.21311782 0.28393447 -0.5303767 0.15330559 0.15157071
0.13166164 -0.75949186 0.38033682 -0.5732792 -0.73820466 0.18972312 0.07146191 0.24408597
0.28100613 -0.6556943 0.36422843 0.12414897 -0.81849265 0.25543985 0.42089206 -0.23501828
-0.8441324 -0.5961831 0.36483252 -0.875665 0.16945523 -0.76250464 0.29787898 0.25629276
-0.6162626 0.42843142 -0.8401903 -0.17886989 -0.65003407 -0.77068555 -0.30322444 -0.41235587
-0.46757597 0.50131154 -0.8060225 0.42614758 -0.19862846 -0.7458122 -0.61117274 0.3067173
-0.68172777 -0.54248244 -0.319118 0.29942128 -0.7376081 -0.39816186 -0.5905419 -0.23418872
-0.7051033 0.40667018 -0.3010528 -0.31755048 -0.31261525 -0.64979744 -0.6029313 -0.16517949
0.3541263 0.3485532 -0.7183761 0.3519793 0.07138019 -0.6165916 -0.45792186 0.4105235
0.25967985 -0.36193487 0.39999616 -0.6453995 0.43417606 -0.4563793 -0.4011733 -0.8136218
0.4469315 0.448486 -0.14404777 0.2951135 0.3722838 -0.52724445 0.11598214 -0.57794875
-0.7012602 -0.66353106 0.38724306 -0.70801383 -0.3880451 -0.7274724 -0.3480958 -0.35832012
00000000: 37c1 e83e 95be 61bf e3ca 00bf 6f8e d03b
00000010: 0da6 f7be 9314 c53e 565e a83e fbb1 33bf
00000020: 2f9b 6fbf 0012 643e e6ab 813e 721e 19bf
00000030: 27ca 933e d452 03bf c805 063e d980 10bf
00000040: 16bf 913e b0d9 edbe ec9a a83e 41b1 3fbf
00000050: 2004 523e 733d b43e 043f 14bf 13d4 cd3e
00000060: cde8 7c3e beb4 afbe 3aee e9be 301f ce3e
00000070: 2068 3cbf 2bf4 30bf e0bb 20bf 9173 1ebf
00000080: 2579 8b3e 41d0 b83e 305a 34bf 9d05 123e
00000090: 9630 7f3e c7f5 a93e eed5 63be ebbc f33e
000000a0: 7888 c43d 7acf 043e 1368 1bbf b7ab 8a3e
000000b0: 059b b5be 42bc 18bf 37e7 c13e fa45 8dbe
000000c0: d6ba d03e f3ee 30bf 4f0c 02bf 0dba 41bf
000000d0: e09d c7bd 4ce7 13bf 080d 3fbf c1b1 f3be
000000e0: 6b29 e83d 4a6c 5bbf 9eef 34bf 3cd7 6d3e
000000f0: e4d6 b2bd 0ce2 89be 723f 493e 9666 2fbf
00000100: e350 b93e ee6b da3e f967 29bf 16d2 24bf
00000110: 9281 643e 3450 5a3e 5caa 09bc 7ad0 82be
00000120: 3572 e7be 46cf 38bf d415 933e 3e6d d2be
00000130: 7ad3 ccbe 9149 2dbf 088e 0dbf 6a84 10bf
00000140: dd37 b03e e3fc ecbe 87ef 49bf ee0e 6dbb
00000150: a425 34bf 1e8b b2be 2c2a d13e 0f5d 203e
00000160: 982c 743e 1e30 0abf 9cb2 57bf 0e9d ae3e
00000170: 0f39 adbe 5a9b b93e 6bea a03e 73cc 86be
00000180: d918 733e 82dd 45bf c77d bd3e e9f5 58bf
00000190: 4f67 eebe 52fe c4be 35fb c1be 9814 21bf
000001a0: 0ff0 273e 30b9 3c3e 8db3 1ebf 85c5 05bf
000001b0: 5bfb a33e 331f 33bf 690f 69bf b2a9 983e
000001c0: 6cf5 97be 1307 b93e a714 67be dcc5 a9bd
000001d0: 7e33 603e ffe2 59bf 07db b43e 19b6 d6be
000001e0: 6721 a43e f1ff e9be a4d2 c73e 6111 41bf
000001f0: 5bbe 9e3e 5d75 23bf 27ee ffbe aecc ad3e
00000200: 2835 1bbf 1481 debe f822 ffbe a630 6dbf
00000210: b446 263e 3dad 19bf 4a39 b33e 244c 12bf
00000220: afe1 76bf 22a8 a3be 9299 03bf d1cf 44bf
00000230: 67ae d2be ec29 153e 5336 b03d fc84 543e
00000240: 7d2c 063e 8d04 06bf db42 ba3e 291d b63d
00000250: a043 ce3e 342a 993e 57d9 723e bb3e 9f3e
00000260: aa07 7b3e e612 3c3e 21ae babe 4b9d 90be
00000270: ee36 e7be 1a20 6a3e ce42 55bf b8ad 9e3e
00000280: f943 9e3e 20a7 40bf 7b29 d2be 8f3b 5a3e
00000290: dc5f 913e c4c6 07bf 24fc 1c3e 5a35 1b3e
000002a0: 4fd2 063e 0f6e 42bf 82bb c23e 6dc2 12bf
000002b0: fbfa 3cbf c746 423e 9f5a 923d acf1 793e
000002c0: 09e0 8f3e 95db 27bf 267c ba3e d141 fe3d
000002d0: bc88 51bf 03c9 823e 2a7f d73e a2a8 70be
000002e0: 1019 58bf 759f 18bf 54cb ba3e 952b 60bf
000002f0: ac85 2d3e 8133 43bf 9883 983e ce38 833e
00000300: 63c3 1dbf 5d5b db3e b616 57bf ab29 37be
00000310: a268 26bf a64b 45bf 3c40 9bbe 4f20 d3be
00000320: 1e66 efbe f455 003f 7e57 4ebf 0430 da3e
00000330: 4265 4bbe 8ced 3ebf d175 1cbf 0d0a 9d3e
00000340: b685 2ebf 21e0 0abf 6f63 a3be bf4d 993e
00000350: e2d3 3cbf dfdb cbbe c12d 17bf 2bcf 6fbe
00000360: a681 34bf 1337 d03e 9823 9abe fa95 a2be
00000370: 1b0f a0be 2059 26bf b559 1abf d024 29be
00000380: 0b50 b53e 9175 b23e 7fe7 37bf a136 b43e
00000390: c72f 923d f2d8 1dbf bc74 eabe 2330 d23e
000003a0: c2f4 843e 874f b9be 4ccc cc3e e738 25bf
000003b0: 534c de3e 8caa e9be 9666 cdbe 8549 50bf
000003c0: 35d4 e43e f59f e53e 4281 13be 1e19 973e
000003d0: fb9b be3e 7ef9 06bf 0b88 ed3d 73f4 13bf
000003e0: ca85 33bf 2cdd 29bf b944 c63e 6540 35bf
000003f0: d9ad c6be a23b 3abf 9d39 b2be bc75 b7be
