bots/Soviet_films.chatbot/Soviet_filmsconverted_model.tflite (tflite, 259040 bytes, 4 tensors)

in/MatMul_bias f4 [64]
0.25726455 0.34798136 0.23982246 0.32163164 0.25536072 0.22798042 0.32075936 0.21907371
0.3250485 0.16218033 0.27818245 0.2947397 0.23489848 0.21817356 0.24985383 0.3511333
0.29052877 0.3367542 0.28444242 0.2553229 0.26764748 0.3906791 0.28972545 0.31701416
0.25226006 0.26627874 0.29919258 0.22696686 0.23777051 0.20054543 0.2478568 0.3501511
0.25707605 0.23887414 0.23671377 0.2587124 0.2801485 0.31833875 0.27600583 0.2696412
0.3132776 0.27641654 0.22800238 0.24641044 0.17619379 0.24944438 0.24400052 0.37039655
0.35067388 0.34504592 0.3054101 0.26921517 0.2110607 0.19122605 0.27582654 0.2023619
0.21625328 0.2677696 0.33655277 0.26659387 0.25627 0.2100748 0.28612602 0.29873985
00000000: 2eb8 833e 9d2a b23e 0594 753e e7ac a43e
00000010: a4be 823e b373 693e 923a a43e dc54 603e
00000020: c26c a63e 9a12 263e ee6d 8e3e 1fe8 963e
00000030: 3a89 703e e468 5f3e afd9 7f3e bec7 b33e
00000040: 30c0 943e 0c6b ac3e 70a2 913e afb9 823e
00000050: 1709 893e 1707 c83e e556 943e ae4f a23e
00000060: 3b28 813e b055 883e c52f 993e 006a 683e
00000070: 1d7a 733e c85b 4d3e 2cce 7d3e 0147 b33e
00000080: 799f 833e 6c9b 743e 1865 723e f475 843e
00000090: a06f 8f3e 4cfd a23e a350 8d3e 690e 8a3e
000000a0: ec65 a03e 7886 8d3e 7579 693e 0553 7c3e
000000b0: 256c 343e 596e 7f3e 46db 793e 9ea4 bd3e
000000c0: 878b b33e dca9 b03e b65e 9c3e 92d6 893e
000000d0: 4c20 583e c3d0 433e 2339 8d3e f537 4f3e
000000e0: 8071 5d3e 1919 893e a550 ac3e fe7e 883e
000000f0: d235 833e d91d 573e 1c7f 923e 6ef4 983e

in/kernel/transpose f4 [64, 956]
0.22148862 0.20739424 0.23920368 0.11842705 0.0134495245 -0.17971554 -0.25482455 0.15964659
0.16768955 0.18875541 -0.05263343 0.301203 0.11261968 0.15710251 0.27916706 -0.2594262
0.17570782 -0.19466302 0.112069905 -0.027425002 0.049434662 0.14349262 0.15039246 0.012349382
0.19710611 -0.10210821 -0.13219145 0.30343738 0.19818184 0.14018664 -0.27422005 -0.023209468
0.019507915 -0.23629384 0.04195147 0.18990098 -0.15047172 -0.34381932 -0.04190629 0.1614595
0.17694466 -0.06828133 0.21073525 -0.09173438 -0.17041767 0.005622623 -0.10929239 -0.067309834
-0.2955355 0.08528841 0.25105807 -0.22589016 0.2794669 -0.14177027 0.2547394 -0.2570236
-0.071673535 -0.039791126 0.36400983 0.25271773 0.047903966 -0.14397584 0.11922556 0.28526428
0.22710024 0.13670798 -0.02234184 -0.13888426 0.33821455 -0.12289552 -0.22944352 -0.21717645
-0.12934893 -0.054464422 -0.10301628 0.12878664 -0.05181154 0.063877806 0.13344023 0.16511078
0.19065094 -0.071590334 -0.27707326 -0.1907303 0.13475117 -0.09056426 -0.14180872 -0.04616482
-0.06151798 0.1619419 0.11263876 -0.08935413 -0.10880386 -0.07185273 0.19611837 0.24252239
0.16378696 0.34587818 -0.21540904 0.16030717 0.24986257 -0.038937334 -0.08247236 0.2245176
0.21967298 0.26552153 0.26913154 0.22661772 0.15150991 -0.08526899 -0.14817879 -0.046063498
0.16156985 -0.23701955 -0.030267933 0.1945401 -0.19957747 -0.13772395 0.17005315 -0.1319437
0.12448482 -0.24919052 -0.03637191 0.1782628 -0.051187325 -0.10285149 0.23630829 0.12043841
0.023114545 0.18680793 0.27775347 -0.08870146 -0.09500564 -0.030100811 0.15942438 -0.2673237
0.0025512485 -0.22332679 0.17565377 0.12999378 0.18813397 0.011060546 0.23393281 0.11488131
-0.13268869 -0.055912405 -0.06377624 0.09732274 -0.055529885 -0.1814243 0.19980417 0.04048586
0.23971517 0.14712629 0.021724042 -0.04237374 -0.115669966 0.25943953 0.12402678 -0.014901774
0.1287172 -0.03815327 0.22788484 -0.06517959 0.21285516 0.29322547 -0.011286073 0.31644148
0.09724883 -0.10254119 0.13150911 0.20387432 0.21438158 -0.1684281 -0.19038239 0.0903219
0.19162019 0.23795457 0.03371574 0.14248943 0.21387853 0.0070964694 -0.08595714 0.22298999
0.24909097 0.43738997 0.38149315 0.18767203 -0.18857962 0.15441377 0.17694475 0.20127426
-0.056323644 -0.089647055 -0.071894154 -0.15243886 -0.20830718 -0.12019341 -0.19705866 -0.18340248
0.18624805 -0.032241233 -0.107778795 -0.23974334 0.15165909 -0.110606 0.05417763 -0.089501455
-0.25606617 0.1835908 -0.10348772 -0.10255188 -0.017536243 0.12113408 -0.25418836 -0.10448497
-0.18630213 -0.21286465 -0.02968648 0.15655652 0.11096887 -0.05530504 0.21646105 0.35743868
0.19089271 -0.28684378 -0.017442465 0.035556335 -0.10913705 -0.22040184 -0.15638684 -0.1717582
0.25367105 -0.08078657 0.124852665 0.19878489 0.14954792 -0.123858884 -0.21558896 0.09463893
-0.07797694 -0.075559385 0.06854277 0.30590656 0.15642019 0.22703846 0.15420322 -0.16937363
0.14825995 -0.26753756 -0.034996044 0.114235595 0.11052537 0.28839403 -0.20419607 0.24983777
00000000: eacd 623e 285f 543e cff1 743e e289 f23d
00000010: 655b 5c3c 5a07 38be 5d78 82be 657a 233e
00000020: cfb6 2b3e 1949 413e 2796 57bd 4837 9a3e
00000030: 26a5 e63d 7bdf 203e fcee 8e3e 83d3 84be
00000040: c0ec 333e be55 47be e884 e53d 66aa e0bc
00000050: 007c 4a3d bbef 123e 7b00 1a3e 1055 4a3c
00000060: 2fd6 493e 1c1e d1bd 325d 07be 255c 9b3e
00000070: 2ef0 4a3e 168d 0f3e 9266 8cbe c821 bebc
00000080: 10cf 9f3c 03f7 71be 4ed5 2b3d 6775 423e
00000090: 4215 1abe 1609 b0be eea5 2bbd a455 253e
000000a0: fb30 353e 15d7 8bbd fbca 573e 3cdf bbbd
000000b0: f881 2ebe fb3d b83b b0d4 dfbd bdd9 89bd
000000c0: 6e50 97be b1ab ae3d af8a 803e c04f 67be
000000d0: 4916 8f3e 3a2c 11be 346d 823e 9998 83be
000000e0: 93c9 92bd 05fc 22bd 7f5f ba3e 3864 813e
000000f0: f336 443d 676e 13be 882c f43d 290e 923e
00000100: f78c 683e 2dfd 0b3e 3c06 b7bc ad37 0ebe
00000110: 752a ad3e a5b0 fbbd 3ef3 6abe 8163 5ebe
00000120: 0c74 04be 1616 5fbd 33fa d2bd a5e0 033e
00000130: 5638 54bd 5ed2 823d 8ea4 083e cd12 293e
00000140: 003a 433e f49d 92bd 8cdc 8dbe ce4e 43be
00000150: 36fc 093e c179 b9bd 4e36 11be 5317 3dbd
00000160: 47fa 7bbd 19d4 253e 26af e63d 4cff b6bd
00000170: 8fd4 debd 8627 93bd 41d3 483e ca57 783e
00000180: c5b7 273e f216 b13e 3094 5cbe 9027 243e
00000190: f9db 7f3e c17c 1fbd 45e7 a8bd f1e7 653e
000001a0: f4f1 603e 70f2 873e 9ccb 893e 7a0e 683e
000001b0: 6a25 1b3e 82a1 aebd 2ebc 17be 14ad 3cbd
000001c0: 9172 253e 41b5 72be 75f4 f7bc 8535 473e
000001d0: 095e 4cbe 8207 0dbe 6a22 2e3e 401c 07be
000001e0: e6f1 fe3d cd2b 7fbe b6fa 14bd 868a 363e
000001f0: cda9 51bd cda3 d2bd cdfa 713e 6aa8 f63d
00000200: b75a bd3c 944a 3f3e b435 8e3e 1ca9 b5bd
00000210: 5192 c2bd fa95 f6bc 2540 233e a7de 88be
00000220: d932 273b c7af 64be 95de 333e 171d 053e
00000230: 31a6 403e 4b37 353c 158c 6f3e e446 eb3d
00000240: 8bdf 07be 6804 65bd 1e9d 82bd 2551 c73d
00000250: 4e73 63bd 4bc7 39be 7799 4c3e 80d4 253d
00000260: e577 753e 46a8 163e 9ef6 b13c 1690 2dbd
00000270: 60e4 ecbd 42d5 843e c101 fe3d 9226 74bc
00000280: 71ce 033e 9a46 1cbd a55a 693e e07c 85bd
00000290: b4f6 593e a621 963e 39e9 38bc 9e04 a23e
000002a0: 652a c73d 1e01 d2bd 53aa 063e 6ec4 503e
000002b0: d886 5b3e 6a78 2cbe 9af3 42be b0fa b83d
000002c0: 1538 443e 5daa 733e 8419 0a3d c0e8 113e
000002d0: f902 5b3e 8089 e83b 4c0a b0bd 7d57 643e
000002e0: b411 7f3e 94f1 df3e 1253 c33e 192d 403e
000002f0: 041b 41be a51e 1e3e 0131 353e d71a 4e3e
00000300: 9fb3 66bd e098 b7bd 3e3d 93bd ef18 1cbe
00000310: 7a4e 55be f627 f6bd bfc9 49be dccd 3bbe
00000320: cfb7 3e3e 620f 04bd 21bb dcbd 477f 75be
00000330: 854c 1b3e 6685 e2bd 5de9 5d3d 8a4c b7bd
00000340: 1b1b 83be 3aff 3b3e 5ff1 d3bd b806 d2bd
00000350: 2ba8 8fbc 2515 f83d fa24 82be 37fc d5bd
00000360: fcc5 3ebe 31f9 59be 1031 f3bc 5a50 203e
00000370: a643 e33d 8a87 62bd f7a7 5d3e 3402 b73e
00000380: 6179 433e 30dd 92be 80e3 8ebc 85a3 113d
00000390: 3f83 dfbd 05b1 61be df23 20be 62e1 2fbe
000003a0: 2ce1 813e 6e73 a5bd c1b2 ff3d 448e 4b3e
000003b0: 1723 193e baa9 fdbd 5ac3 5cbe 0ed2 c13d
000003c0: 60b2 9fbd e1be 9abd 2760 8c3d c99f 9c3e
000003d0: 9d2c 203e c57c 683e 73e7 1d3e 4870 2dbe
000003e0: 75d1 173e affa 88be 0358 0fbd 5af4 e93d
000003f0: 205b e23d 62a8 933e c618 51be 79d5 7f3e

out/MatMul_bias f4 [50]
0.025301164 -0.05347786 -0.09237827 0.03515857 -0.008545134 0.010247824 -0.11186155 0.02096702
0.0154922 0.059682526 -0.04970221 0.10961931 0.08956011 0.009322982 -0.010541804 -0.11899312
-0.00043280917 -0.1613381 -0.04217281 0.07168442 0.0009389004 0.022629797 -0.09343838 -0.11031069
-0.061099686 -0.08149051 0.020367237 0.03819358 -0.051535524 -0.068720795 -0.007221843 0.013258071
0.12044224 -0.034562252 -0.14862433 -0.018419389 0.00512237 -0.011021122 0.01659986 0.014816439
0.07612212 -0.042621516 -0.013812014 -0.10440737 0.03330742 0.15637672 0.17736882 -0.14214244
0.07964232 0.034096777
00000000: 6344 cf3c 9a0b 5bbd d230 bdbd 6f02 103d
00000010: e400 0cbc 7de6 273c ab17 e5bd 07c3 ab3c
00000020: ffd2 7d3c aa75 743d 8b94 4bbd 1780 e03d
00000030: 4a6b b73d 6cbf 183c 88b7 2cbc aab2 f3bd
00000040: aaea e2b9 d135 25be 65bd 2cbd 48cf 923d
00000050: 8a20 763a 2062 b93c 9f5c bfbd 92ea e1bd
00000060: aa43 7abd 7fe4 a6bd 31d9 a63c df70 1c3d
00000070: ea16 53bd 7dbd 8cbd 36a5 ecbb 6138 593c
00000080: 6caa f63d 2691 0dbd fa30 18be 42e4 96bc
00000090: 8ed9 a73b f091 34bc 6efc 873c a6c0 723c
000000a0: eae5 9b3d e693 2ebd c94b 62bc 88d3 d5bd
000000b0: 5c6d 083d 3821 203e 2ca0 353e ca8d 11be
000000c0: 831b a33d 10a9 0b3d

out/kernel/transpose f4 [50, 64]
-0.5205787 0.3229048 0.043050416 -0.9333132 0.2082144 0.25607556 -0.84932303 0.2775609
-0.21823838 -0.5622838 -0.2678049 -0.48886353 -0.5019515 -0.75354594 -1.0066973 0.13933781
-0.8081025 -0.3849215 -0.043586068 0.32289964 -0.7336678 0.2974681 0.25768086 0.04911477
0.17990793 -0.27019867 0.065796316 -1.0014399 0.20098762 0.34492055 0.22022195 -1.4193047
0.38243842 -0.53154683 0.2749776 0.3111979 -0.9218803 -1.410251 0.40793902 0.35514343
0.032455396 -1.5675334 0.42755163 -0.87992793 -0.44099444 0.2609139 -0.7273347 -0.5679711
0.13515696 0.35229543 -0.31243 -0.7184216 0.15024933 -1.0954833 -0.45375365 -0.67944986
-0.95660245 0.42302945 -0.5768868 0.3118914 0.06526106 -0.60883003 0.27632138 0.3233729
-0.7536655 -0.58447397 0.2859081 0.25746793 0.2664556 0.29501182 -0.6632888 0.308725
0.1314541 0.19975984 0.24246629 -0.890459 0.38739544 0.13076906 0.26492843 -0.9259022
-1.0753899 -0.6780315 0.32336974 -0.76761305 -0.6070389 -1.0015316 0.315833 -0.6007156
-0.7186003 -1.1720135 -0.7353337 0.28823653 0.3105042 0.32624558 0.3592119 -0.05710842
-1.1140819 0.2044136 0.24745834 -0.8256767 -0.6727216 -1.0577788 0.3500055 -0.8399994
0.37769017 -0.9302048 0.24404807 0.25514495 -0.6801479 0.21835619 0.19738723 -1.16712
-0.70790523 -1.1075625 -0.8903937 -0.86322385 -1.3025018 0.32926345 0.246889 -0.0022805282
0.16805822 0.2353491 -0.972492 0.36214292 -0.37290356 -0.7576196 -0.2525772 -0.59810597
0.28944942 -0.9625361 -0.8447759 0.27384248 0.44657245 -1.1368341 -1.0638136 0.34988335
0.28892475 -1.2773101 -0.9600982 -0.017700022 -1.0641996 0.4048137 0.35891894 -0.15140781
-0.96852595 -0.19064872 0.37658268 -0.50727946 0.37916976 -0.58785504 0.2813218 0.29991063
-1.0532844 0.17544891 -1.467927 -0.15569112 0.13887955 0.32930812 -1.1055748 0.18952984
0.09905163 -0.2694687 0.4059516 0.27392796 0.16971216 -0.9108303 -0.6169629 -0.82570213
0.30655468 -1.0548912 -0.99002266 -0.011021827 0.4803853 -0.122592494 -1.1226609 -0.460522
-0.69912744 0.43550608 0.19450898 -0.9037563 -0.2504591 0.2653289 -0.98488575 0.32983628
0.2587029 0.26576027 -0.5548426 -0.5965929 -0.29817265 0.35075772 0.29518038 0.039812524
0.37663412 -0.7911482 0.3865572 -1.3929278 0.35153627 -0.22508705 -0.6238114 0.33588955
-0.8441308 0.15286936 0.2876738 -0.6475221 -0.48018423 0.23614846 -0.19609872 -0.78987914
-0.4740261 -0.60508466 -0.9677455 0.43427807 0.39721498 -1.1736466 -0.42131007 0.35127127
-0.63282335 -0.6444384 -1.0553944 -0.4244931 0.3664965 0.3692708 -0.79976636 0.22726506
0.16937123 -0.9745923 -0.9423153 -0.92329955 0.3853984 -0.1345056 -1.0483309 -0.24439964
0.3976057 0.2971979 -0.8839425 -1.1337136 -0.35805365 -0.80616367 -1.0629457 0.085029565
-0.19859321 -1.0029469 0.30954283 0.36051798 0.025029724 -0.8764521 -1.042267 0.2909119
-0.99389666 0.20426713 -0.71779984 -0.72195655 0.38609743 0.4367908 0.39192006 0.33938673
00000000: a544 05bf c753 a53e a255 303d 9ded 6ebf
00000010: 2836 553e 561c 833e 3c6d 59bf 761c 8e3e
00000020: e279 5fbe d5f1 0fbf b91d 89be 524c fabe
00000030: e57f 00bf 63e8 40bf 75db 80bf 92ae 0e3e
00000040: cedf 4ebf 6e14 c5be 4e87 32bd 1a53 a53e
00000050: a7d1 3bbf bd4d 983e bfee 833e 922c 493d
00000060: c939 383e 7b57 8abe 38c0 863d 2f2f 80bf
00000070: b3cf 4d3e 6d99 b03e dd81 613e c7ab b5bf
00000080: f8ce c33e 7413 08bf ddc9 8c3e 5555 9f3e
00000090: 5900 6cbf 1b83 b4bf 62dd d03e 5cd5 b53e
000000a0: f3ef 043d efa4 c8bf 0ce8 da3e f542 61bf
000000b0: 06ca e1be 8296 853e 9b32 3abf 8e66 11bf
000000c0: 9666 0a3e 1160 b43e d3f6 9fbe 7aea 37bf
000000d0: f6da 193e cc38 8cbf 6652 e8be 6df0 2dbf
000000e0: e6e3 74bf 5197 d83e daae 13bf 3bb0 9f3e
000000f0: 97a7 853d 49dc 1bbf ff79 8d3e 2291 a53e
00000100: 39f0 40bf 16a0 15bf 8c62 923e d6d2 833e
00000110: de6c 883e ca0b 973e 4bcd 29bf 3411 9e3e
00000120: e79b 063e d88d 4c3e 1549 783e 1ff5 63bf
00000130: b258 c63e 53e8 053e b3a4 873e ed07 6dbf
00000140: 60a6 89bf 7993 2dbf b890 a53e 4a82 44bf
00000150: e766 1bbf 3032 80bf ddb4 a13e 7fc8 19bf
00000160: 30f6 37bf 8a04 96bf d43e 3cbf bd93 933e
00000170: 68fa 9e3e a909 a73e 9fea b73e 85ea 69bd
00000180: 3c9a 8ebf cc51 513e b865 7d3e 8c5f 53bf
00000190: 7c37 2cbf 4c65 87bf ec33 b33e 330a 57bf
000001a0: 9b60 c13e e721 6ebf bde7 793e 5ca2 823e
000001b0: 2c1e 2ebf c498 5f3e e11f 4a3e 3064 95bf
000001c0: 4739 35bf 9cc4 8dbf d7f0 63bf 3dfc 5cbf
000001d0: 61b8 a6bf 3895 a83e 78d0 7c3e ea74 15bb
000001e0: 7417 2c3e 5bff 703e 3cf5 78bf cc6a b93e
000001f0: 37ed bebe 5cf3 41bf cc51 81be 791d 19bf
00000200: b732 943e c468 76bf 3c43 58bf 1535 8c3e
00000210: 25a5 e43e c883 91bf 0b2b 88bf e923 b33e
00000220: f2ed 933e e67e a3bf ffc8 75bf a3ff 90bc
00000230: b137 88bf be43 cf3e 39c4 b73e a60a 1bbe
00000240: 51f1 77bf 6b39 43be 72cf c03e 11dd 01bf
00000250: 8a22 c23e ab7d 16bf 6909 903e e38d 993e
00000260: 06d2 86bf e1a8 333e 08e5 bbbf 7e6d 1fbe
00000270: 7136 0e3e 139b a83e 7a83 8dbf 1c14 423e
00000280: 95db ca3d cdf7 89be e3d8 cf3e 4940 8c3e
00000290: 06c9 2d3e 2d2c 69bf 48f1 1dbf 3761 53bf
000002a0: bcf4 9c3e ad06 87bf 2072 7dbf e594 34bc
000002b0: 10f5 f53e c611 fbbd 5ab3 8fbf 8ac9 ebbe
000002c0: 04fa 32bf a7fa de3e 5d2d 473e 935c 67bf
000002d0: 2d3c 80be 31d9 873e 7921 7cbf 4de0 a83e
000002e0: b574 843e bb11 883e 2a0a 0ebf 50ba 18bf
000002f0: 16aa 98be 8496 b33e e221 973e 7512 233d
00000300: 30d6 c03e b088 4abf d3ea c53e 754b b2bf
00000310: 90fc b33e 387d 66be 1bb2 1fbf b7f9 ab3e
00000320: f518 58bf c989 1c3e fb49 933e 02c4 25bf
00000330: b5da f5be e7d0 713e 1ace 48be 8535 4abf
00000340: 8db3 f2be d4e6 1abf 2bbe 77bf b259 de3e
00000350: c35f cb3e 0d3a 96bf f4b5 d7be d4d9 b33e
00000360: b600 22bf eaf9 24bf 2a17 87bf 2957 d9be
00000370: 6ea5 bb3e 1011 bd3e 7dbd 4cbf 2cb8 683e
00000380: a76f 2d3e e27e 79bf 933b 71bf 5c5d 6cbf
00000390: f052 c53e d6bb 09be b52f 86bf e643 7abe
000003a0: f992 cb3e 532a 983e 0e4a 62bf 871d 91bf
000003b0: cf52 b7be be60 4ebf 9b0e 88bf fb23 ae3d
000003c0: 055c 4bbe 9060 80bf 667c 9e3e d095 b83e
000003d0: 230b cd3c 2a5f 60bf 0169 85bf 68f2 943e
000003e0: 0370 7ebf 672b 513e bbc1 37bf 25d2 38bf
000003f0: 90ae c53e 0ba3 df3e bfa9 c83e 19c4 ad3e
