bots/Monroe.chatbot/Monroeconverted_model.tflite (tflite, 202672 bytes, 4 tensors)

in/MatMul_bias f4 [64]
00000000: 5483 823e e1ee a33e 8f6e a03e 7970 593e
00000010: 3b97 823e 7ba3 8c3e bde3 693e 1a02 743e
00000020: 4313 513e 36d7 8a3e bdb2 8b3e 7e72 873e
00000030: 165d 8a3e efde 673e 5512 813e c7a7 5c3e
00000040: e8be 893e 9677 a03e a408 7b3e 5658 603e
00000050: 85b6 823e f973 5a3e 7209 683e f52b 673e
00000060: c1fc 9c3e ab21 453e 2588 503e 770c 853e
00000070: 759f 753e 858e 723e 9fce 823e cf06 1f3e
00000080: f009 5c3e 388b 803e 4148 533e f775 6c3e
00000090: 653c 613e 3b33 3f3e 04c9 853e d6fc 833e
000000a0: aef6 933e 5ddb 773e f9ff 5e3e 650b 8a3e
000000b0: 7684 773e a238 4e3e b3e3 7e3e 9224 643e
000000c0: feb0 5b3e 61df 6c3e 891a 833e 4268 593e
000000d0: 7065 823e e061 433e f885 823e 856a 803e
000000e0: 5491 903e 73e4 8c3e 276e 983e 2bf2 923e
000000f0: 2b83 8f3e 71b9 763e aa52 983e 469b 9b3e
0.2549082 0.32018188 0.3133435 0.21234311 0.25506005 0.27468476 0.22840782 0.23828927
0.20417504 0.27117318 0.27284804 0.26454538 0.27024144 0.22643636 0.252093 0.21548377
0.26903462 0.31341237 0.24515015 0.21908697 0.25529876 0.21333303 0.22659853 0.22575362
0.30661586 0.19251125 0.20364435 0.25986072 0.2398661 0.2368718 0.25548264 0.15529941
0.21488166 0.25106215 0.20633031 0.23091875 0.21995695 0.18671887 0.26129925 0.25778836
0.2889914 0.24204774 0.21777333 0.26961818 0.24171624 0.20138791 0.24891548 0.22279575
0.21454236 0.23132087 0.25606182 0.21231177 0.25468016 0.19080305 0.25492835 0.25081268
0.28235877 0.27518043 0.2977154 0.28700384 0.2802976 0.24094178 0.29750568 0.30391902

in/kernel/transpose f4 [64, 748]
00000000: 368e adbc 6c91 fc3c 4ebd 9dbe af2c ff3d
00000010: b74f 9a3e 9d96 81be b877 823e 3995 713e
00000020: 6429 653d f67a 4c3b 8d6b 283e 0fb9 313e
00000030: 8121 2d3e cbf2 ab3e 8ef1 573d 5140 ab3e
00000040: 96ee 0e3d c08b 443d b135 5fbd 2add 993d
00000050: 082f 453e 0569 293e 59de 9a3e 4266 8bbe
00000060: cc52 993d 8a7e a6bd 7dfa 663e 322b 653e
00000070: e01f edbd dcd8 173e 5c2e 043e 016a 163e
00000080: 4fbd 093e 1841 49be acf1 43bb ff34 f13d
00000090: d725 0ebd 7c29 9abd a6c9 483e 23c5 16bd
000000a0: 9f25 ecbd 7278 26be 6952 66bd 05e8 003d
000000b0: 8a19 1c3d 1946 d13d d2a9 d8bd fffa 813e
000000c0: cea0 4d3e a3c7 7dbd 9777 89be 66b4 063e
000000d0: 0238 83bd 9b7c 5f3e 44af df3d fc49 513e
000000e0: eb9f 443e 0b5a aabd 2f10 15be 01b7 7a3e
000000f0: 8428 d43d abf7 5c3e 46f2 6c3e dc8e ca3c
00000100: 529b 1e3c d984 1abe 8ae9 32bd 2f12 573e
00000110: f781 9fbe 45fe 93bc a4cf 683e 56b4 a23c
00000120: 03c6 2f3e fd67 043e 2a74 8e3d add8 3d3e
00000130: 4dc0 2d3e db73 23be bc19 e83c 3f38 1a3c
00000140: 8954 693e 97bc 6c3e 9d9f 8e3d fe5a 12be
00000150: b9c0 d1bd ba83 e1bc dd55 3f3e ff1d 083e
00000160: 3eb9 ad3c 85f5 03bd cb02 8fbc 5ca6 2a3e
00000170: 3626 843e 5cf3 0fbe bb4a e1bd c3b6 c9bc
00000180: 334a 0f3d e598 553e ff69 b13d e3a6 dabd
00000190: e076 c63d e1da 003e 34b1 be3d cd96 4ebd
000001a0: 9af7 e4bc 0b63 e53d b46a 4c3e 59a5 393e
000001b0: aef9 203e 203e fa3d 7120 9fbd 9e87 37be
000001c0: 3c1d 92bd 3823 96bd d550 bcbc cfd1 413e
000001d0: 433c 4cbe 2243 663e dd82 8a3e f159 533e
000001e0: daa1 313e fb03 19be 167f 07be 1ffc dbbd
000001f0: d495 563e de0e c8bd f6e0 713e 2c9b bf3d
00000200: 6215 84bb 7681 973d 7ee9 073e 3698 453e
00000210: f442 02be 42ae 21bd 2706 e4bd 8048 32be
00000220: ffbf 44be 7840 26be ad58 5dbd 5f51 6bbd
00000230: 64c5 533e c09f e43b 9167 f7bd f433 d63d
00000240: f960 263e fc2f b93e b22d 003e 88f0 49be
00000250: 608b 953d bd4e f1bd 754b dc3d 9153 44be
00000260: bf51 94bd 9734 6f3c bb0f 703e af89 b53e
00000270: 2752 c33d 8f8f 84bd f4e7 2dbd feaa 953d
00000280: 398a 2d3e 18ae 623e 2e70 043e 6824 723e
00000290: f638 c23d 1c0d 773e 9e61 023e 302f 0c3e
000002a0: fec9 36be 022e 83bd a083 14be ab04 d93d
000002b0: 6f0f 48be 4f34 0bbe 1fff ddbd f0cb 363e
000002c0: 7bec 743d 7179 333e 088f ecbc eb3f d7bd
000002d0: 1cea 7a3e 044a 6a3e 7d6b 21bd 9fc5 603e
000002e0: ae23 1e3e fb97 143e 721d 293e 1c4c 00be
000002f0: 0a96 a93d 0b15 a23e 8db2 b3bd 22ba 853d
00000300: 37c7 4c3e 62a0 2abe 836f 3f3e 838c 08be
00000310: aca7 3f3e 4896 23bd 74aa 7fbd 8ffd aebd
00000320: d6cb 58be 93c3 453e ea04 413e f0ea b4be
00000330: 2d7e d5bd 5b55 6c3e 3e81 6b3e f8d6 833e
00000340: fc9e 143e 538a 81be cca4 7b3e 8074 d73d
00000350: b42c 37bd 283f 6cbd bd6e 563e 61fa c6bd
00000360: 3329 bfbd 57f7 223e a002 5ebd e1ca c8bc
00000370: 19d0 133e 9d9a 903e 375b 1e3e 558a 02bd
00000380: f13c 77ba 7420 08be ec65 f83d 8767 6abd
00000390: 6ceb 2a3d 4d7d c33c 9a48 6a3e c6da 1ebd
000003a0: 7188 afbc 54bf 453e 8cd6 c7bd f74f 60be
000003b0: 0778 cf3c fd4a e0bd c6da 2e3e 1981 c33d
000003c0: 4b28 03bd c370 a6bd 1aed 063e 888e ddbc
000003d0: bf36 983e eb0f efbd 836e 2e3e ccbd 95bd
000003e0: 1df3 bcbd b3de abbb 3e94 09be 2578 6e3d
000003f0: 2613 6a3e 8b81 373e 6c65 113e be3a 533e
-0.021185976 0.030831061 -0.3080849 0.124596946 0.30138943 -0.2531022 0.25481963 0.2359208
0.055947676 0.003120122 0.16447277 0.1735575 0.16907312 0.33583674 0.0527206 0.33447507
0.034895502 0.04798484 -0.054494563 0.07512887 0.19256222 0.16543968 0.30247763 -0.27226454
0.074864954 -0.08129604 0.22556491 0.22379759 -0.11578345 0.14828819 0.1290831 0.14688875
0.13451122 -0.19653738 -0.0029898686 0.11777686 -0.034704056 -0.07527444 0.19608173 -0.036809098
-0.11530613 -0.16256884 -0.056230936 0.03147127 0.038110293 0.10218448 -0.10579266 0.25386807
0.20080873 -0.061957967 -0.26849052 0.13154754 -0.06407167 0.21824877 0.10922101 0.20438379
0.19201629 -0.083179556 -0.14556955 0.24483873 0.1035929 0.21578853 0.23139295 0.024726324
0.009680586 -0.1508974 -0.04367975 0.2100303 -0.31153843 -0.018065581 0.22735459 0.019861382
0.17165379 0.12930293 0.0695575 0.18539687 0.16967888 -0.15962164 0.028332584 0.009412824
0.22786154 0.23118816 0.069640376 -0.14292523 -0.10241837 -0.027528632 0.18685098 0.13292693
0.021206494 -0.032216568 -0.017457386 0.16665024 0.25810403 -0.14057678 -0.11000582 -0.02462328
0.03498287 0.20859106 0.08662795 -0.10676362 0.09690642 0.12583496 0.093111426 -0.050436784
-0.027950097 0.112005316 0.19962579 0.18129481 0.15720245 0.12218881 -0.077698596 -0.17922828
-0.07134482 -0.07330936 -0.022987762 0.18927692 -0.19944863 0.22486547 0.27052966 0.20639779
0.17346898 -0.14942925 -0.13232073 -0.10741448 0.20955592 -0.09768461 0.23620972 0.093557686
-0.0040308693 0.073977396 0.13272664 0.19296345 -0.12720853 -0.039472826 -0.11133986 -0.17410469
-0.19213866 -0.1623553 -0.054039646 -0.05745065 0.20680767 0.0069770515 -0.120803006 0.10459128
0.1624793 0.36169422 0.12517431 -0.19720662 0.07301974 -0.11782596 0.1075658 -0.19172503
-0.07242154 0.014599941 0.234435 0.35456607 0.09537154 -0.06472694 -0.042457536 0.07308005
0.16947259 0.22136724 0.12933418 0.236467 0.09483521 0.24126095 0.1273255 0.13689876
-0.17850491 -0.0640526 -0.14503336 0.105965935 -0.19537137 -0.13594173 -0.10839676 0.17851233
0.059795838 0.17526795 -0.028876796 -0.10510238 0.24503368 0.22879797 -0.03940915 0.21950386
0.15443298 0.14511101 0.16515139 -0.12529033 0.08280571 0.3165668 -0.0877429 0.06529643
0.1999787 -0.16662744 0.18694882 -0.13334851 0.18716305 -0.03993824 -0.062418416 -0.08544456
-0.21171507 0.19312887 0.18849531 -0.35335493 -0.10424457 0.23079436 0.2299852 0.25749946
0.14513773 -0.25300846 0.24574584 0.105202675 -0.044720367 -0.057677418 0.20940681 -0.09715725
-0.0933403 0.15914665 -0.054201722 -0.024510803 0.14434852 0.2824296 0.15464483 -0.031870205
-0.0009431383 -0.1329363 0.12128815 -0.057227638 0.041728422 0.023863459 0.22879258 -0.038782857
-0.021427365 0.19311267 -0.097577184 -0.21905504 0.025325788 -0.10951803 0.17075643 0.09546108
-0.03202085 -0.08126976 0.13176385 -0.027045503 0.29729268 -0.11672958 0.17034344 -0.073115915
-0.09226058 -0.0052450537 -0.13435456 0.058220048 0.22858867 0.1792051 0.14198846 0.20627877

out/MatMul_bias f4 [38]
00000000: 7f7f 0dbd ba33 9bbc bcc6 1bbe 00f2 14bd
00000010: dec7 f7bc f337 333d 581e 15be 542b 463b
00000020: eace 08bd 2e0f 54b9 fddb 213d d684 c3bd
00000030: a9fe 263a 06ce 223d eec3 63bd 1d64 82bc
00000040: 6618 10bd 5e20 94bc d838 243e fe82 f23c
00000050: 8b15 65bd a5c4 c6bd 45d8 1ebd 55d4 f5bc
00000060: 19c5 babb 6221 ffba 457c 873c 61cb bf3d
00000070: 47e4 75bc e0b9 853d ad1c b0bd 3c4c 263d
00000080: 92e3 ab3c 808e edbb 9853 153e 03dd 5b3d
00000090: 70ff 653d c498 e5bc
-0.034545418 -0.018945564 -0.1521253 -0.0363636 -0.030246671 0.04375453 -0.14562356 0.0030238228
-0.033400454 -0.0002022355 0.039516438 -0.09546821 0.0006370345 0.03974726 -0.055606775 -0.015916878
-0.03517952 -0.01808184 0.16037309 0.029603478 -0.055928748 -0.09705476 -0.03878047 -0.030008474
-0.0056997654 -0.0019464905 0.016538749 0.09364963 -0.015008039 0.065295935 -0.085992195 0.040600047
0.020982537 -0.0072496533 0.1458267 0.05367757 0.056151807 -0.028026946

out/kernel/transpose f4 [38, 64]
00000000: be5a 12bf be28 1dbf b977 35bf 9898 6dbf
00000010: 6608 943e 23e2 20bf 5d30 643e 78c2 69bf
00000020: a097 083e caad 5ebf e22c 09bf cf73 2dbf
00000030: eed7 7a3e 9e6f 03bf c9bd 913e 6b19 17bf
00000040: c378 fabe e3fd 83bf e909 40bf 14d8 a3be
00000050: 7084 31bf 3728 693e 89e9 993e 7c0f 873e
00000060: 8b65 083e e9a0 b83e e646 3fbf 6202 943e
00000070: 8246 37bf 7ef8 8bbf ac94 1ebf 570a 6d3e
00000080: a2c8 273e 2644 a23e 5aa3 b23e 3178 d73e
00000090: 27c4 fb3e 7ba9 7fbf 23f5 9b3e d67b 44bf
000000a0: 5992 0d3e b904 efbe 3b15 1dbf efc3 293e
000000b0: cab6 42bf 9187 67be ea73 903e b8c7 54bf
000000c0: c59c e53e 1a53 323e 3020 943e bea9 76bf
000000d0: 6053 503e 79f1 51bf 9ae8 e7be 3fd6 713e
000000e0: 5cb3 9b3e 9603 6dbf 0ca2 693e b8d4 ae3e
000000f0: d94c 8b3e e609 55bf 8b62 283e 8a9f 5f3e
00000100: 2939 a3bf 6c33 63be 2176 5dbe e241 8c3e
00000110: 706d 0abf f278 2cbf feca 27bf 8ccb 56bf
00000120: afd5 d63e 1bca 59bf f39b 593e 091d 8cbe
00000130: 1b77 30bf ac63 e83e 4df3 b23d eb7e b23d
00000140: 38f4 09be bc91 c9bc 26eb bfbe 0f24 a23e
00000150: ee14 febe fa04 633e 5c7e 40be 4c0b ccbe
00000160: 83c0 9e3d 3afb db3d 30fd f3be 08c7 22bf
00000170: d52c 8e3e edee 2e3e e216 b03e 91da a33e
00000180: 74ba 28bf 2b29 863e d312 08bf d4d1 c3be
00000190: 8181 bb3e 6380 873e 59cb a33e 0a86 d9be
000001a0: 822b 093e 37f0 b63e d684 703e b5b4 873e
000001b0: 706f 80be e355 893e 02d6 25bf 78c2 b73e
000001c0: bb79 bd3e 5cad 473e 074b 0abf fb28 973e
000001d0: fee5 27be dc86 84bf d1cd dfbd 0e0f aa3e
000001e0: 4dbc 33bf a834 46bf 6beb f8be f4f9 e7be
000001f0: 0cfa a6bf 5de4 543e c2b3 ad3e 1124 acbf
00000200: c2b6 31bf cb9e 58bf 43b3 89bf 84e6 a73e
00000210: 5986 8dbf 96f1 243e bf36 813e 3a0c 25bf
00000220: 62fe 7c3e ac34 89bf 265d 7e3e 31c5 1ebf
00000230: 2188 34be c9eb 6f3e 4dbf 81bf 2b81 873e
00000240: 68f0 553e e98b 0e3e de01 083e dfe8 793e
00000250: 14c7 8b3e e975 2abf ee23 313e 0e8a 143e
00000260: 24f6 07bf a39a 673e 1f6d 3dbf bf34 3dbf
00000270: 928d 39bf d789 893e 8a2b 4cbf c976 9dbe
00000280: e572 563e 73b8 98bf 09f3 7dbe bc87 b63e
00000290: da48 de3e a8be 023e 4316 90bf 1f75 933e
000002a0: 69e4 113e dc9b 52bf a00e 933e cc1e 7cbf
000002b0: 0658 5dbf e996 40bf 55eb 233e 974b 833e
000002c0: d678 fa3d 7567 17bf 2bac 8d3e 1d13 2c3e
000002d0: 7de9 d83d ad12 b53e 88ab 6dbe 7428 483e
000002e0: 9e7d 64bf 02e9 063e fb33 37bf df21 cb3e
000002f0: cff3 1c3e a15d 18bf f1a6 863e ebe1 773d
00000300: 3101 fbbe 56f9 a9be 0f5f 7c3e 0de6 0dbf
00000310: 0245 853e bc3e 863e 27e2 f5be 1306 5c3e
00000320: 13b8 56bf 8950 28be a018 bf3e 69b4 623e
00000330: 7a94 41bf c1f9 263e 1bad 22bf 92c9 93bf
00000340: bf6c 11bf f7eb 603e 66c9 113e 30ce 8cbe
00000350: df17 aa3e 4180 ca3e 3314 9b3e cd7a cb3e
00000360: 1a6d 3bbf 5f3e 48bf 7ade 27bf 7e7a 523e
00000370: e4b8 1c3e 7276 69bf 0b9f 41bf 409a 85be
00000380: 60d0 b93e a0fb 08bf f1c5 c53e 1095 1abf
00000390: 7ddf 223e 9582 3fbf c8c0 13bf 5147 8bbf
000003a0: 319e 1a3e a9f1 33bf 070c cd3e cf09 4ebf
000003b0: 4e0a 653e e737 40bf 9598 783e 3a95 943e
000003c0: 5bb1 96bf 3499 833e dd77 40bf 4bf6 04bf
000003d0: a220 d13e 74ae 8dbf 48ba b6be 3486 8f3e
000003e0: 65d4 b4be a6d5 39be 722b 24bf 92c7 883e
000003f0: bb31 4ebf 8cfc 64bf 621a 24bf b92f ad3e
-0.5716971 -0.6139029 -0.7088581 -0.92810965 0.28912657 -0.6284506 0.22284074 -0.9131236
0.1333909 -0.8698393 -0.5358411 -0.67754835 0.24496433 -0.5134219 0.28465107 -0.5902316
-0.4892026 -1.0311855 -0.7501512 -0.32000792 -0.6934271 0.22769247 0.30060986 0.26379
0.13319986 0.36060265 -0.7471756 0.28908068 -0.7159196 -1.0935209 -0.61945605 0.23148476
0.16385129 0.31692618 0.34890252 0.42083886 0.4917309 -0.9986798 0.30460462 -0.7675146
0.13825358 -0.4668329 -0.6136052 0.16578649 -0.76060164 -0.22610308 0.28213435 -0.83117247
0.44846168 0.17414513 0.28930807 -0.96352756 0.20344305 -0.82009083 -0.45294648 0.23616885
0.30410278 -0.92583597 0.22815722 0.34146667 0.27207068 -0.8321823 0.16443841 0.21838203
-1.2751819 -0.22187585 -0.21627094 0.27394015 -0.5407324 -0.6737205 -0.65544116 -0.8390434
0.41959903 -0.85074013 0.21250896 -0.27365902 -0.6893174 0.45388544 0.08737812 0.08715614
-0.13472068 -0.024605624 -0.37484092 0.31668136 -0.49625343 0.22169867 -0.18798202 -0.3985237
0.077515624 0.10741277 -0.47654104 -0.6358495 0.2776858 0.1708333 0.34392458 0.3200269
-0.65909505 0.26203284 -0.53153723 -0.38246024 0.3662224 0.2646514 0.3199108 -0.42485076
0.13395503 0.35730144 0.23488173 0.26505056 -0.2508502 0.2682334 -0.64779675 0.35890555
0.37006935 0.19499725 -0.5402073 0.29523453 -0.16396329 -1.0353656 -0.10927928 0.3321461
-0.702092 -0.774241 -0.4861711 -0.45307887 -1.3045058 0.20790239 0.33926207 -1.3448507
-0.6941949 -0.846173 -1.0757831 0.32793057 -1.1056625 0.16107783 0.2523708 -0.6447178
0.24706414 -1.0719199 0.24840221 -0.6201964 -0.17630054 0.23429789 -1.0136505 0.26465735
0.20892489 0.13920559 0.13281962 0.2440524 0.27300322 -0.66586167 0.17298862 0.14505789
-0.53109956 0.22617583 -0.7399463 -0.7390861 -0.72481644 0.26862976 -0.79753935 -0.30754688
0.20942266 -1.193129 -0.24799742 0.35650432 0.43414956 0.12768042 -1.1256794 0.28800294
0.14247288 -0.8226907 0.28722095 -0.9848449 -0.8646244 -0.7523027 0.16007741 0.25643608
0.12230079 -0.5914224 0.27670416 0.16804166 0.10591409 0.3536581 -0.23209965 0.19546682
-0.89254177 0.13174823 -0.7156369 0.3967428 0.1532738 -0.59517866 0.2629924 0.060518187
-0.49024346 -0.3319804 0.24645637 -0.55429155 0.2602921 0.26219738 -0.48024103 0.21486692
-0.83874625 -0.16436972 0.37323475 0.22139134 -0.7561718 0.16306211 -0.6354539 -1.1545889
-0.5680656 0.21965013 0.14236984 -0.2750106 0.33221337 0.39550975 0.30288848 0.39742127
-0.7321335 -0.7822017 -0.6557385 0.2055454 0.15304905 -0.9119636 -0.75633305 -0.26094246
0.3629179 -0.5350895 0.3862758 -0.603837 0.15905567 -0.7480863 -0.57716036 -1.0881139
0.15099408 -0.7029062 0.4004824 -0.80483717 0.22367212 -0.750853 0.24276955 0.290201
-1.1772875 0.25702822 -0.75182897 -0.51938313 0.4084521 -1.1068864 -0.35688996 0.28032076
-0.35318294 -0.18147907 -0.6412879 0.2671476 -0.8054463 -0.89447856 -0.64102757 0.33825472
