bots/Chanel.chatbot/Chanelconverted_model.tflite (tflite, 227536 bytes, 4 tensors)

in/MatMul_bias f4 [64]
0	0x3e8ed7ee	0.27899116
1	0x3e87f8a0	0.26556873
2	0x3e6e181b	0.23251383
3	0x3e8d4242	0.27589613
4	0x3e861781	0.26189807
5	0x3ea4b900	0.32172394
6	0x3e6229ae	0.22086212
7	0x3e91ded7	0.28490326
8	0x3e9f8caf	0.3116202
9	0x3e691f0d	0.22765751
10	0x3ea5f2b9	0.32411745
11	0x3e60fee7	0.21972238
12	0x3e9a1c0e	0.3009953
13	0x3e8bf568	0.27335668
14	0x3e5e6232	0.21717146
15	0x3e801c0e	0.25021404
16	0x3e45069f	0.19240807
17	0x3e9eedbe	0.31040758
18	0x3e8c6336	0.27419442
19	0x3e9d3e7c	0.30711734
20	0x3e72988b	0.23691003
21	0x3e8f7742	0.28020674
22	0x3e881700	0.26580048
23	0x3e8b8648	0.27250886
24	0x3e757e08	0.23973858
25	0x3e93ad6f	0.28843257
26	0x3e611c7d	0.21983524
27	0x3e9f13c4	0.31069767
28	0x3e85942e	0.26089615
29	0x3e9097a4	0.28240693
30	0x3e916571	0.28397706
31	0x3e70b833	0.23507766
32	0x3e829e8f	0.25511596
33	0x3e6fac40	0.23405552
34	0x3e6752e0	0.22590208
35	0x3e834620	0.2563944
36	0x3e89a482	0.26883322
37	0x3e9f12bc	0.3106898
38	0x3e6f537e	0.23371693
39	0x3e8031d7	0.25038025
40	0x3e48be48	0.19603837
41	0x3e99bcab	0.30026755
42	0x3e95f852	0.29291016
43	0x3e5fdea5	0.21862276
44	0x3e919850	0.28436518
45	0x3e75fb48	0.24021637
46	0x3e900e34	0.28135836
47	0x3e939438	0.2882402
48	0x3e987d27	0.29782984
49	0x3e83cae9	0.25740746
50	0x3e695af9	0.2278861
51	0x3e8e1267	0.27748415
52	0x3e60adb8	0.21941268
53	0x3e99542c	0.2994703
54	0x3e8aecf3	0.27133903
55	0x3e61fc11	0.22068812
56	0x3ea1745b	0.31534085
57	0x3e679534	0.2261551
58	0x3e8ead44	0.27866566
59	0x3e61ad84	0.22038847
60	0x3e6e0002	0.2324219
61	0x3e9ed9ea	0.3102563
62	0x3e90795b	0.28217587
63	0x3e8dce13	0.27696285

in/kernel/transpose f4 [64, 837]
0	0x3dd754a0	0.10514188
1	0x3de8d066	0.11367874
2	0x3cf06279	0.02934383
3	0x3dd0212c	0.10162577
4	0x3c6d19f6	0.014471522
5	0xbe35f0a9	-0.17767586
6	0xbe0f4379	-0.13990583
7	0xbe8714f7	-0.26383182
8	0xbe3be037	-0.1834725
9	0xbe0e2375	-0.13880713
10	0x3e7e12b7	0.24811827
11	0x3df29147	0.11844116
12	0x3e9ca00a	0.3059085
13	0x3dd53f85	0.10412506
14	0xbdf5c3ed	-0.120002605
15	0x3dbc8392	0.092047825
16	0x3de928b7	0.11384719
17	0x3df7e341	0.12103892
18	0x3dd59c01	0.10430146
19	0xbd83f6de	-0.064435706
20	0xbe1c19d4	-0.15244228
21	0xbe76f04a	-0.241151
22	0xbd9e984c	-0.07743892
23	0xbe2f0460	-0.17091513
24	0xbe6c2c9e	-0.23063895
25	0x3e24c2e8	0.16089976
26	0x3d3db2eb	0.046313208
27	0x3e7f0475	0.24904044
28	0xbdbeb7ff	-0.09312438
29	0xbe0daad9	-0.13834704
30	0x3e4fbe12	0.2028735
31	0x3e169fcc	0.14709395
32	0xbd157826	-0.036491536
33	0x3e42640e	0.1898348
34	0xbdf0260f	-0.11726009
35	0xbe6d0fcb	-0.23150556
36	0xbe7c3f25	-0.24633463
37	0xbd326989	-0.043557677
38	0x3de32bcc	0.11092338
39	0x3e4c9666	0.19979247
40	0xbdd43e26	-0.103634164
41	0xbd9f145f	-0.07767557
42	0x3d2ae700	0.041724205
43	0xbc85aa44	-0.01631654
44	0xbe365bf4	-0.17808515
45	0xbe085ae5	-0.13315924
46	0xbe121cb6	-0.14268765
47	0x3cdb1416	0.026742976
48	0x3ec6d8b0	0.38837194
49	0xbc8e5b09	-0.017377393
50	0x3e0a3bb7	0.13499342
51	0xbde0b9a9	-0.10972912
52	0x3e07a446	0.13246259
53	0x3e0bdebc	0.13659185
54	0xbdecf270	-0.11569679
55	0xbe1dde37	-0.154168
56	0x3e89be0d	0.2690281
57	0xbe0b8b82	-0.13627437
58	0xbd8c85df	-0.068614714
59	0x3b28e0a0	0.0025768653
60	0x3e02afa5	0.12762316
61	0x3e2b681d	0.16738935
62	0x3e8813ce	0.2657761
63	0x3e7bd19c	0.24591678
64	0x3e7d28cb	0.24722593
65	0x3df8f062	0.121552244
66	0x3e538673	0.20656757
67	0x3e656517	0.22401844
68	0x3e5e9cb3	0.21739464
69	0x3e5b9ac6	0.2144576
70	0xbcb3971d	-0.021922642
71	0xbe2eb28b	-0.17060296
72	0xbcafb726	-0.021449637
73	0x3e1dc2ae	0.15406296
74	0x3df4ec82	0.11959173
75	0x3e24f8d9	0.16110553
76	0x3e5f6b97	0.21818386
77	0xbda797c9	-0.081832476
78	0x3e42bde5	0.19017752
79	0xbdff5222	-0.124668375
80	0x3e07ff8b	0.13281076
81	0xbd318152	-0.04333622
82	0xbd8aa35e	-0.06769441
83	0xbe02418d	-0.12720318
84	0x3dc1ef62	0.09469487
85	0x3dbe4093	0.0928966
86	0xbe31a408	-0.17347729
87	0xbd9f6072	-0.07782067
88	0xbc59ee9b	-0.013301517
89	0x3ca03745	0.019557605
90	0x3e14884e	0.14505121
91	0xbda5f7b6	-0.08103888
92	0x3e41ec9d	0.18937917
93	0x3df95923	0.121752046
94	0x3e09e482	0.13466075
95	0xbd463bca	-0.048396863
96	0xbc42ff4d	-0.011901689
97	0x3d574827	0.052559044
98	0xbd5e4384	-0.054263607
99	0xbd9216fb	-0.071332894
100	0xbe27fa6f	-0.16404127
101	0x3e1d6ecf	0.15374301
102	0x3e2dd42c	0.16975468
103	0xbe052ef3	-0.13006191
104	0xbdeac7aa	-0.11463864
105	0xbd98777e	-0.07444666
106	0xbe83f912	-0.25775963
107	0x3d8aab1d	0.067709185
108	0x3e9368fd	0.28791037
109	0xbd92b52b	-0.07163461
110	0xbe17d7a4	-0.14828354
111	0x3dc0c44f	0.09412443
112	0xbc82a3dc	-0.015947275
113	0x3eb3a885	0.35089508
114	0xbe193551	-0.14961745
115	0x3dd32a59	0.103108115
116	0xbe33b84c	-0.17550772
117	0xbd21280e	-0.03934484
118	0x3e8dcba7	0.27694437
119	0xbdc75fd4	-0.09735075
120	0xbd82ade9	-0.06380827
121	0x3d8ce435	0.068794645
122	0xbd21ab0b	-0.03946976
123	0x3e624c2e	0.22099373
124	0x3d8db0db	0.06918498
125	0x3e7baf36	0.24578556
126	0xbdca8310	-0.098882794
127	0x3de3d698	0.11124915
128	0x3e600baa	0.2187945
129	0xbdd74429	-0.105110474
130	0x3d88c1aa	0.066775635
131	0xbd8da980	-0.06917095
132	0x3e53fc42	0.20701697
133	0xbe16b151	-0.14716078
134	0x3e228496	0.1587089
135	0xbd99bcd9	-0.07506723
136	0xbe13daf7	-0.14438997
137	0xbe714937	-0.23563085
138	0x3d903a62	0.07042386
139	0x3dbdb12a	0.09262307
140	0xbe0d8da1	-0.13823558
141	0xbe03ad5f	-0.12859105
142	0x3a93df75	0.0011281805
143	0xbe22c039	-0.1589364
144	0x3e2706f2	0.16311243
145	0xbdbe4415	-0.09290329
146	0xbe4066e7	-0.18789254
147	0x3e51a74c	0.20473975
148	0xbe3ae66c	-0.18251961
149	0xbe4a97b5	-0.19784434
150	0x3dfdc8ff	0.123918526
151	0xbdf0f1cc	-0.11764869
152	0x3e355b80	0.17710686
153	0xbe011976	-0.12607369
154	0xbe8326c1	-0.25615504
155	0xbe42c2fe	-0.19019696
156	0xbe217968	-0.15768969
157	0xbd9e44bf	-0.07727956
158	0x3e65ad8a	0.22429481
159	0x3e8a69b9	0.27033785
160	0xbd8ea5bc	-0.06965205
161	0x3e2a8513	0.16652326
162	0x3e67d9f0	0.2264173
163	0x3e3b932b	0.18317859
164	0x3e0ccb55	0.1374944
165	0x3e70a817	0.23501621
166	0xbcceafd0	-0.025230318
167	0x3e6350d6	0.22198805
168	0x3d87cb2c	0.06630549
169	0xbdfa3258	-0.122166336
170	0xbe41f682	-0.18941692
171	0xbe6f4d77	-0.23369394
172	0xbe8157d9	-0.25262335
173	0xbe8bb9e3	-0.27290258
174	0x3da89dbb	0.0823321
175	0x3e493b42	0.19651511
176	0xbbd34ec6	-0.0064485995
177	0x3db16909	0.08662612
178	0x3d845faf	0.06463563
179	0xbd5cf05b	-0.05394016
180	0xbe6cc74c	-0.231229
181	0xbe645c5e	-0.2230086
182	0x3e2ccfeb	0.1687619
183	0xbdfa1eb4	-0.122128874
184	0x3e45f0fd	0.19330211
185	0x3e491934	0.1963852
186	0x3d860bd4	0.06545225
187	0x3d8c2fa5	0.06845025
188	0xbd421508	-0.04738334
189	0xbe615967	-0.2200676
190	0xbe3bc692	-0.18337467
191	0xbdacdf7e	-0.08441065
192	0x3e0b5d95	0.13609917
193	0xbdb2686d	-0.08711324
194	0x3ea9516e	0.33069938
195	0x3e5ffc06	0.21873483
196	0x3e008fda	0.12554875
197	0x3e8bed7d	0.27329627
198	0xbdcae63b	-0.09907194
199	0x3cbe556c	0.023234092
200	0xbe1d134f	-0.15339397
201	0xbe64685c	-0.22305435
202	0xbe7564aa	-0.23964182
203	0xbc99cd83	-0.018774753
204	0xbe288e03	-0.16460423
205	0xbe35da9a	-0.17759171
206	0xbe52e61c	-0.20595592
207	0xbcdd5924	-0.027020045
208	0x3e6541e1	0.22388412
209	0x3dac26f4	0.08405867
210	0x3e3bc8c5	0.18338306
211	0x3e14689c	0.1449303
212	0x3e33a622	0.17543843
213	0xbe14c2bc	-0.1452741
214	0xbe35db09	-0.17759337
215	0x3e0e205a	0.13879529
216	0xbe41c1f2	-0.1892164
217	0xbe3cc4c6	-0.18434438
218	0xbddab45d	-0.10678933
219	0x3e06b9ab	0.13156764
220	0xbe6c753a	-0.23091593
221	0xbdb9075c	-0.09034607
222	0x3da18618	0.078869045
223	0xbe382f3e	-0.17986771
224	0xbe053509	-0.13008513
225	0xbe796f2a	-0.24358812
226	0x3e12e22a	0.14344087
227	0x3e59a1d0	0.21253133
228	0xbe02a22d	-0.12757178
229	0x3db26493	0.08710589
230	0xbdfac71d	-0.12245009
231	0xbde60bf1	-0.112327464
232	0xbd890017	-0.0668947
233	0xbc202633	-0.009774732
234	0x3e7bda3b	0.24594967
235	0x3e73f639	0.23824395
236	0xbdf2ceee	-0.11855875
237	0xbe51d21c	-0.20490307
238	0x3e13d660	0.14437246
239	0x3e1d3fa1	0.15356304
240	0x3e331751	0.17489363
241	0xbdae6a99	-0.08516426
242	0x3e6d6854	0.2318433
243	0x3e495f88	0.19665349
244	0x3b956970	0.0045596883
245	0x3e44ea5b	0.19230025
246	0xbe815f71	-0.2526813
247	0xbdaacae3	-0.08339479
248	0x3e67e2d6	0.22645125
249	0xbd73d412	-0.059528418
250	0xbe17187d	-0.14755435
251	0xbcafcc26	-0.02145965
252	0xbde4138f	-0.11136543
253	0xbe41e3b1	-0.18934514
254	0xbe2ac8c3	-0.16678147
255	0xbd65c228	-0.056093365

out/MatMul_bias f4 [46]
0	0x3d9c3e89	0.07629115
1	0xbe0595d5	-0.13045438
2	0xbd43b6fc	-0.04778193
3	0xbd2970fc	-0.041367516
4	0x3b3e5228	0.0029040668
5	0xbe06073b	-0.13088696
6	0x3d1079eb	0.03527252
7	0xbc96a249	-0.01838793
8	0xbdc06215	-0.09393708
9	0xbdd346d4	-0.10316244
10	0x3dab3f20	0.083616495
11	0xbd8271d4	-0.06369367
12	0x3b79d4e9	0.003812129
13	0x3c477cbb	0.012175734
14	0xbd18ea45	-0.03733279
15	0x3d2b50dc	0.04182516
16	0x3d616ca2	0.05503524
17	0x3d40fcd3	0.047116112
18	0x3ca77f63	0.020446485
19	0xbd3dcb07	-0.0463362
20	0x3e3f574c	0.18685645
21	0x3deb66ca	0.11494215
22	0xbd9016a3	-0.070355676
23	0xbd0a41d9	-0.033754203
24	0x3ca458a3	0.020061797
25	0x3d862b75	0.065512575
26	0xbc7dd5f2	-0.015492903
27	0x3dabf469	0.08396227
28	0x3d40c71f	0.047064897
29	0x3d9943ba	0.07483621
30	0x3d376f70	0.04478401
31	0x3d9d781f	0.07688927
32	0xbd5893e4	-0.052875414
33	0xbd68154d	-0.05666094
34	0xbd6fb3e2	-0.05852116
35	0xbc902076	-0.017593604
36	0x3d50807a	0.050903775
37	0x3d5980c6	0.053101324
38	0x3dc9cc9e	0.09853481
39	0xbda11b05	-0.07866482
40	0xbe19bb77	-0.15012918
41	0xbc72a7c2	-0.014810504
42	0xbc4a523d	-0.012348709
43	0xbcf984db	-0.030458858
44	0xbcba59d6	-0.022747915
45	0xbdbc9d04	-0.09209636

out/kernel/transpose f4 [46, 64]
0	0x3edc09ef	0.4297633
1	0x3ea8f69e	0.33000654
2	0x3d0f29a0	0.034951806
3	0xbf6449ee	-0.8917531
4	0xbf81675e	-1.010967
5	0xbf8bf347	-1.0933617
6	0xbde0ac1c	-0.10970327
7	0x3e6ea81c	0.23306316
8	0xbef645ee	-0.48100227
9	0x3d9e2dd1	0.077235825
10	0xbe66e009	-0.225464
11	0x3eb79a16	0.35859746
12	0x3ed37e30	0.4130721
13	0xbe84da2f	-0.2594771
14	0xbf3cc26d	-0.7373417
15	0x3e9492ea	0.29018337
16	0x3e938f79	0.28820398
17	0xbf82b266	-1.0210693
18	0x3ea987d9	0.33111456
19	0xbed226e1	-0.41045287
20	0xbf3391c9	-0.70144325
21	0xbf42e8ec	-0.7613666
22	0xbea27d65	-0.31736293
23	0xbf962c25	-1.1732222
24	0xbf83868f	-1.0275439
25	0xbf43a1db	-0.76418847
26	0x3ed1409a	0.408696
27	0xbf02f499	-0.51154476
28	0xbf15f5a4	-0.5857794
29	0xbf031feb	-0.5122058
30	0xbf1a2db1	-0.6022597
31	0xbf847533	-1.0348266
32	0xbf4f61ce	-0.81008613
33	0xbf7c12cb	-0.98466176
34	0x3ea07c25	0.31344715
35	0x3d21356f	0.0393576
36	0x3e969b26	0.29415244
37	0xbe7c776e	-0.24654934
38	0xbf1bdf86	-0.60887945
39	0xbf8d4f4b	-1.1039823
40	0x3eb11d9d	0.34592906
41	0xbe02cf87	-0.12774478
42	0x3eac2593	0.33622417
43	0x3ec9457f	0.39310834
44	0xbf0531e6	-0.52029264
45	0xbe67e47b	-0.22645752
46	0x3ec0fd6a	0.3769334
47	0x3e9c1880	0.30487442
48	0xbea782e6	-0.32717055
49	0x3e6797ed	0.22616549
50	0x3e8efc95	0.2792708
51	0x3e93666f	0.28789088
52	0xbf7d81aa	-0.99025977
53	0xbf03d2a5	-0.51493293
54	0xbf85788f	-1.0427417
55	0x3ea13708	0.31487298
56	0xbf9ffa15	-1.2498194
57	0xbe3ed56d	-0.18636103
58	0x3eaeab76	0.3411519
59	0xbf81124c	-1.0083709
60	0x3ec4a651	0.3840814
61	0xbf2a7119	-0.66578823
62	0x3e727a61	0.23679496
63	0x3e837afd	0.2567977
64	0x3e5c446d	0.21510477
65	0xbed0932c	-0.40737283
66	0x3e818e88	0.25304055
67	0xbe8e6c9c	-0.27817237
68	0x3e632737	0.22182928
69	0xbea7b263	-0.32753286
70	0xbe3e468e	-0.18581602
71	0x3da6ea69	0.08150179
72	0xbf9debac	-1.2337546
73	0xbeb09ca5	-0.3449451
74	0xbf87e97d	-1.061813
75	0x3e69e6d8	0.22841966
76	0xbf694d02	-0.9113313
77	0x3dcda51a	0.10041256
78	0x3da87f79	0.082274385
79	0xbf08f5b7	-0.5349993
80	0xbd8eaf1a	-0.06966992
81	0x3daf1ee0	0.08550811
82	0xbe9c01e9	-0.30470207
83	0x3e8ef76f	0.27923152
84	0x3e261173	0.16217594
85	0xbe7fbad5	-0.24973615
86	0x3e1c963b	0.15291683
87	0x3df930f1	0.12167538
88	0xbe813653	-0.2523676
89	0xbefa57b5	-0.4889504
90	0xbc98e489	-0.018663662
91	0xbf8881a8	-1.0664568
92	0x3c5e7bc9	0.013579317
93	0xbfad5939	-1.3542854
94	0xbf084aca	-0.5323912
95	0x3e794063	0.24340968
96	0xbda7a713	-0.08186164
97	0x3e4bbfb7	0.19897352
98	0x3eaa7a04	0.33296216
99	0x3ec247b2	0.37945324
100	0x3e8fffb7	0.28124782
101	0x3e5e76fa	0.21725073
102	0xbf0490fa	-0.51783717
103	0xbfaf89bd	-1.3713909
104	0x3e881c17	0.2658393
105	0xbec9b8cd	-0.39398804
106	0xbf2ff2ae	-0.68729675
107	0x3dc9f60d	0.098613836
108	0x3e7ffc4a	0.24998584
109	0x3c8cd150	0.017189652
110	0xbf7252f5	-0.9465783
111	0xbf275762	-0.6536771
112	0x3ecfe25d	0.4060239
113	0xbc41f4e1	-0.011838169
114	0xbf258bb1	-0.6466628
115	0xbf2fc042	-0.6865274
116	0xbce08b73	-0.027410245
117	0x3e29f362	0.1659675
118	0xbeae9754	-0.3409983
119	0xbf1428b6	-0.5787462
120	0x3ebd9b69	0.3703263
121	0xbe7b2907	-0.2452737
122	0x3e01e988	0.12686741
123	0x3e948e36	0.29014748
124	0x3eb2144b	0.34781107
125	0xbeb2af1d	-0.34899226
126	0xbf5fe6c7	-0.87461513
127	0x3e70d540	0.23518848
128	0xbf6ea3ce	-0.93218696
129	0x3e8ea8d8	0.27863193
130	0xbf4e4443	-0.8057291
131	0x3e73f29c	0.23823017
132	0xbf45eccb	-0.7731444
133	0xbf1bc30f	-0.6084451
134	0x3e8eae11	0.27867177
135	0x3e9e0ece	0.3087067
136	0xbf71e7ea	-0.944945
137	0x3d9b5080	0.075837135
138	0x3e2a17db	0.16610663
139	0xbf58c355	-0.84673053
140	0x3e4ac792	0.19802693
141	0x3eafdff6	0.34350556
142	0x3e58fcef	0.21190237
143	0x3e90e458	0.28299212
144	0xbf6aa544	-0.91658425
145	0xbf8237e1	-1.0173303
146	0xbf861329	-1.0474597
147	0xbed90ed1	-0.42394117
148	0x3e5d11f1	0.21588875
149	0x3e83d7f7	0.25750706
150	0xbd9b0d5d	-0.07570908
151	0x3e98c48e	0.2983746
152	0x3e9439b0	0.28950262
153	0xbede74c5	-0.43448463
154	0x3cb50a82	0.022099737
155	0xbecc209a	-0.39868623
156	0x3e42f9c0	0.19040585
157	0x3e3df012	0.18548611
158	0xbebe1fba	-0.3713358
159	0x3e3b6ef2	0.18304041
160	0x3e64e52b	0.22353046
161	0xba934987	-0.0011237123
162	0xbf23f052	-0.64038575
163	0xbf35395a	-0.70790637
164	0xbf5742f5	-0.84086543
165	0xbf2f6ba8	-0.68523645
166	0x3e2eba7e	0.17063329
167	0xbf33109c	-0.6994722
168	0xbf18e663	-0.5972654
169	0xbf43d831	-0.76501757
170	0xbf269dc4	-0.6508448
171	0x3ea74bfc	0.3267516
172	0xbf29b5ce	-0.66293037
173	0x3e70c0b5	0.23511012
174	0xbf85896d	-1.0432564
175	0xbf468f04	-0.77561975
176	0x3e92611b	0.2858971
177	0x3e1cce77	0.15313135
178	0x3ea55eac	0.3229879
179	0xbf8054d9	-1.0025893
180	0x3e9135b6	0.2836129
181	0xbf2b5a42	-0.669346
182	0xbf30059f	-0.6875858
183	0x3e7d36f2	0.24727991
184	0xbf51c400	-0.819397
185	0x3e7b12dd	0.24518915
186	0x3e6b6332	0.22987059
187	0xbecbf53b	-0.39835533
188	0xbf73f755	-0.95299274
189	0x3eb6f736	0.35735482
190	0x3c62c94a	0.013841936
191	0x3ed2efa5	0.4119846
192	0x3e9fc2a8	0.31203198
193	0x3dedbe15	0.11608521
194	0xbf0b2005	-0.5434573
195	0x3e9b9ab8	0.3039148
196	0xbf4b8942	-0.79506314
197	0x3e436d3c	0.19084638
198	0xbef42f18	-0.4769218
199	0x3e7e9707	0.248623
200	0xbf36b0eb	-0.71363705
201	0x3e30e474	0.17274648
202	0xbf80f14d	-1.0073639
203	0xbfa19b33	-1.2625488
204	0x3ead705c	0.33874786
205	0xbf0f33c1	-0.55938345
206	0x3ec0cec3	0.37657747
207	0x3e3f9443	0.18708901
208	0xbf828889	-1.0197917
209	0xbf96fc37	-1.179572
210	0xbef84e58	-0.48497272
211	0x3ea827c2	0.32842833
212	0x3e7a1bc9	0.24424662
213	0xbef94b6d	-0.48690358
214	0xbf2851ae	-0.65749633
215	0xbf3831da	-0.7195107
216	0xbf155e11	-0.5834666
217	0xbf7c3b5a	-0.98528063
218	0x3e6dbcc5	0.23216541
219	0xbf2000b4	-0.6250107
220	0xbf6494ce	-0.8928956
221	0x3e9b2de4	0.3030845
222	0x3e13f2b7	0.14448057
223	0x3df81491	0.12113298
224	0x3e8a226c	0.26979387
225	0xbf37ffeb	-0.71874875
226	0xbf504cca	-0.8136717
227	0xbf0e5e44	-0.5561259
228	0xbf00df06	-0.50340307
229	0x3ed4cbb9	0.41561678
230	0x3eb27565	0.3485519
231	0x3e82acdf	0.25522515
232	0x3eac7761	0.3368483
233	0x3ed33aa2	0.4125567
234	0x3eb0fa11	0.34565786
235	0x3e2e6ce8	0.17033732
236	0x3e9172ae	0.28407806
237	0x3ea7484b	0.32672343
238	0xbf92b8f5	-1.1462694
239	0x3e8439a1	0.25825217
240	0xbedcf77e	-0.43157572
241	0x3e87943d	0.26480284
242	0x3e1737ab	0.1476733
243	0xbf2829fd	-0.6568907
244	0xbf251efa	-0.6450039
245	0xbf4495c8	-0.7679105
246	0xbec0d830	-0.37664938
247	0x3eccdb07	0.40010855
248	0xbf250615	-0.64462405
249	0x3eae00c1	0.3398495
250	0xbe447365	-0.19184645
251	0x3eab74b7	0.33487484
252	0xbe87bc7c	-0.2651099
253	0xbf5f4633	-0.8721649
254	0xbf4d61b5	-0.80227214
255	0x3e956d1a	0.291848
