bots/Daenerys.chatbot/Daenerysconverted_model.tflite (tflite, 140408 bytes, 4 tensors)

in/MatMul_bias f4 [64]
0.22119667 0.21125636 0.23152685 0.20381553 0.27356243 0.18367383 0.23902068 0.2514316
0.18972667 0.25013393 0.24888982 0.2473862 0.24015938 0.26410088 0.20654464 0.22644876
0.24491082 0.24773748 0.18793048 0.22817695 0.21873292 0.28619307 0.23548731 0.18990706
0.21624787 0.26781842 0.237178 0.21861088 0.2500848 0.2016275 0.23566921 0.30223235
0.23698379 0.2537884 0.24876407 0.20486955 0.2580026 0.22077538 0.24857534 0.2179266
0.20117275 0.20879814 0.25608265 0.19949248 0.19919023 0.23729901 0.22201139 0.18893827
0.26241606 0.24993454 0.25840303 0.2514931 0.25983354 0.18542014 0.1320715 0.2636209
0.26327154 0.21326363 0.22277404 0.19591212 0.21285942 0.2075838 0.21314378 0.22085932
00000000: 6181 623e 9653 583e 6015 6d3e 05b5 503e
00000010: 6010 8c3e fe14 3c3e d6c1 743e a5bb 803e
00000020: b547 423e 8e11 803e f9dc 7e3e cf52 7d3e
00000030: 57ec 753e 3b38 873e 7080 533e 2fe2 673e
00000040: e7c9 7a3e e5ae 7d3e d970 403e 38a7 693e
00000050: 86fb 5f3e e687 923e 9623 713e ff76 423e
00000060: 1570 5d3e 7f1f 893e cade 723e 88db 5f3e
00000070: 1d0b 803e 7077 4e3e 4553 713e 33be 9a3e
00000080: e1ab 723e 8ef0 813e 02bc 7e3e 53c9 513e
00000090: eb18 843e f112 623e 898a 7e3e 2728 5f3e
000000a0: 3b00 4e3e 2ecf 553e 441d 833e c247 4c3e
000000b0: 86f8 4b3e 83fe 723e f456 633e 0979 413e
000000c0: 665b 863e d7ee 7f3e 674d 843e b4c3 803e
000000d0: e708 853e c7de 3d3e c03d 073e 52f9 863e
000000e0: 87cb 863e c861 5a3e e11e 643e 309d 483e
000000f0: d2f7 593e d990 543e 5d42 5a3e f228 623e

in/kernel/transpose f4 [64, 519]
0.20820998 0.21771818 0.11334179 0.15997383 -0.009552871 0.18089166 -0.028832776 -0.0029999628
0.2767922 0.1831176 -0.004660127 0.06897907 -0.134256 0.2564974 0.23609716 0.17325532
0.12715161 -0.098517574 -0.1021725 0.22604983 -0.06458259 0.18423252 0.121352136 -0.12086368
-0.12678039 0.024357848 0.08538735 -0.12856747 0.33112144 -0.18217462 -0.16107126 0.12666419
0.022454197 0.097204216 -0.2887829 -0.12878917 0.09434456 -0.26109308 -0.01560081 -0.0919533
0.12923214 0.03718207 0.012792257 -0.03775557 -0.26905638 -0.060388066 -0.0073217456 0.060921025
0.09914992 0.14451212 0.08741634 0.055371046 0.16575195 0.16644102 -0.098725185 -0.1966552
-0.12535645 -0.12850003 0.09245109 0.15719938 0.2713534 -0.11834533 -0.15703748 -0.081102304
-0.027339377 0.027584996 -0.03933761 0.1295683 0.16995381 -0.017356932 0.0089368075 0.2319802
0.17839798 0.12661047 0.18395577 -0.11592606 0.028548028 0.19121501 -0.1927195 0.1074346
-0.04729128 0.105279736 -0.0074008964 -0.019059638 -0.0010863437 0.16482206 0.23504488 0.064310156
-0.048386294 -0.13716479 0.11011298 0.03428246 0.011661223 -0.028536975 0.15817678 0.13951483
-0.046183556 -0.13847041 -0.023967117 -0.19102953 0.06770136 0.07926406 -0.06868285 -0.065089315
0.10517136 -0.09631556 0.053184234 0.19223976 -0.023370948 0.17653202 -0.077871874 0.15245941
0.1785824 0.09048462 0.061582666 0.16121691 -0.011222329 0.12483611 0.16358992 0.15239578
0.13074459 0.15391524 0.09876828 -0.15558963 0.0072913496 -0.014101821 0.0973716 0.0230744
-0.037758578 0.18132392 -0.06810292 -0.17544837 -0.14017855 -0.17861596 0.08910028 -0.21246244
0.11401622 0.07813159 -0.07767611 0.19838572 -0.09817184 0.28846768 0.09167929 0.19812103
0.19833305 -0.05241507 -0.20233268 0.103504874 -0.06775954 -0.05652357 0.08610392 -0.003391786
0.081666805 0.013077503 0.14450288 -0.0927776 0.08083729 0.20012403 0.06956225 0.0109737255
-0.11962647 -0.011901069 -0.143295 -0.08726592 -0.17243895 -0.056266107 -0.100760154 0.16749658
-0.11048399 -0.014900604 0.1688159 0.04485386 -0.010488883 -0.08753489 0.22439116 0.19560662
0.0021474645 0.046538163 0.13306186 0.1547026 0.26508555 -0.083850875 0.027754642 0.032927237
-0.09521631 0.13577582 0.027112423 -0.116825715 0.15451643 0.19703206 0.21146253 0.034733303
0.21200126 -0.11094759 0.01801912 -0.14079426 -0.09311162 -0.22818749 0.18354909 -0.13539074
-0.11908192 -0.22163895 0.19064423 0.03527076 -0.050806355 0.12561233 0.16559935 0.228722
-0.0033786178 0.018625757 0.14141364 -0.13170275 -0.06153462 -0.006832223 -0.05413249 -0.027259907
0.14539811 -0.029508693 0.07006268 -0.10533794 0.10818189 0.1299735 0.060439926 0.013118808
-0.07102269 -0.1371234 0.144863 0.21578993 0.29512084 0.10410737 -0.04487802 0.1013682
0.21041875 0.2058515 0.079193935 0.17600542 0.25037768 -0.014031525 0.14779153 -0.0006298966
-0.062945135 0.12960091 0.20814295 -0.22163343 -0.07400768 0.05859695 -0.108553804 -0.16855356
-0.15506078 -0.062438063 0.16796744 -0.036141425 -0.15338323 -0.006138496 0.043444194 0.022250736
00000000: ff34 553e 84f1 5e3e be1f e83d 2ed0 233e
00000010: a583 1cbc aa3b 393e b732 ecbc 069b 44bb
00000020: b5b7 8d3e 2e83 3b3e fbb3 98bb e644 8d3d
00000030: 687a 09be a153 833e 74c3 713e d869 313e
00000040: 0834 023e 95c3 c9bd d13f d1bd 9b79 673e
00000050: e043 84bd 73a7 3c3e 7887 f83d 6187 f7bd
00000060: b8d2 01be 1c8a c73c 90df ae3d 31a7 03be
00000070: c088 a93e fc8b 3abe ddef 24be 42b4 013e
00000080: ddf1 b73c 0113 c73d 5adb 93be 4fe1 03be
00000090: b837 c13d fead 85be 8a9a 7fbc 0352 bcbd
000000a0: 6e55 043e 3a4c 183d 9d96 513c 96a5 1abd
000000b0: c2c1 89be 7a59 77bd 41eb efbb 5388 793d
000000c0: 1d0f cb3d fcfa 133e 5707 b33d c0cc 623d
000000d0: e1ba 293e 846f 2a3e 6e30 cabd fb5f 49be
000000e0: 715d 00be 8395 03be ff56 bd3d e0f8 203e
000000f0: d5ee 8a3e 095f f2bd 6fce 20be f718 a6bd
00000100: d4f6 dfbc eef9 e13c 7920 21bd 8dad 043e
00000110: 5f08 2e3e 2030 8ebc b06b 123c 388c 6d3e
00000120: f6ad 363e 2da6 013e e75e 3c3e a46a edbd
00000130: 8edd e93c decd 433e 4358 45be ac06 dc3d
00000140: 80b4 41bd e79c d73d 3883 f2bb f522 9cbc
00000150: a563 8eba 1dc7 283e 9baf 703e 0bb5 833d
00000160: b530 46bd ed74 0cbe ea82 e13d c46b 0c3d
00000170: b70e 3f3c 60c6 e9bc 18f9 213e fadc 0e3e
00000180: f82a 3dbd 30cb 0dbe b056 c4bc 3f9d 43be
00000190: 03a7 8a3d 3255 a23d 98a9 8cbd 8c4d 85bd
000001a0: 1564 d73d 1841 c5bd b6d7 593d 80da 443e
000001b0: 6e74 bfbc cfc4 343e 4a7b 9fbd 521e 1c3e
000001c0: 4ede 363e 0050 b93d 1b3e 7c3d 0c16 253e
000001d0: dcdd 37bc 13aa ff3d 1e84 273e a40d 1c3e
000001e0: e9e1 053e f59b 1d3e 0647 ca3d e352 1fbe
000001f0: 46ec ee3b 530b 67bc c36a c73d 8606 bd3c
00000200: bda8 1abd faac 393e 8b79 8bbd bda8 33be
00000210: f78a 0fbe 1ae7 36be 357a b63d c18f 59be
00000220: 5681 e93d 7403 a03d a714 9fbd a025 4b3e
00000230: 510e c9bd 09b2 933e 5ac2 bb3d 3de0 4a3e
00000240: d217 4b3e 2fb1 56bd 4c30 4fbe 5dfa d33d
00000250: 84c5 8abd 4285 67bd 4157 b03d ba48 5ebb
00000260: ed40 a73d 0643 563c 90f8 133e 2f02 bebd
00000270: 058e a53d 50ed 4c3e a776 8e3d 24cb 333c
00000280: b9fe f4bd b4fc 42bc edbb 12be 7ab8 b2bd
00000290: d693 30be 4a77 66bd 575b cebd 3984 2b3e
000002a0: 6e45 e2bd aa21 74bc 13de 2c3e aeb8 373d
000002b0: 90d9 2bbc 7e45 b3bd ccc6 653e 1a4d 483e
000002c0: 7abc 0c3b cd9e 3e3d 5e41 083e 5c6a 1e3e
000002d0: 4bb9 873e 02ba abbd b45d e33c b6de 063d
000002e0: c500 c3bd d108 0b3e df1a de3c 5242 efbd
000002f0: 8e39 1e3e c6c2 493e a289 583e 8244 0e3d
00000300: dc16 593e 7d38 e3bd d59c 933c 5f2c 10be
00000310: 4eb1 bebd fba9 69be 4bf4 3b3e dfa3 0abe
00000320: 39e1 f3bd 52f5 62be 3e38 433e 1378 103d
00000330: 531a 50bd 85a0 003e e092 293e 1a36 6a3e
00000340: cd6b 5dbb 0b95 983c bdce 103e 16dd 06be
00000350: ba0b 7cbd d7e0 dfbb 08ba 5dbd 2b50 dfbc
00000360: 3ee3 143e 37bc f1bc 067d 8f3d 6bbb d7bd
00000370: 778e dd3d c617 053e db8f 773d 45f0 563c
00000380: 5874 91bd 146a 0cbe f756 143e 09f8 5c3e
00000390: 141a 973e 3f36 d53d 04d2 37bd 219a cf3d
000003a0: 0378 573e bcca 523e 6e30 a23d c43a 343e
000003b0: 8131 803e 7be4 65bc aa56 173e a51f 25ba
000003c0: 61e9 80bd 1ab6 043e 6d23 553e e0f3 62be
000003d0: 5791 97bd 5b03 703d 7551 debd 4e99 2cbe
000003e0: 41c8 1ebe 0ebf 7fbd a8ff 2b3e 0809 14bd
000003f0: 7e10 1dbe 7025 c9bb 8af2 313d 2d47 b63c

out/MatMul_bias f4 [24]
0.012895875 0.109356575 -0.054030795 -0.04658805 -0.00020777254 0.05928467 -0.079148956 -0.029748775
-0.0029720708 -0.062514804 -0.027355019 0.11296028 -0.058142524 0.13762711 0.040186845 -0.122287445
-0.0068275994 -0.07755522 -0.04998701 -0.06054057 -0.060130056 0.019220728 0.11333812 0.016493699
00000000: 3849 533c 57f6 df3d 654f 5dbd 1cd3 3ebd
00000010: 84dd 59b9 7bd4 723d d918 a2bd b4b3 f3bc
00000020: 13c7 42bb c307 80bd a217 e0bc b857 e73d
00000030: db26 6ebd 1fee 0c3e f69a 243d d771 fabd
00000040: 0eba dfbb 45d5 9ebd 2ebf 4cbd 64f9 77bd
00000050: ef4a 76bd ca74 9d3c d11d e83d cb1d 873c

out/kernel/transpose f4 [24, 64]
0.32476354 -0.79273844 -0.6136355 -0.63833684 -0.75493926 -0.2975811 0.17382883 -0.5328527
0.24376242 0.26081723 -0.6867805 -0.17162175 0.36111572 0.448102 -0.5608716 0.25320652
-0.80730057 -0.24498616 0.28027254 -0.5806024 0.38309634 0.36210033 0.30826902 0.16875486
0.33174285 -0.8956223 0.32056758 -0.8920209 -0.34586975 -0.6310586 -0.47620857 -0.32069176
0.29278132 -0.62284416 0.4113974 0.2870916 -0.8931925 -0.43657485 0.24712008 -0.73215675
-0.7970487 0.36817288 0.22716382 0.17468806 -0.36759186 -0.3528454 -0.14133595 -0.6980189
-0.2744869 -0.7630339 0.39764562 -0.67415607 -0.42139947 0.25053385 -0.36686513 0.4580749
-0.813596 -0.69868016 0.2200319 -0.87877584 -0.069875084 0.1930568 -0.8543492 -0.81910557
-0.5363527 -0.5631338 0.35008472 0.41111237 0.24906488 -0.793473 -0.008644698 0.4941765
0.062479436 0.4905654 0.33128223 -0.31334987 0.11223147 -0.606961 -0.4850308 -0.29442626
0.045634482 0.28744233 0.2153898 -0.7069939 -0.45817932 0.3773697 -0.56412655 -0.5107976
-0.73729616 0.20241536 -0.7171815 -0.45818427 0.21045652 0.23778675 0.30662334 0.37662023
-0.50395167 -0.24352778 0.33008942 0.3137283 0.31555852 -0.0126995845 -0.049865052 0.3683937
-0.33708185 0.3533729 0.28315032 -0.35983333 -0.8062907 -0.8163429 -0.6227838 -1.089492
-0.61406785 -0.4357275 -0.400197 0.25600207 0.24033216 -0.7640664 -0.6312296 0.369087
0.13351314 0.017484033 0.35094574 -0.42829832 -1.1103925 -0.75353354 -0.20608231 -0.44727227
0.07984904 -0.749588 0.26617563 0.24700649 -0.6218216 0.27116024 0.15696599 0.3287718
0.24521844 -0.59917825 0.16826081 -0.5149477 -0.8063524 -0.94188243 0.43392432 -0.6501002
0.3914534 -0.75290835 0.24902208 -0.78464156 0.2901784 -0.8930693 -0.818133 0.36017856
-0.60337335 -0.68943465 0.20761663 -0.6680267 0.15257703 -0.8413363 0.37185428 -0.8167093
0.33980253 -0.96141934 0.35577953 -0.48015103 0.08592888 -0.19081469 0.22500499 0.21108419
-0.7843183 -0.8631272 0.2186701 -0.75894624 0.19796818 -0.8056016 -0.83614004 -0.76900345
0.21759899 0.050383348 0.28275308 0.28182045 0.36854208 0.2419153 -0.12866227 -0.35968238
-0.79311365 -0.5442159 0.32707554 0.2550305 0.29651344 -0.49644163 0.28490302 0.17689505
-0.9510159 0.18878408 0.3368697 -0.38939792 -0.6964123 -0.7871568 -0.9869805 0.21204783
0.25273845 0.2731036 0.2465125 -0.38416314 0.20351082 -0.3048605 0.14720412 0.33529586
-0.858084 -0.7519584 -0.97242534 -0.9949021 0.38696977 0.3795215 -0.9660487 -0.4616405
0.33391201 0.25624475 0.16478863 0.343834 -0.23970868 0.16037391 -0.38388538 -0.4980078
0.34109735 -0.504997 0.35276684 -0.32628354 0.1955615 -0.607558 -0.9781723 -0.9258425
-0.73116463 -0.8076469 0.18727013 0.35069755 -0.2745841 0.323308 -0.5268436 0.24210817
-0.10925082 0.3327659 -0.5360678 0.18941574 -0.26665646 -0.47675112 -0.4986868 -0.6907795
0.27872273 -0.43749928 -0.7076546 0.19349355 -0.9852899 0.45891726 0.29779205 0.110909835
00000000: 6847 a63e e8f0 4abf 3717 1dbf 0b6a 23bf
00000010: b343 41bf 8d5c 98be 2f00 323e 0969 08bf
00000020: db9c 793e d689 853e d9d0 2fbf 9dbd 2fbe
00000030: 29e4 b83e a06d e53e 4895 0fbf 49a4 813e
00000040: 40ab 4ebf a7dd 7abe e27f 8f3e 5ca2 14bf
00000050: 3425 c43e 3765 b93e 70d5 9d3e 13ce 2c3e
00000060: 33da a93e 8147 65bf 6f21 a43e 7b5b 64bf
00000070: d715 b1be 0e8d 21bf 9cd1 f3be b631 a4be
00000080: 6fe7 953e b772 1fbf aea2 d23e acfd 923e
00000090: 44a8 64bf bd86 dfbe 0c0d 7d3e a06e 3bbf
000000a0: 620b 4cbf 2881 bc3e a29d 683e 6de1 323e
000000b0: 0035 bcbe 27a8 b4be 5fba 10be 5eb1 32bf
000000c0: 8c89 8cbe 3156 43bf 3598 cb3e 7e95 2cbf
000000d0: acc1 d7be f945 803e bfd5 bbbe cb88 ea3e
000000e0: d447 50bf b4dc 32bf 0b50 613e 74f7 60bf
000000f0: ab1a 8fbd afb0 453e a1b6 5abf e7b0 51bf
00000100: 694e 09bf 8929 10bf 4e3e b33e 527d d23e
00000110: dd0a 7f3e 0c21 4bbf 7ea2 0dbc b404 fd3e
00000120: 70ea 7f3d 632b fb3e d39d a93e 656f a0be
00000130: 9dd9 e53d cc61 1bbf f555 f8be 0abf 96be
00000140: 39eb 3a3d a42b 933e 258f 5c3e 8dfd 34bf
00000150: 7b96 eabe 9a36 c13e 996a 10bf a2c3 02bf
00000160: 71bf 3cbf f945 4f3e 3599 37bf 2197 eabe
00000170: ea81 573e 5f7e 733e bcfd 9c3e 5ed4 c03e
00000180: fa02 01bf 595f 79be 7b01 a93e ffa0 a03e
00000190: e390 a13e eb11 50bc 4c3f 4cbd 199e bc3e
000001a0: fe95 acbe 4bed b43e 14f9 903e 133c b8be
000001b0: 1169 4ebf d9fb 50bf c26e 1fbf 7974 8bbf
000001c0: 8d33 1dbf ad17 dfbe 9fe6 ccbe b412 833e
000001d0: a219 763e db99 43bf 4398 21bf f9f8 bc3e
000001e0: abb7 083e ad3a 8f3c 29af b33e eb49 dbbe
000001f0: 5721 8ebf 93e7 40bf 3e07 53be df00 e5be
00000200: e587 a33d 00e5 3fbf 2c48 883e 45ef 7c3e
00000210: b32f 1fbf 84d5 8a3e b1bb 203e c754 a83e
00000220: 8b1a 7b3e bf63 19bf 904c 2c3e 9dd3 03bf
00000230: 1c6d 4ebf 351f 71bf 542b de3e f76c 26bf
00000240: 946c c83e 9abe 40bf a5ff 7e3e 45de 48bf
00000250: 4392 943e 31a0 64bf 2a71 51bf 5369 b83e
00000260: ad76 1abf ca7e 30bf 7499 543e cc03 2bbf
00000270: 273d 1c3e d161 57bf af63 be3e dc13 51bf
00000280: 99fa ad3e 941f 76bf bc28 b63e 5bd6 f5be
00000290: 7bfb af3d ed64 43be b567 663e 7426 583e
000002a0: 16c9 48bf e7f5 5cbf 0eeb 5f3e 4d4a 42bf
000002b0: 2cb8 4a3e e83b 4ebf 460d 56bf 69dd 44bf
000002c0: 45d2 5e3e c55e 4e3d 03c5 903e c54a 903e
000002d0: 8cb1 bc3e a5b8 773e 0bc0 03be 4a28 b8be
000002e0: 7f09 4bbf bc51 0bbf 7276 a73e 5c93 823e
000002f0: 9cd0 973e 992d febe cfde 913e fa23 353e
00000300: c775 73bf 9d50 413e 2f7a ac3e 2a5f c7be
00000310: 1448 32bf 1c83 49bf c1aa 7cbf 1123 593e
00000320: ef66 813e 3cd4 8b3e c66d 7c3e 08b1 c4be
00000330: 2465 503e ad16 9cbe adbc 163e e6ab ab3e
00000340: 65ab 5bbf 5880 40bf def0 78bf e7b1 7ebf
00000350: e720 c63e a450 c23e f84e 77bf 255c ecbe
00000360: 84f6 aa3e 8332 833e 5abe 283e 030b b03e
00000370: 3176 75be 0f39 243e a08c c4be e1fa febe
00000380: 50a4 ae3e 7c47 01bf db9d b43e a30e a7be
00000390: 4641 483e ec88 1bbf 8069 7abf 0404 6dbf
000003a0: 9b2d 3bbf f2c1 4ebf bec3 3f3e a18e b33e
000003b0: 4a96 8cbe a088 a53e 39df 06bf 34eb 773e
000003c0: e5be dfbd 4b60 aa3e bd3b 09bf 33f6 413e
000003d0: 3287 88be b918 f4be e053 ffbe edd6 30bf
000003e0: bfb4 8e3e e8ff dfbe da28 35bf 2c23 463e
000003f0: f53b 7cbf 34f7 ea3e 3378 983e b224 e33d
