bots/Yoda.chatbot/Yodaconverted_model.tflite (tflite, 164488 bytes, 4 tensors)

in/MatMul_bias f4 [64]
0	0x3e77fe39	0.24218072
1	0x3ec0298e	0.37531704
2	0x3e874b52	0.26424652
3	0x3e2d1e83	0.1690617
4	0x3e9ad9c8	0.3024428
5	0x3eb27498	0.3485458
6	0x3e5a349a	0.21309128
7	0x3e8f2944	0.2796117
8	0x3e3d9156	0.18512473
9	0x3eb741d9	0.35792425
10	0x3e4d7a7c	0.20066255
11	0x3e7f1b69	0.249128
12	0x3e889fa4	0.26684296
13	0x3e895c59	0.26828268
14	0x3e2d9893	0.16952734
15	0x3e54ea43	0.20792489
16	0x3e831d5b	0.25608334
17	0x3e918e87	0.28429052
18	0x3e8b0cab	0.27158102
19	0x3e96d38a	0.29458266
20	0x3e3e84e0	0.18605375
21	0x3e3d51e3	0.18488269
22	0x3e7c2d1b	0.24626581
23	0x3e4d62d8	0.20057237
24	0x3e3c1541	0.18367483
25	0x3ea8fd2c	0.33005655
26	0x3ea175a9	0.3153508
27	0x3e561891	0.20907809
28	0x3e7c921d	0.24665113
29	0x3e7b1ff6	0.24523911
30	0x3e35bbb0	0.17747378
31	0x3e9b62f3	0.3034893
32	0x3e25f6f6	0.1620749
33	0x3e2a79ec	0.16648072
34	0x3e39dcef	0.18150686
35	0x3ea8deec	0.32982576
36	0x3e51a104	0.20471579
37	0x3e9cb4fb	0.30606827
38	0x3e4c72ca	0.19965664
39	0x3e951cf1	0.29123643
40	0x3ea4c2d9	0.32179907
41	0x3e8b4219	0.27198866
42	0x3e667e0b	0.22509019
43	0x3e862cfc	0.26206195
44	0x3e5b91a2	0.21442273
45	0x3e3271b4	0.17426187
46	0x3e8866af	0.2664084
47	0x3e947cc5	0.29001442
48	0x3e839174	0.2569691
49	0x3e867bb6	0.2626626
50	0x3eb784e3	0.35843572
51	0x3e7638cd	0.24045105
52	0x3e5cbf6b	0.21557395
53	0x3e90429b	0.28175816
54	0x3e8c590b	0.27411684
55	0x3e637c12	0.22215298
56	0x3e545858	0.20736825
57	0x3e53a77b	0.20669357
58	0x3e67463e	0.22585389
59	0x3ea3b219	0.31971815
60	0x3e991a10	0.29902697
61	0x3e94c18d	0.29053918
62	0x3e465486	0.1936818
63	0x3e880cb2	0.26572186

in/kernel/transpose f4 [64, 609]
0	0x3e1b473f	0.15163897
1	0x3df23d4a	0.11828096
2	0x3cde3eac	0.027129494
3	0x3dde4077	0.108521394
4	0x3df68af0	0.12038219
5	0x3d88e835	0.06684915
6	0xbd8f1f5a	-0.06988402
7	0x3e0fb117	0.14032398
8	0xbd7faacc	-0.062418744
9	0xbd5eb040	-0.054367304
10	0xbda22283	-0.07916739
11	0xbe4121a8	-0.18860495
12	0x3ddc3932	0.10753097
13	0x3e16d3ff	0.14729308
14	0xbcfedc30	-0.031110853
15	0xbdbd5a08	-0.09245688
16	0x3e4dd0a4	0.20099121
17	0x3e19c806	0.15017709
18	0x3ddea725	0.10871724
19	0x3e942a14	0.28938353
20	0x3e0d6a75	0.13810141
21	0x3e7f48b2	0.24930075
22	0xbdb5420f	-0.0885049
23	0xbe1d91bf	-0.15387629
24	0xbe7ba901	-0.24576189
25	0x3e0f2787	0.13979922
26	0xbbb8a201	-0.0056345467
27	0xbe866aa1	-0.26253226
28	0x3e28a04e	0.16467401
29	0x3e0ae007	0.13562022
30	0xbddf6b0a	-0.10909088
31	0x3d79eb59	0.06101546
32	0x3cdd5076	0.027015906
33	0x3df4da87	0.11955743
34	0xbd5cbbb9	-0.053889964
35	0xbd6acbf5	-0.057323415
36	0x3d8c40c0	0.068482876
37	0x3d37ff1f	0.044921037
38	0x3e7daac7	0.24772178
39	0xbd8bcd9a	-0.06826325
40	0xbe06f3b7	-0.13178907
41	0xbd99ff66	-0.075194165
42	0xbe3ba17c	-0.1832332
43	0xbda2813c	-0.07934806
44	0x3e60d55d	0.21956392
45	0xbd4b77e8	-0.0496749
46	0xbe679250	-0.22614408
47	0xbe2bdca3	-0.16783385
48	0x3e824530	0.2544341
49	0xbd89db9f	-0.067313425
50	0x3c29887c	0.010347482
51	0x3d56d16e	0.05244582
52	0x3e352ec0	0.17693615
53	0x3e0a4e15	0.13506348
54	0x3e26cb72	0.16288546
55	0x3e58f31b	0.21186487
56	0x3e4aba6c	0.19797677
57	0x3dc56cf3	0.09639921
58	0x3dcad3ea	0.09903701
59	0x3deb59f3	0.11491766
60	0xbe308471	-0.17238022
61	0xbddff6bc	-0.10935733
62	0x3e1be330	0.15223384
63	0xbdaf6844	-0.08564809
64	0x3dbfcc81	0.09365178
65	0x3e460de0	0.1934123
66	0x3e4e9edb	0.20177786
67	0x3e549332	0.20759276
68	0x3d6b40c7	0.057434823
69	0xbe498a1e	-0.19681594
70	0xbe2779a5	-0.16354997
71	0x3e5cc729	0.21560349
72	0x3e3b7d2c	0.18309468
73	0x3e507290	0.20356202
74	0xbd83bdd2	-0.0643269
75	0x3d876eb3	0.06612911
76	0x3d1ae69a	0.037817575
77	0x3d43d607	0.047811534
78	0x3dce02cc	0.10059127
79	0x3e2e1ffa	0.17004386
80	0x3cc95a2a	0.024579126
81	0xbdc07f6c	-0.09399304
82	0x3dbd0b4e	0.09230672
83	0x3ddc111d	0.107454516
84	0xbd4d4c50	-0.050121605
85	0x3e4b80d9	0.1987337
86	0xbd86512c	-0.06558451
87	0xbdb6063b	-0.08887907
88	0xbcc06033	-0.023483371
89	0x3d8df1f8	0.069309175
90	0x3e088b0c	0.13334292
91	0xbe089f96	-0.13342127
92	0xbe4c32e4	-0.19941288
93	0xbe081016	-0.13287386
94	0xbd84dde2	-0.06487633
95	0x3e769fd2	0.24084404
96	0x3eb7d8f1	0.359077
97	0xbe30d11e	-0.17267272
98	0x3c008279	0.007843607
99	0x3e03788f	0.12838958
100	0xbeb18b1e	-0.3467645
101	0xbd1f299a	-0.038858034
102	0x3e5ae7eb	0.21377532
103	0xbd8b3134	-0.06796494
104	0x3d38ced9	0.04511914
105	0xbde03d9f	-0.10949253
106	0x3e108045	0.14111431
107	0x3ca04572	0.019564364
108	0xbe3d5db3	-0.18492775
109	0x3e43e580	0.19130516
110	0xbd5f1965	-0.054467577
111	0xbe213719	-0.15743674
112	0x3c295582	0.010335328
113	0x3b63eaa3	0.0034777306
114	0xbd2bff3a	-0.04199145
115	0xbe245b37	-0.1605042
116	0x3dbf76d2	0.09348835
117	0xbe210826	-0.15725765
118	0x3dd64e2e	0.1046413
119	0xbe5a1062	-0.21295312
120	0x3da99b9f	0.082816355
121	0xbe6c6b3a	-0.23087779
122	0x3e320822	0.17385915
123	0x3e875a86	0.2643625
124	0xbd9ccf86	-0.076567695
125	0x3e14783d	0.14498992
126	0x3e232112	0.15930584
127	0xbda4f2ac	-0.080540985
128	0x3e82286a	0.25421458
129	0xbc1f8481	-0.009736181
130	0x3d7c61e4	0.061616793
131	0x3e9095dd	0.28239337
132	0x3dca53d9	0.09879274
133	0x3e4d9175	0.20075019
134	0x3e65751c	0.22407955
135	0x3d103e4c	0.03521566
136	0xbd9a2fda	-0.07528658
137	0xbce485c2	-0.027895812
138	0xbe01b689	-0.12667288
139	0x3e621414	0.22077972
140	0x3e58d30e	0.21174261
141	0xbdeac9c4	-0.11464265
142	0x3e05cf8d	0.13067456
143	0xbe8142f8	-0.25246406
144	0x3ea4ce24	0.32188523
145	0xbd908f4c	-0.07058582
146	0xbe21d209	-0.15802778
147	0xbe086f97	-0.13323818
148	0xbe5a8275	-0.21338828
149	0xbd4d9933	-0.05019493
150	0xbe30049c	-0.17189258
151	0xbde553d1	-0.11197627
152	0x3dfaca64	0.12245634
153	0xbd9b3088	-0.07577616
154	0x3d831a74	0.0640153
155	0xbd0673a3	-0.032825124
156	0xbd82f139	-0.06393666
157	0xbe250a4d	-0.1611721
158	0x3e295025	0.16534479
159	0xbe3d4810	-0.18484521
160	0x3de1bdc9	0.11022527
161	0xbe247f6a	-0.1606423
162	0x3e4a06c9	0.19729151
163	0x3dd44a87	0.103657775
164	0x3e1f861a	0.155785
165	0x3cbf900f	0.023384122
166	0x3dbf129b	0.093297206
167	0x3e2806b2	0.16408804
168	0x3d29a534	0.041417316
169	0xbe8b2a71	-0.27180818
170	0x3bfe1d62	0.0077549675
171	0xbe80cf2a	-0.25158054
172	0x3e50e544	0.20399958
173	0xbdd216a4	-0.102582246
174	0xbda76a9e	-0.081746325
175	0x3e04b452	0.12959412
176	0x3db3bb5e	0.08775972
177	0x3df9d938	0.12199634
178	0x3c79b2f0	0.015240416
179	0x3e1ac135	0.15112765
180	0x3cd6cf2f	0.02622184
181	0x3deb8edd	0.115018584
182	0xbd12b6d4	-0.03581889
183	0xbe7f5a0b	-0.24936692
184	0xbe808f2a	-0.25109226
185	0xbd6652e3	-0.05623139
186	0xbe077198	-0.13226926
187	0xbd835844	-0.0641332
188	0xb9c68a35	-0.00037868475
189	0xbab89a3c	-0.0014084051
190	0x3e31f6b5	0.17379268
191	0x3cada3c2	0.02119625
192	0x3e28b1dd	0.164741
193	0xbe196784	-0.14980894
194	0xbe9c7b47	-0.30562803
195	0x3e13521d	0.14386792
196	0x3d206dd0	0.039167225
197	0xbdc935f6	-0.09824745
198	0xbe24f224	-0.16107994
199	0x3bc07e1b	0.005874408
200	0xbd2e1e53	-0.04250939
201	0xbd84d0af	-0.06485116
202	0xbd88dbf0	-0.06682575
203	0x3e5749de	0.21024272
204	0xbd586acd	-0.05283623
205	0xbde77b04	-0.1130276
206	0xbdf09d37	-0.11748736
207	0x3e2fb7d9	0.17159976
208	0xbe7bd022	-0.24591115
209	0x3e61bab8	0.22043884
210	0x3ccf02f1	0.025269957
211	0x3bbd1833	0.005770707
212	0x3cedd8f2	0.029034112
213	0x3d7693e0	0.06019962
214	0xbd79cdf8	-0.060987443
215	0xbb342c43	-0.0027492202
216	0xbe58b58c	-0.21163005
217	0xbd3e43ca	-0.046451367
218	0xbcd7e1d6	-0.026352804
219	0xbe0fdcc5	-0.1404906
220	0xbe1723ce	-0.14759752
221	0x3dd1ab66	0.1023777
222	0x3d0e1d95	0.03469618
223	0xbe55e169	-0.20886768
224	0xbd3b1e05	-0.045682926
225	0x3e3108c4	0.172885
226	0xbd960b54	-0.073263794
227	0x3e58a1a9	0.21155418
228	0xbdc8b3b8	-0.09799904
229	0xbe1b74d1	-0.1518128
230	0x3dd449e7	0.10365658
231	0x3e1cf384	0.15327269
232	0x3d940b6c	0.07228741
233	0xbd639478	-0.055561513
234	0xbe76a631	-0.24086834
235	0x3bb07ce3	0.0053859814
236	0xbd9682c5	-0.07349161
237	0xbd537038	-0.051620692
238	0x3e07df78	0.1326884
239	0x3d9e837c	0.077399224
240	0x3e5fc626	0.21852931
241	0x3e16a3dd	0.14710946
242	0x3d14aa47	0.0362952
243	0x3de03461	0.109474905
244	0xbd801cc2	-0.06255485
245	0xbdbb680f	-0.09150707
246	0x3e2e95bc	0.17049307
247	0xbe02209b	-0.1270775
248	0x3db5e339	0.0888123
249	0x3b8f5e1e	0.0043752333
250	0xbe097078	-0.1342181
251	0xbd9876c7	-0.0744453
252	0xbd277462	-0.040882476
253	0xbd027c49	-0.03185681
254	0x3e0bc1b1	0.13648106
255	0xbe12ace9	-0.14323772

out/MatMul_bias f4 [28]
0	0x3c903960	0.017605484
1	0xbdb94740	-0.09046793
2	0xbe035d6d	-0.12828608
3	0xbdd1ceee	-0.10244547
4	0x3ce17259	0.027520346
5	0x3dbc1718	0.09184092
6	0xbcf14770	-0.02945301
7	0xbd13cbe7	-0.03608313
8	0x3d565af8	0.05233285
9	0x3d3bb742	0.045829065
10	0xbc9cf624	-0.019160338
11	0xbe2f9685	-0.17147262
12	0xbd09769c	-0.03356038
13	0xbdc5e33b	-0.096624814
14	0x3bad2182	0.0052835355
15	0x3e0243b1	0.12721135
16	0x3d0f5e8a	0.03500227
17	0x3e2fb3d9	0.1715845
18	0xbbd13a0f	-0.006385095
19	0xbdc7d70e	-0.09757815
20	0xbdaa7214	-0.0832254
21	0x3c936ca9	0.01799615
22	0x3d2df89a	0.042473413
23	0xbb19d4f2	-0.0023472873
24	0xbc8a8de0	-0.016913354
25	0xbc25771e	-0.0100992005
26	0x3dfaa902	0.12239267
27	0xbdac496d	-0.08412442

out/kernel/transpose f4 [28, 64]
0	0xbf386ac4	-0.7203791
1	0x3e6b527f	0.22980689
2	0x3e8b59d2	0.27216965
3	0x3dd448bd	0.10365436
4	0x3ece77ad	0.4032568
5	0x3e9ea6e5	0.30986705
6	0xbf5e19ae	-0.86757934
7	0xbf4a6e84	-0.79074883
8	0xbe2bc8b2	-0.16775778
9	0x3ec1f454	0.3788172
10	0xbf495db5	-0.7865861
11	0x3ec83a02	0.39106756
12	0x3e7b8213	0.24561338
13	0x3e86c544	0.26322377
14	0x3e2aceb7	0.16680418
15	0xbf1eaeb2	-0.61985314
16	0xbf25e160	-0.6479702
17	0x3e9d9724	0.30779374
18	0xbf3a9a44	-0.7289164
19	0x3ea7df1a	0.327874
20	0x3e4b48c7	0.19851981
21	0x3eb5bbcb	0.35494837
22	0xbf0ece64	-0.5578368
23	0xbf5eb474	-0.869941
24	0x3ee7c21b	0.45265278
25	0x3e6e94c5	0.23298939
26	0xbf2d339f	-0.6765689
27	0x3e6b4b98	0.22978055
28	0x3dd47939	0.10374684
29	0x3e9129d5	0.28352228
30	0xbf7e8a33	-0.99429625
31	0xbf154ba9	-0.58318573
32	0x3e9283c1	0.28616145
33	0xbf58855c	-0.8457849
34	0x3e5e5053	0.21710329
35	0xbe8fb8a9	-0.28070572
36	0xbf3635d7	-0.71175903
37	0xbea95ea5	-0.3308002
38	0xbf1e1bb9	-0.6176105
39	0xbf67c82a	-0.905398
40	0xbf3fc264	-0.7490599
41	0xbf27c669	-0.65537125
42	0x3eb10f4a	0.34581977
43	0xbef0527d	-0.46937934
44	0x3d8d5141	0.069002636
45	0xbf28f700	-0.6600189
46	0x3ea7b223	0.32753095
47	0xbf80f34b	-1.0074247
48	0xbeea42c2	-0.45754057
49	0xbf2acda0	-0.6672001
50	0x3e70604a	0.23474231
51	0x3e751f60	0.2393775
52	0xbf592f85	-0.84838134
53	0x3eab5f32	0.33471066
54	0xbf4b37ad	-0.7938183
55	0xbf3a4c49	-0.7277265
56	0xbf1ff2c3	-0.624798
57	0x3e95470c	0.29155767
58	0x3eab3ee7	0.33446428
59	0xbf5eca05	-0.8702701
60	0x3e3be705	0.18349846
61	0xbf3bec43	-0.7340738
62	0x3eb513d0	0.35366678
63	0x3ee947af	0.45562503
64	0xbe30422e	-0.17212746
65	0xbf546dd9	-0.82980114
66	0xbf4a9df2	-0.79147255
67	0xbecd7a3a	-0.40132314
68	0xbf3658b4	-0.712291
69	0xbf02d5ea	-0.51107657
70	0xbf655076	-0.895759
71	0xbf64c65b	-0.89365166
72	0x3e9a0253	0.30079898
73	0x3e88f041	0.267458
74	0x3ec97705	0.39348617
75	0xbf66b6eb	-0.9012286
76	0xbf35447d	-0.7080763
77	0xbf32545d	-0.6965998
78	0x3e71148a	0.23542991
79	0xbf82c305	-1.0215765
80	0xbecc2a66	-0.39876097
81	0xbf8332c3	-1.0249866
82	0x3d43353d	0.047658194
83	0x3ea2926a	0.3175233
84	0xbf7623be	-0.9614829
85	0x3e9b1582	0.30289847
86	0x3e896031	0.268312
87	0xbd658399	-0.056033704
88	0x3ea45ca7	0.32101938
89	0x3e4cef6f	0.20013212
90	0xbf72d6a9	-0.94858795
91	0xbf2157f9	-0.6302486
92	0x3e86fbc3	0.26363954
93	0x3e477dc0	0.19481564
94	0xbe83b910	-0.2572713
95	0x3e94821c	0.29005516
96	0x3e60b3da	0.21943608
97	0x3dacfb92	0.08446421
98	0x3e92f6c2	0.28703886
99	0xbf456558	-0.77107763
100	0x3e9e9ec4	0.30980504
101	0x3e5455d0	0.2073586
102	0x3e183b2b	0.14866321
103	0x3e0036b0	0.12520862
104	0xbf082a34	-0.53189397
105	0xbee6e20c	-0.45094335
106	0x3bf2d16c	0.007410219
107	0x3e9b8b55	0.3037974
108	0x3e28ae7c	0.1647281
109	0xbf1d581e	-0.6146258
110	0x3e5cff1e	0.21581694
111	0xbf11b250	-0.5691271
112	0xbf1c61fc	-0.6108701
113	0xbe8de0f2	-0.27710682
114	0x3e7a98c9	0.24472345
115	0x3e75ce04	0.2400437
116	0x3ee6f3b9	0.4510782
117	0x3ec5c291	0.38625005
118	0x3e9eea44	0.31038105
119	0xbf5f02ca	-0.8711363
120	0x3e5989fd	0.21244045
121	0x3e78fc0c	0.24314898
122	0x3ead3a99	0.3383377
123	0xbf09e55f	-0.5386562
124	0x3e43b252	0.19110993
125	0x3e670c1a	0.2256321
126	0x3e33822b	0.17530124
127	0xbeffca65	-0.49959102
128	0x3eb01c27	0.3439648
129	0xbf164b78	-0.58708906
130	0x3d70c46e	0.05878108
131	0x3daa2f69	0.08309824
132	0x3e954524	0.29154313
133	0x3e84589b	0.2584885
134	0xbf1c61dd	-0.6108683
135	0x3ea20c5e	0.3165006
136	0xbf86c56f	-1.0529002
137	0x3da0e3d4	0.07855955
138	0x3dd89810	0.105758786
139	0xbeb7a5f9	-0.35868815
140	0x3e8b5df0	0.27220106
141	0x3ef4d9e4	0.47822487
142	0x3e4c80ed	0.19971056
143	0x3e93e95d	0.2888898
144	0x3d5bcc24	0.05366148
145	0xbf044ea9	-0.51682526
146	0xbf95e7cd	-1.1711365
147	0x3e732abd	0.23746772
148	0x3e830cf5	0.25595823
149	0xbf3f3bd5	-0.7470067
150	0x3e66b427	0.2252966
151	0xbf4b07d2	-0.7930881
152	0x3e3ecc5a	0.18632641
153	0xbf4f4826	-0.80969465
154	0xbf46b888	-0.7762532
155	0xbf0d6968	-0.5523896
156	0xbeab5c2d	-0.33468762
157	0x3e513722	0.20431188
158	0xbe8b05d9	-0.271529
159	0xbeab3194	-0.33436263
160	0x3e86040c	0.26174963
161	0xbf07ebf2	-0.530944
162	0x3e6bf7b1	0.23043706
163	0xbf827815	-1.0192896
164	0xbeedc9d2	-0.4644304
165	0x3eadf9da	0.33979684
166	0xbf5d9dac	-0.86568713
167	0xbe7c2ebb	-0.24627201
168	0x3e1e5b54	0.15464526
169	0x3e755f31	0.23962094
170	0xbf4259cb	-0.75918263
171	0x3df08259	0.11743612
172	0xbf3319d6	-0.699613
173	0xbece085a	-0.40240747
174	0x3e509af5	0.20371611
175	0x3d652846	0.05594661
176	0xbf347e2b	-0.7050502
177	0xbf35742d	-0.70880395
178	0xbf70b04a	-0.94018996
179	0x3e9209fe	0.28523248
180	0xbeb19ae7	-0.34688494
181	0x3e89187b	0.2677649
182	0x3eb39957	0.35077927
183	0x3e5ded0e	0.2167246
184	0x3e878d17	0.2647483
185	0x3e6d3a1c	0.23166698
186	0xbf342bcc	-0.7037933
187	0xbf9a2fc6	-1.2045829
188	0xbf443057	-0.7663626
189	0x3ea5db1a	0.32393724
190	0x3e1768ce	0.14786074
191	0xbf7dea5c	-0.9918573
192	0x3e6907b4	0.22756845
193	0x3e0164a1	0.12636043
194	0xbeae2cbb	-0.34018502
195	0x3cdb431a	0.026765395
196	0x3e85b879	0.26117304
197	0x3e6f7d9d	0.23387761
198	0x3de781a4	0.11304024
199	0xbf2af012	-0.6677257
200	0x3eafcd97	0.3433654
201	0xbefd5a89	-0.49483135
202	0x3e860d2d	0.26181927
203	0x3e7eb3af	0.24873231
204	0xbf15d1f4	-0.5852349
205	0x3e90ee03	0.2830659
206	0xbf372186	-0.7153553
207	0x3e84bacc	0.25923765
208	0x3ec694cf	0.38785407
209	0x3eb5ff75	0.3554646
210	0xbee1699b	-0.44025883
211	0xbf74fa82	-0.95694745
212	0xbe548f7b	-0.20757858
213	0x3e7686b4	0.24074823
214	0xbf3609fe	-0.71108997
215	0xbf641735	-0.8909791
216	0xbf445ab6	-0.76700914
217	0x3eaca7ce	0.33721775
218	0x3dec6d03	0.1154423
219	0x3e3f0f62	0.18658212
220	0x3e63feeb	0.22265212
221	0x3e7210b6	0.23639187
222	0xbf203404	-0.6257937
223	0xbf2cd7d4	-0.6751683
224	0xbf6dc561	-0.928793
225	0xbf6b35db	-0.9187905
226	0xbef6b906	-0.48188037
227	0x3e3fec3c	0.1874246
228	0x3e707bae	0.2348468
229	0xbf38dbaf	-0.7221021
230	0xbe8d0a28	-0.2754681
231	0x3e9026dc	0.28154647
232	0x3ea6af18	0.3255546
233	0x3e97a1c2	0.296156
234	0x3e88e2d1	0.26735547
235	0xbf18847c	-0.59577155
236	0xbf2e5393	-0.68096274
237	0xbf06737a	-0.52519953
238	0x3ecd8201	0.40138248
239	0xbf814f4b	-1.0102323
240	0x3e90a09f	0.28247544
241	0xbf057732	-0.52135
242	0xbe1a9bed	-0.15098543
243	0x3ea535a7	0.32267496
244	0x3ebefdf7	0.37303135
245	0x3e2d6065	0.16931303
246	0x3e9119cd	0.28339997
247	0x3e8aacc1	0.27084926
248	0xbf4a7d99	-0.79097897
249	0xbe97ae96	-0.29625386
250	0xbf1f881e	-0.62317073
251	0x3ea05471	0.31314424
252	0xbf55e034	-0.8354523
253	0xbf58c8bd	-0.846813
254	0xbf4c4c92	-0.7980434
255	0xbf58dea4	-0.8471472
