trashbot.chatbot/model.tflite (tflite, 85332 bytes, 4 tensors)

in/MatMul_bias f4 [64]
00000000: 90ab 1f3e 0b26 2d3e e330 323e 131e 1d3e
00000010: c1ae 5a3e f6ef b73d 4503 543e ed06 4d3d
00000020: 901e 083e 1e9d 543d 5484 613e 5671 e43d
00000030: 5a8b 353e e3a8 ee3d a12d ae3d ac50 5b3e
00000040: cf81 f63d 1099 063e b4f7 5a3e e1cf 273e
00000050: 90bb 843d 4c4d 613e 1564 083e 7650 2c3e
00000060: 9c63 563e 5182 893d 0f46 2b3e 9686 0a3e
00000070: 251d 8b3e 856d 3d3e 0bf7 f13d f4b8 373e
00000080: 4ae8 e63d 8316 273e 3bf1 673e ca95 ea3d
00000090: 9937 7b3e 02ce 2b3e f7ae e43d c2c8 243e
000000a0: ba40 e03d 13b1 083e 21d1 6a3e 2e22 163e
000000b0: 7e86 463e e48f ae3d 3816 f53d 8c41 ce3d
000000c0: 52f0 e03d 8636 633d f7e8 5f3e 313e 373e
000000d0: 3361 423e 7798 383e 254a 353e a811 203e
000000e0: 3402 713e 9049 d73d 6f05 133e 7169 0c3e
000000f0: 2489 0b3e 34ce 1c3e aaee 5f3e 22cc 633e
0.1559279 0.16909043 0.17401461 0.15343504 0.21355726 0.08981316 0.20704372 0.050055433
0.13292909 0.05190765 0.22023135 0.111544296 0.1772894 0.11653306 0.08504797 0.21417493
0.12036478 0.13144326 0.21383554 0.16387893 0.06481087 0.22002143 0.13319428 0.16827568
0.20936435 0.06714309 0.16725944 0.13527903 0.27170673 0.1849881 0.11814698 0.17941648
0.112747744 0.16317181 0.22650616 0.11454351 0.24532928 0.16777804 0.111661844 0.16092208
0.109498456 0.13348798 0.22931339 0.14661476 0.19387242 0.08523539 0.119671285 0.10071096
0.109833375 0.05547192 0.21866213 0.17894818 0.18982391 0.1802691 0.17704065 0.15631735
0.23535997 0.10512078 0.14357542 0.13712098 0.13626534 0.15313035 0.21868387 0.22245839

in/kernel/transpose f4 [64, 313]
00000000: 69ca c33d 1387 d2bd b1e7 63be 402f 47bd
00000010: 4ef2 b4bd a17a 44be b728 dcbc fde3 dc3d
00000020: 9199 9c3c 2c36 c0bc a4a5 f23d 345d fe3b
00000030: d0d7 ecbd 9e7a dfbc 96ef 0dbe f0b0 82bb
00000040: 336f 2e3d 8b7c f13c 0cd1 613e bc43 423e
00000050: 2d7f d73d fe45 35be 4778 0d3e 1ebd 743d
00000060: e004 2fbc fe80 7a3e 6fd5 e9bd 6eae 71bd
00000070: 18b6 813c 97fe 2a3b d90f 443d f26f 143e
00000080: 2a3b 1cbe 45f6 603e 9575 113c 837e debd
00000090: d6c2 02be e729 2d3e 89c2 ed3d e26f d33c
000000a0: af59 f5bd 26d0 a83d 6d67 393e f22f d1bd
000000b0: f443 433d c77c 99bc 6674 473d 8af6 9d3e
000000c0: 5cf3 df3c 59ff 933d 0903 60bd e5dc c6bd
000000d0: dacf 8fbd 6444 aa3d ceff dcbb d155 563e
000000e0: f9d9 613d 014b 483e 5e79 90bd 16cc 23be
000000f0: 93b9 b9bd 2297 333d 4a3c 25bd d8c3 df39
00000100: 6949 033e e48f 053c 7840 e4bd 084d 31be
00000110: 32a8 3cbd fb7b fabd feb6 9a3d ec76 edbd
00000120: 698d cb3d 76fb df3d e45c 2e3e 3fa8 d93d
00000130: 392c 033e 1288 5abd eef3 03be de59 cabc
00000140: fb15 afbd 2e5e 313e 1c98 c5bd 506e bdbc
00000150: cbd0 fc3d 5bbe adbd 61f7 8bbc ae32 4f3d
00000160: cd82 783d 1939 a33d c208 83bd 801e 863d
00000170: c185 f8bd 147a 683e 9e48 153d 0ed1 50bd
00000180: e49a 003e 1812 613d a00d 17bb 6cd7 0ebc
00000190: af61 293d f0c8 a53d b6e8 5e3e 7d35 513e
000001a0: 1f6d 343e 7205 cb3d fb09 233e b770 4d3c
000001b0: 5a33 76bd 7c99 b4bd 67cf ca3d f67f 5c3e
000001c0: fda2 783e 799e 7cbd be2e 08be 46e9 66bd
000001d0: a53e babd 4e59 c1bd 3480 623e 6950 903d
000001e0: 1adb 1b3e 9cf5 3c3e 7f15 af3e 4aac 063d
000001f0: f5d1 a0be a429 213d 4c04 81bd 8a53 dbbd
00000200: add9 20be 4528 81bc aa2d 4b3d ab8a 043e
00000210: 02e6 663d 2cee db3d 9618 4fbe 254e f53c
00000220: f681 fabd 84e6 593d 1e19 123e f4a9 a53c
00000230: d51d ea3d 2ed5 00bc 7077 723c 0462 193e
00000240: 10de 1a3d 1848 b8bd 86ca 34be 0e1d ec3b
00000250: 7426 cf3d 3ce0 b9bd b41d 3e3e b14e 2abe
00000260: 9745 f0bd f24c 0d3e fb08 a3bd 497c 563e
00000270: 674d c1bd bec6 53bd 9164 393d 26f5 c7bd
00000280: 61a8 a8be eda5 a3bd c084 693e 6270 e6bd
00000290: 47cc 4cbe ca46 b8bd 099e 1f3e 6528 fcbd
000002a0: e6d6 b2bd 370a 723e 290d 903e 553c 13be
000002b0: 9b06 6f3e 411b b23c 8a86 813d 0218 11be
000002c0: ce96 3ebd fa08 623d 7250 043e 206c d83d
000002d0: bd88 16be ff1c 3a3e 10d3 913e bd65 653e
000002e0: aad4 05be 7c84 103e b724 4ebd c8ab d93c
000002f0: a2f0 c4bd a58e 00be 81b3 883e 8f7e ad3e
00000300: cd32 b8bd 442c 93bd 6079 093c 517c 923c
00000310: b105 893e 813d 8ebd bce2 663d e306 eabd
00000320: 9aef cf3d 8c7f 0f3e da70 933d de31 f0bc
00000330: c2e3 e5bc bb5d 0f3e 8471 07bd bf36 b83e
00000340: 4076 073e 0fab 41bd 67b2 0dbe 597c 4f3e
00000350: 6037 103d 4c7a 523e a1b8 00be 31c2 c63d
00000360: 8cc3 05bd 2e00 d0bc 65bc e1bd 9237 fc3d
00000370: 65f5 dabc 0bae a1bd 4da3 f1bd 0c41 09bd
00000380: 6c9c d43d cefe bf3d 0d7f 433d 1cda 8ebc
00000390: 154a 0ebe d396 ca3d 675c 50be 86f6 d43c
000003a0: 94cc 943c 1aa2 2d3d e7b2 673d a90f 423e
000003b0: f44c 083e b4c3 50be ed9c c83d 605f 24be
000003c0: 962a 0e3b 884d 9a3e 4847 fbbd 8e45 24bd
000003d0: af8e febd e34d ff3c a01e 94bc 139a 0d3e
000003e0: 6d5e f0bd 09b7 2bbe eb9d 83bd 1cac e3bd
000003f0: d86f f63c aef1 35be 384e 62bc 75dd 01be
0.09560091 -0.102796696 -0.22256352 -0.048629045 -0.088352785 -0.19187404 -0.026874883 0.10785673
0.019116195 -0.023463331 0.11848 0.0077625755 -0.115646005 -0.027280148 -0.13860926 -0.0039883777
0.042586517 0.029478332 0.22052401 0.18971151 0.10522304 -0.17702481 0.13815413 0.05975067
-0.010682315 0.24463269 -0.11417662 -0.05900424 0.0158339 0.0026091689 0.047866676 0.14495829
-0.15256944 0.21968944 0.008878131 -0.10863974 -0.12769637 0.16910516 0.1160937 0.025810186
-0.119799964 0.08242826 0.1810586 -0.10214223 0.047672227 -0.018736256 0.04869499 0.30852157
0.027337722 0.07226438 -0.054690395 -0.09710101 -0.070220664 0.08313826 -0.0067443615 0.20931174
0.055139516 0.19559862 -0.07054399 -0.15995821 -0.090685986 0.043845303 -0.0403407 0.0004267979
0.12820973 0.008151982 -0.11145109 -0.17314541 -0.04605884 -0.12230679 0.07554434 -0.11594948
0.09939081 0.10936634 0.17027622 0.106277935 0.12809838 -0.053352423 -0.1288602 -0.024701055
-0.08549114 0.17321083 -0.09648153 -0.02312389 0.123445116 -0.08483573 -0.017085733 0.05058544
0.060671616 0.07969875 -0.06398155 0.06548786 -0.121348865 0.22702819 0.036446206 -0.05098062
0.12559086 0.054948896 -0.0023048893 -0.008718353 0.041352924 0.080949664 0.2176846 0.2043056
0.17619751 0.09913148 0.15921776 0.01253908 -0.060107566 -0.08818337 0.0990284 0.21533188
0.24280925 -0.06167457 -0.1329908 -0.05637481 -0.0909398 -0.09440862 0.22119218 0.07046587
0.152203 0.18453068 0.34196088 0.03287915 -0.31410185 0.039346352 -0.06299648 -0.10709293
-0.15708037 -0.015766272 0.049604096 0.12943523 0.056371696 0.10738787 -0.20224223 0.029944489
-0.12231819 0.053198352 0.14267394 0.020222642 0.11431471 -0.007863326 0.014798984 0.14978796
0.03780943 -0.08998126 -0.17655382 0.007205612 0.10114756 -0.090759724 0.18566018 -0.16631581
-0.11732023 0.13798884 -0.07960697 0.20945849 -0.094385915 -0.051703207 0.045261923 -0.09763555
-0.32940963 -0.07990632 0.22804546 -0.11251904 -0.199998 -0.08997877 0.1558763 -0.12312392
-0.08732395 0.23636709 0.2813504 -0.14378484 0.23342364 0.021741511 0.063244894 -0.14169315
-0.046530537 0.055184342 0.12921312 0.10567498 -0.14700599 0.18175124 0.2848134 0.22402091
-0.13069406 0.14113039 -0.050327983 0.02657117 -0.096162096 -0.12554415 0.2669945 0.3388562
-0.089940645 -0.071861774 0.008390754 0.017881544 0.26762155 -0.06945325 0.056368575 -0.11427095
0.10153122 0.14013499 0.07199259 -0.029320654 -0.028062705 0.14000599 -0.03306724 0.35979268
0.13228703 -0.047282275 -0.13837586 0.20262279 0.03520906 0.20554465 -0.1257043 0.09705008
-0.03265719 -0.02539071 -0.110222615 0.12315287 -0.026728341 -0.07894524 -0.11798725 -0.0335093
0.103813976 0.09374772 0.047728587 -0.017437987 -0.13895448 0.09892049 -0.20347749 0.025996458
0.018163957 0.04239092 0.0565671 0.18951286 0.13310605 -0.20387155 0.09795556 -0.16052008
0.0021692864 0.30137277 -0.12269455 -0.040105395 -0.124295585 0.031165069 -0.01808101 0.13828306
-0.1173676 -0.16769041 -0.06426605 -0.11116812 0.030082628 -0.17767975 -0.013812594 -0.12682135

out/MatMul_bias f4 [15]
00000000: 8b13 d83d a927 41bd 78c6 43be 5aff d13d
00000010: 289e d73b 875a 28be 2021 9a3d 4588 c43d
00000020: 3c17 22bd aee9 cfbc 424a 9dbb f6b2 c7bd
00000030: d118 91bc 8e81 66bd 1a14 c4bd
0.105506025 -0.047156963 -0.19118679 0.102537826 0.006580133 -0.16440783 0.07525849 0.09596304
-0.03957294 -0.025379982 -0.004800112 -0.09750931 -0.017712029 -0.056275897 -0.095741466

out/kernel/transpose f4 [15, 64]
00000000: a668 dbbe 9374 b6be 7fb3 00bf 3807 f6be
00000010: 0821 df3e ff29 a7be 4547 0ebf a4a4 2abe
00000020: e058 933e 8fd3 a1be 1a48 d1be ae51 d3be
00000030: 4f64 0dbf 0a30 083e 65df bfbe 3c1f 2bbf
00000040: 54c2 d3be 90cb ebbe cdda b03e 6095 933e
00000050: cfc1 e7be a965 f3be 474d 043e b114 d43e
00000060: 7786 9b3e 53dd cabe 1372 a6bc b3a0 7f3e
00000070: d4a6 2cbf 5272 45be 1d41 c0be b8d7 ae3e
00000080: 2545 8abe 1eab 01bf 9e7e ddbe 55f0 e63e
00000090: 1c20 843e e37c 08bf efb6 17bf 5be4 c9bd
000000a0: 8fd5 053e 0052 783e b88c 2d3e c5e1 c3be
000000b0: 96d1 d93e d37f a9be fb20 87bd 39b1 bfbe
000000c0: 4b20 16be 43b1 d73d 7501 ad3e ce03 8dbe
000000d0: 7808 4d3d c80e 01bf c79e d5be 0d9a a6be
000000e0: 63eb 4e3e b965 abbe b15c 82be 6916 993e
000000f0: 1808 cebe f95c 963e 1b47 bc3e 733a 8c3e
00000100: 14dc 993d c1d2 853e 0887 863e 3815 81be
00000110: 5eb2 1cbe fd9a c0be abf9 12bf 5e65 993e
00000120: 18cc 4f3e fff9 37be cbf8 77be 00dc 09bf
00000130: d636 b9be d63f 22be 921d 8ebe 9bfc 0bbd
00000140: f72a 1bbf a319 6fbd 6aa0 3d3e 9bae d2bd
00000150: f577 903e 098f debe 2782 983e cb46 7f3d
00000160: d865 583e 46a1 083e 281a 0bbf 9c5f 1e3e
00000170: adda edbe 64e7 a73d e142 08bf 59b3 48be
00000180: faf8 b53e de32 17bf 8fc8 05bf 3927 a03e
00000190: 2da6 28bf 3150 14bf 059b d83d d3d9 263e
000001a0: d583 8c3e caf4 21be d0d2 d4be d1f7 c33e
000001b0: 2928 b63e fb3f 413e f849 9dbe 7109 c7be
000001c0: a68f bfbe 44cc a4be 88c8 94be 2403 d1be
000001d0: 9d7b 8fbe 9f09 ba3e b4f6 b03e c052 2fbe
000001e0: a8b7 f53c 77b0 553e d6e0 06bf 8229 0bbe
000001f0: a50f a5be 3fb0 103e 1b5c f9be f090 fbbe
00000200: ad44 683e 3fad f8bd 3f71 20bf c5a6 0bbf
00000210: 8027 c7be 3506 6d3e 66a4 18be e4cf 813e
00000220: 2511 5b3e 1a08 913d 2f0d 2abf 6c4a 7e3e
00000230: fb22 16bf 6c5a 313e 43f7 993e 5f9f f4be
00000240: 1935 7e3e 0e2d fabe ca09 26bf ecb4 e93d
00000250: a24f 793e b4b0 333e b641 d7be b7fe 81be
00000260: 28a2 13be a06c 253e c4e1 a8be cf84 e63d
00000270: 664f 0239 d07b 10bf b2e2 5c3e 496d 00bf
00000280: f54e 613e 8448 723e 0829 233e f42a 813d
00000290: afb8 01bf 8a9a 12bf b6e1 0b3e 73db 4f3e
000002a0: 8e04 f9be 6a22 7f3e 8ed7 03bf 4c66 1abf
000002b0: 6a8e 663d 6fb5 6ebc 95b6 653e 87f6 09bf
000002c0: 8c72 8d3e 5716 073e 8600 cfbe 0b43 933c
000002d0: 79e1 21bf 6cd5 ebbe ddb0 403e 0734 0c3e
000002e0: 32d6 8e3e 016b 803e 59d7 0fbf ac3d b43d
000002f0: 66b2 8f3e c765 0e3e 8a1a 71be 65ca a43d
00000300: 2287 893e 2f2b e2be 3949 44be 92d0 5ebe
00000310: b9c9 d13e 782a d8be 7104 04bf 2130 1e3e
00000320: bf7b bdbe 7da7 d5be d2cd 9dbe b361 b7bd
00000330: 3b54 883e f534 e7be ab92 17bf a763 4d3e
00000340: 8d68 f03d 08e3 3a3e 7e30 b9bc d8e0 a4be
00000350: c25c 6d3e 6cc6 debe f108 05bf ac5f 29bf
00000360: b95a bb3e 06b9 413e 8074 803e 2aaf 0bbf
00000370: eeeb 913e bd21 c23e 3785 ef3e 8e96 963e
00000380: b383 d7be 71a6 003e ef86 e4be b635 53be
00000390: c7cf 753e 2264 2a3e 896d 0c3e b5af 383e
000003a0: 5c16 6ebc 2e58 10bf 67a9 4dbf 53b3 a03e
000003b0: 4f66 22bf 52e5 babe f7bc 973e e9ca a3be
000003c0: aa78 0c3e 68fd 2f3e c359 6b3e 9eb0 963e
000003d0: 9342 27bf 3083 17bf 6274 b63e bea3 673e
000003e0: 76f0 92bd 90b3 8b3d 57ad 1b3c 87be fa3d
000003f0: 78df 053e 5e41 21bf 65fc 32be bc07 d3be
-0.42853278 -0.35635814 -0.5027389 -0.48052382 0.43579888 -0.32649228 -0.555775 -0.16664368
0.28778744 -0.3160672 -0.40875322 -0.41273254 -0.55231184 0.13299575 -0.37475124 -0.66844535
-0.41359198 -0.46053743 0.34541932 0.28824902 -0.45265052 -0.47538498 0.12920104 0.41422036
0.30376026 -0.39621982 -0.020318067 0.24963646 -0.6744206 -0.19281891 -0.37549677 0.34148955
-0.27005878 -0.5065173 -0.43260664 0.45105234 0.25805748 -0.5331556 -0.5926351 -0.098580085
0.13069747 0.2425003 0.16948211 -0.38258186 0.42542714 -0.33105335 -0.065980874 -0.37439898
-0.14660756 0.10531857 0.33790174 -0.27541965 0.050056905 -0.5041318 -0.417227 -0.32539406
0.2020698 -0.33476046 -0.25461343 0.2989991 -0.4024055 0.29367808 0.36773 0.27388343
0.0751268 0.26137355 0.26274896 -0.252115 -0.15302417 -0.37618247 -0.57412213 0.2996015
0.202927 -0.1796646 -0.24216 -0.5385132 -0.3617465 -0.15844664 -0.27756935 -0.03417645
-0.60612434 -0.05837406 0.18518224 -0.102872096 0.2821652 -0.43468502 0.29786798 0.062323373
0.211326 0.13342771 -0.54336786 0.1546616 -0.464559 0.08198431 -0.5322705 -0.19599666
0.35541517 -0.5906199 -0.52259153 0.31279925 -0.65878564 -0.5793486 0.10576443 0.16294031
0.2744433 -0.15816036 -0.41567087 0.38275006 0.35577515 0.18872063 -0.30720496 -0.3887439
-0.37414283 -0.32187092 -0.29059243 -0.4082271 -0.28023997 0.36335465 0.3456322 -0.1712141
0.0299948 0.20868097 -0.5268682 -0.13590053 -0.32238498 0.14129733 -0.48703083 -0.49134016
0.22682448 -0.12142419 -0.626728 -0.54551345 -0.38897324 0.23146899 -0.14906463 0.2535392
0.21393259 0.070816234 -0.66426367 0.24833077 -0.58647126 0.1731965 0.30071458 -0.4777784
0.24824943 -0.488625 -0.64858687 0.11411461 0.24346784 0.17547876 -0.4204232 -0.25389645
-0.14417326 0.16154718 -0.32984746 0.112558 0.00012427344 -0.5643892 0.21570852 -0.50166756
0.22002776 0.23660475 0.15933621 0.06307021 -0.5067243 -0.5726706 0.1366032 0.20298557
-0.48636287 0.24915472 -0.51500785 -0.6031234 0.05628816 -0.014569624 0.22432931 -0.53891796
0.27626455 0.13192116 -0.40430087 0.017976305 -0.6323467 -0.46061265 0.18817468 0.13691722
0.27897793 0.25081638 -0.5618797 0.088008255 0.28065795 0.13906012 -0.2354528 0.08046416
0.2686091 -0.4417357 -0.19168557 -0.21759251 0.40974215 -0.422199 -0.5156928 0.15448047
-0.37008473 -0.41729346 -0.3082109 -0.089541815 0.26626763 -0.4515759 -0.5920817 0.20057546
0.117386915 0.18250668 -0.02260613 -0.32202792 0.23179916 -0.4351076 -0.5196677 -0.6616161
0.36592653 0.18918237 0.25088882 -0.54564154 0.28500313 0.37916365 0.46781322 0.2941174
-0.42092666 0.12563492 -0.44634196 -0.20625958 0.24005042 0.1663976 0.1371366 0.18035777
-0.014531698 -0.5638455 -0.8033661 0.31386814 -0.6343736 -0.36503083 0.29636356 -0.31990746
0.13717905 0.1718651 0.2298346 0.29431623 -0.6533596 -0.5918455 0.35635668 0.22621056
-0.071747705 0.06821358 0.009501777 0.122433715 0.13073528 -0.6299037 -0.17479093 -0.41216838
