bots/Shrek.chatbot/Shrekconverted_model.tflite (tflite, 186020 bytes, 4 tensors)

in/MatMul_bias f4 [64]
000000 1c ac bd 3e 9d 16 90 3e 68 87 a9 3e f2 3e 49 3e
       0.37045372 0.28142253 0.3311112 0.19652918
000010 3e 1a a5 3e 09 ff 74 3e 33 dd 8e 3e a4 34 69 3e
       0.32246584 0.23925413 0.27903137 0.22773987
000020 47 f5 67 3e 41 34 4f 3e 6a 87 69 3e 61 55 5a 3e
       0.2265216 0.20234777 0.22805563 0.21321632
000030 75 8e 42 3e 0e d6 0f 3e 20 8d 88 3e 34 03 ac 3e
       0.18999656 0.14046499 0.2667017 0.33596194
000040 56 22 8b 3e 72 d7 64 3e 33 28 97 3e 5e 16 5c 3e
       0.27174634 0.22347811 0.29522857 0.21492907
000050 c9 aa 73 3e 52 85 82 3e 3b 75 58 3e ab 49 88 3e
       0.23795618 0.2549234 0.2113847 0.26618704
000060 04 62 c3 3e bf 0c 82 3e 89 d7 ab 3e 54 e2 b0 3e
       0.38160717 0.2540035 0.33562878 0.34547675
000070 d9 bf 8c 3e b9 fe 8f 3e 6a 77 8c 3e 76 59 8d 3e
       0.27490118 0.28124025 0.27434856 0.27607316
000080 18 80 57 3e 30 a8 a1 3e 63 e4 91 3e 2f 9c 61 3e
       0.21044958 0.3157363 0.28494558 0.22032236
000090 49 c9 46 3e f5 a4 5d 3e 61 7c 71 3e eb 6d 34 3e
       0.19412722 0.21644957 0.23582603 0.17620055
0000a0 dd 1a 78 3e 17 c0 52 3e f4 7b 8f 3e 82 40 95 3e
       0.24228998 0.20581089 0.28024256 0.29150778
0000b0 10 45 ca 3e 0e 10 7f 3e da 0f b7 3e 98 62 79 3e
       0.39505816 0.24908468 0.3575428 0.24354017
0000c0 2c 35 8f 3e 0d 77 84 3e 33 fe 8d 3e a2 48 72 3e
       0.27970254 0.2587208 0.27733 0.2366052
0000d0 ab e3 97 3e 20 fc 52 3e c5 46 80 3e 82 32 15 3e
       0.29665884 0.2060399 0.25053993 0.14570048
0000e0 67 8f 23 3e b7 83 58 3e 08 9f 9d 3e 85 e3 50 3e
       0.15972672 0.21143995 0.30785394 0.20399292
0000f0 03 6b 66 3e f7 34 8a 3e b3 58 44 3e 02 3c 1d 3e
       0.22501759 0.26993534 0.19174461 0.15354922

in/kernel/transpose f4 [64, 686]
000000 84 94 cb 3d d2 ce 9f 3d 25 24 47 be ec a1 88 be
       0.099404365 0.0780312 -0.19447382 -0.26686037
000010 51 51 76 3e 15 04 82 3c 19 21 84 be ae f1 df bd
       0.24054457 0.015871087 -0.25806502 -0.109347686
000020 92 48 46 3e 54 33 89 3b 0e e9 56 3e 7d b2 8f 3d
       0.19363621 0.004187027 0.20987341 0.07016466
000030 8b 14 f1 3d 98 61 8b 3e b9 89 77 bd 4d 0e 53 be
       0.117714964 0.27222896 -0.060434077 -0.20610924
000040 51 70 e7 bd a1 be f3 3d de 63 fb 3d 1e 54 eb 3d
       -0.113007195 0.11901594 0.122749075 0.114906535
000050 1d 95 b3 3d 58 5f 93 bd 1f e9 07 3e c0 5c 64 3e
       0.087686755 -0.0719592 0.13272522 0.22301006
000060 9a 26 08 be cc 1a 1c be 59 c6 ef bc 99 d5 30 3e
       -0.13295975 -0.15244597 -0.029269384 0.17268981
000070 ae e3 1a 3e 54 55 00 3e fb f8 2b bd 68 ef 04 be
       0.15125915 0.1253255 -0.041985493 -0.12981951
000080 b6 db 83 3e d6 ed 21 3e dc a1 19 bd 90 20 f5 bd
       0.25753564 0.15813383 -0.037507877 -0.119691014
000090 8b f1 5f be e3 8f 31 be 06 3f ff bd 16 88 15 be
       -0.21869485 -0.17340045 -0.12463193 -0.14602694
0000a0 7c c0 25 3e bc bf 01 3d de 50 1a be 47 fb 72 bd
       0.16186708 0.031676993 -0.15069911 -0.059321668
0000b0 cd 44 82 bd e0 4e 60 3e c2 e4 b3 3d 8a 3f 53 be
       -0.06360779 0.21905088 0.087838665 -0.20629707
0000c0 91 08 02 be 27 fa f7 bd da 7d 2d 3e 4f 0f ab bd
       -0.1269858 -0.1210826 0.1694254 -0.08352529
0000d0 fc 2e 1e be 31 da 25 be cb 86 0d be 6d 4b 56 be
       -0.1544761 -0.16196515 -0.1382095 -0.2092721
0000e0 f8 2e 9b 3b 13 04 2a 3e 11 11 3b be ec 52 14 3e
       0.0047358237 0.16603117 -0.18268229 0.14484757
0000f0 f5 10 0c be a3 96 f5 bd 10 f4 90 3e 60 2f 2a 3e
       -0.13678344 -0.11991622 0.28311205 0.16619635
000100 1b b0 7e be d7 3b a2 3e 5a 21 98 3d 52 d7 40 bd
       -0.24871866 0.3168628 0.07428236 -0.047080345
000110 38 83 0e be 12 fd 25 3e 5a 9c 03 3e 2e e9 7d 3e
       -0.13917243 0.1620982 0.12852612 0.24795982
000120 14 8b 3e 3e 07 f2 59 3d 58 94 f7 bd 77 dc 95 3d
       0.18607742 0.05320933 -0.12088841 0.07317441
000130 fe b2 02 3e 9d ac 31 be d6 df 81 3e e9 43 e1 3d
       0.12763593 -0.17351003 0.25366086 0.10999281
000140 54 8c 9a bd 15 03 fa bd fd 7e 1a 3e 49 fb 94 bd
       -0.07546297 -0.12207619 0.15087505 -0.07274491
000150 27 ae b4 3b 6e d3 b6 bd 48 89 a5 bd a4 c4 dd bd
       0.0055139246 -0.08927046 -0.08082825 -0.10828522
000160 3c c2 89 be 28 36 6e 3e 62 6c 7e bd 4f 35 1c be
       -0.26906002 0.23262846 -0.06211508 -0.1525471
000170 70 3c 30 3e f9 a1 ea bd eb 8d b1 bd 8d 73 4c 3e
       0.17210555 -0.11456675 -0.08669647 0.19965954
000180 77 15 9a 3e f0 0a 3b be 08 bc 04 be e8 ba f7 bc
       0.300945 -0.18265891 -0.12962353 -0.030240491
000190 97 28 21 be aa e0 8e 3a a7 52 8f 3e 02 09 51 3e
       -0.1573814 0.0010900695 0.27992746 0.20413592
0001a0 f5 63 04 3e 14 67 37 3c 94 5e 00 be f6 12 71 3e
       0.12928756 0.011194009 -0.12536079 0.2354239
0001b0 1c 76 00 be f6 2a c8 3d ad fc d7 bd 98 07 04 be
       -0.12545055 0.09773819 -0.10546241 -0.12893522
0001c0 cb e4 04 3d e7 35 35 3e f3 13 c8 bd ad b3 03 bd
       0.032444756 0.17696343 -0.0976943 -0.032153774
0001d0 62 c8 0b be 03 82 78 be 71 b4 11 be 14 26 89 bd
       -0.13650659 -0.24268346 -0.14228989 -0.06696716
0001e0 23 0a 59 be 5f 93 b9 bd b5 52 c1 3e ee 93 e0 3d
       -0.21195273 -0.09061312 0.37758413 0.10965715
0001f0 69 81 5d be 47 eb 76 be 50 e1 9e bc 77 a5 68 be
       -0.21631397 -0.24113189 -0.019394547 -0.2271937
000200 bf 56 5f be a9 5d 0f be c9 60 19 be a5 63 34 3d
       -0.21810435 -0.14000572 -0.14978327 0.04404034
000210 10 34 de 3e bb fc d1 3c 66 f9 20 3e a2 6c aa bd
       0.43399096 0.025633207 0.15720138 -0.08321501
000220 85 1d 36 be 38 da 1d 3e c8 24 4a 3e 27 43 11 3d
       -0.17784698 0.15415275 0.19740593 0.035464432
000230 58 f9 20 3e 47 34 8b 3e 5f 98 1d 3e 45 7c ae bd
       0.15720117 0.27188322 0.15390156 -0.08519796
000240 ae 76 7e be b1 9c 8d be 1c 75 4d 3e c0 1f 11 be
       -0.2484996 -0.2765861 0.20064205 -0.14172268
000250 2c 42 fa 3d 09 18 3b be 85 13 3a be 81 69 06 be
       0.122196525 -0.18270887 -0.18171509 -0.13126184
000260 28 ec 5c be 83 85 fb 3d 7b 4e 06 3e 4c 61 52 be
       -0.21574461 0.12281325 0.13115875 -0.20544928
000270 39 67 94 3d 59 be b5 3d 64 1e 3d be 2c 79 1f 3e
       0.07246251 0.088741966 -0.18468624 0.15573567
000280 ab 78 1b 3e a2 50 f2 3d 00 9d 25 3e 96 57 47 bc
       0.1518275 0.11831786 0.16173172 -0.012166878
000290 94 b9 17 3e 3b 2b 30 3e 0a 7c 2a 3e 20 dc f5 bc
       0.14816886 0.17203991 0.1664888 -0.03001219
0002a0 61 41 17 3e 41 6b 7f bd 9a e8 8d bd c9 af 28 3e
       0.14771034 -0.062358145 -0.06929131 0.16473307
0002b0 70 8c 3a be c3 2c cf 3e 1d 2d 97 3d ae 42 45 3e
       -0.18217635 0.40463838 0.073816516 0.19263718
0002c0 da 45 a9 bd 8d f5 c8 bd 67 ba 12 3e 02 bf b2 bd
       -0.08265276 -0.0981246 0.1432892 -0.08727838
0002d0 8a 78 89 be 2d fa 85 be 0a f5 bd bb 79 79 2d be
       -0.26849777 -0.2616743 -0.005797033 -0.1694087
0002e0 5f d0 3f be 3b b2 2a 3d b2 b8 1b 3e 1a ee 1f be
       -0.18731831 0.04167388 0.15207174 -0.15618172
0002f0 e9 8c 9f 3e d3 17 47 be a9 7a 12 bd c2 25 6b be
       0.31162193 -0.19442682 -0.03576151 -0.22963622
000300 38 7c 20 3e 23 53 2e 3e 9c bd 0e 3e 50 d0 23 3e
       0.15672386 0.17023902 0.13939518 0.15997434
000310 13 39 05 3e 44 f7 47 bd 13 f1 84 3e 9a cf 08 b9
       0.13010053 -0.048819795 0.25965175 -0.00013047308
000320 59 7b 26 3e a8 b0 81 3c 23 a4 4e be 5f 62 33 be
       0.16257991 0.015831307 -0.201798 -0.17517994
000330 4f 97 55 3c 01 78 3e 3e 38 e6 27 be 69 e7 1f 3d
       0.013036563 0.18600465 -0.16396415 0.03903905
000340 02 58 ef 3d c2 6e 86 3e fe 41 56 3e a4 34 68 3e
       0.11686708 0.26256377 0.20923612 0.22676331
000350 11 28 c4 bd a4 d9 10 be f3 77 29 be 41 a8 e4 bd
       -0.095779546 -0.14145523 -0.16549663 -0.111649044
000360 37 24 8f 3e 3d 10 c0 bd 8b 56 91 3e 40 75 85 3c
       0.27957317 -0.09378097 0.2838634 0.01629126
000370 c9 f0 17 be 14 4d e8 3d 48 ba a3 be 5f 3d 94 3c
       -0.14837946 0.113428265 -0.3197806 0.01809567
000380 d2 bf 78 3e bb 6f 1f be 0d 0a 98 bd e2 44 f0 bd
       0.24291924 -0.15569966 -0.07423792 -0.11731888
000390 44 a2 51 be dc 3c f4 3d be f6 20 be ac 9f 56 3d
       -0.20472056 0.119256705 -0.15719125 0.05239837
0003a0 41 54 5e 3e e3 4f 9d 3e 00 52 21 3d 08 f1 1e be
       0.21711828 0.3072501 0.039384842 -0.15521634
0003b0 fe ba 43 be 33 d5 93 3e d3 c6 17 3e ab 98 b1 3d
       -0.191143 0.28873596 0.14821939 0.08671697
0003c0 64 fb f6 bd 5d e5 9f 3d d9 f5 44 be 8a ae 8d bc
       -0.12059668 0.078074194 -0.19234408 -0.01729514
0003d0 e0 de 8b bc d8 f6 a1 3e de 1e da 3d 13 8f 05 be
       -0.017074049 0.3163364 0.10650419 -0.1304286
0003e0 10 7f b5 bd dc 0d 2e 3e 6f ae 39 be fc 9f b2 3d
       -0.08862126 0.16997474 -0.18132947 0.08721921
0003f0 8c b9 2e bd 9d 21 55 3d b8 03 10 be 44 4e 09 3e
       -0.04265742 0.05203401 -0.14063919 0.13408762

out/MatMul_bias f4 [35]
000000 46 19 81 bd 75 d2 0b 3d fa 64 de bc 7b 4c 41 bd
       -0.06303649 0.034136254 -0.027147759 -0.047192078
000010 91 4a 23 bd aa 1b c3 bc 15 ed 8f bc 7e 9e 41 bd
       -0.039866034 -0.023816902 -0.017569104 -0.04727029
000020 7d 8e bd bd 7b 56 12 3e 8b 67 f6 3d d5 af 65 3c
       -0.09255693 0.14290802 0.12031468 0.014018972
000030 2e d2 b3 3a 4a 6e 55 bd 03 2e 08 be 99 54 ef bc
       0.0013719255 -0.052107133 -0.13298802 -0.029215144
000040 da c5 5d bd 9d 90 20 bd 95 3f 97 3d f5 1c a1 bc
       -0.054143764 -0.039200414 0.07385174 -0.019667128
000050 d2 ea 09 be 49 50 8f 3c 00 ea 05 3d 2d b2 5b bd
       -0.13468483 0.017494338 0.032693863 -0.05363672
000060 68 fc 10 3e d9 7d fe 3d ee 28 06 3d 7b cb a8 3d
       0.14158785 0.12426347 0.032753877 0.08241936
000070 4d b5 74 bd 3b c3 52 3d ac e3 8d bd 97 70 ad bd
       -0.059743214 0.051455718 -0.069281906 -0.084687404
000080 4f 85 84 be fa f5 bd 3d 83 e4 46 3c
       -0.25882956 0.09275432 0.012139442

out/kernel/transpose f4 [35, 64]
000000 16 09 54 bf 44 1d 42 bf 52 6e 88 3e 75 7b e0 be
       -0.82826364 -0.75825906 0.26646668 -0.4384419
000010 81 a0 ad 3e 1e 89 37 bf 17 dc 5d bf 69 f0 8e 3e
       0.33911517 -0.716936 -0.86663955 0.27917793
000020 b8 4c c0 3e bc 8c b8 3e 46 af 95 bf 87 1e 4f bf
       0.37558532 0.36044872 -1.1694114 -0.80905956
000030 fa d4 e5 be 28 5d 8d 3e 38 aa 92 3e 5a ce 0e be
       -0.4488905 0.27610135 0.28645492 -0.13945904
000040 d6 95 af 3e 38 17 99 3e 60 97 27 3e 83 4e 16 bf
       0.34294003 0.29900527 0.16366339 -0.5871355
000050 b8 32 c4 3e 1a f6 c0 3e 10 30 94 be 5d 55 1e bf
       0.38319945 0.3768776 -0.2894292 -0.61849004
000060 27 2d 94 bf 82 54 66 3e c5 8a 87 bf d7 95 6d 3e
       -1.1576279 0.22493175 -1.0589224 0.2320169
000070 99 99 82 3e 2c c9 4c bf ef 66 92 3e 48 d9 77 3e
       0.2550781 -0.79994464 0.28594157 0.2420398
000080 2d a5 4c bf 11 f0 7e 3e 72 f0 14 bf 02 f3 5f bf
       -0.7993954 0.24896266 -0.5817939 -0.87480175
000090 b2 2b a8 3e 01 8f 91 3e 04 a9 43 bf f5 fc 6d 3e
       0.32845837 0.28429416 -0.7642977 0.23241027
0000a0 91 04 a3 bf f3 02 a9 3e 59 b0 7e 3e e2 4a 22 3e
       -1.2735769 0.33010063 0.24871959 0.15848878
0000b0 0b 8a 43 bf 98 bd 42 3e 5e da 82 be aa ee dd 3c
       -0.7638251 0.19017637 -0.25557226 0.027091343
0000c0 3e 33 67 bf a0 84 a1 bb b0 4e 20 bf cf 83 d5 be
       -0.90312564 -0.00492914 -0.6262007 -0.41702124
0000d0 ca 47 5d 3e ab 3e 8a be 14 32 ca be 11 19 db 3e
       0.21609417 -0.27000937 -0.39491332 0.42792562
0000e0 5c c5 cc 3e ad 9d 62 bf 35 b2 35 bf 22 99 2c be
       0.39994323 -0.88521844 -0.7097505 -0.1685529
0000f0 60 69 37 bf 34 9e b1 3e 18 59 97 3e 54 db 92 bf
       -0.71645164 0.34691012 0.2956016 -1.1473184
000100 ef 06 aa 3e e6 f2 8b bf ca 72 0a bf 8b e5 f6 3d
       0.33208415 -1.0933502 -0.54081404 0.120555006
000110 28 b9 92 bf 8d c8 33 bf 15 7f 2e bf 80 c2 9a 3e
       -1.1462755 -0.7022789 -0.6816266 0.30226517
000120 0a ba 19 bf 0a 66 bc 3e 89 58 a8 3e 90 38 43 3e
       -0.600495 0.367966 0.32880047 0.19064546
000130 f4 73 a5 be 53 66 3c bf 18 cb c7 3e 44 5b 85 3e
       -0.32315028 -0.73593634 0.39022136 0.26046193
000140 cd 05 6d 3e 3d d7 ca be 99 ca 5a be f8 76 c1 3e
       0.23146744 -0.3961734 -0.21366347 0.37786078
000150 ba 8f da be f6 1a 17 bf 08 6f 7a 3e 77 ac d3 be
       -0.4268778 -0.59025514 0.24456418 -0.41342518
000160 a9 0a cc be 06 60 57 3e 88 0b 47 bf 61 79 e5 3d
       -0.39851883 0.21032724 -0.7775197 0.11204792
000170 ba 01 a0 3d c9 23 6e bf 7d de 63 bf 12 4b be be
       0.07812829 -0.93023354 -0.89011365 -0.3716665
000180 25 8f dc be fe f6 bd 3e b2 50 ae 3e 32 78 ac bf
       -0.4307796 0.37102503 0.3404594 -1.3474181
000190 47 27 b3 be d4 20 71 3e 76 09 8b 3d 3e a7 0d bf
       -0.34990904 0.23547679 0.06788914 -0.55333316
0001a0 65 ca 30 bf 1f c6 05 bf 3d 49 a9 3e 01 f0 a6 3e
       -0.6905883 -0.52255434 0.3306369 0.32604983
0001b0 cf af b9 3e 46 61 00 bf fe b7 68 bf 6e a3 76 bd
       0.36266944 -0.5014843 -0.9090575 -0.060214452
0001c0 d6 b3 e6 3e f0 c9 e6 3e f8 6c 99 3e 4d 4c 8b bf
       0.4505908 0.4507594 0.2996595 -1.088266
0001d0 f7 3b ad 3e 30 22 e5 3d a3 24 36 bf 31 da be 3e
       0.33834812 0.111881614 -0.71149653 0.37275842
0001e0 38 2d d2 be 44 e7 73 bf 2d 96 a4 3e f4 c1 87 3e
       -0.41050124 -0.9527476 0.32145825 0.26515162
0001f0 f4 8e 5f bf bf 74 bf 3e 7e e1 a2 be 35 a6 f8 be
       -0.87327504 0.37393758 -0.31812662 -0.48564306
000200 cf 3e 98 bf 97 09 5e 3e 6a 2a 4e bf 82 de 6f bf
       -1.1894168 0.21683346 -0.8053347 -0.93698895
000210 d3 83 bf 3e 8f 91 c0 3e 2c 69 7e 3e 92 ff 98 3e
       0.3740526 0.37611052 0.24844807 0.29882485
000220 1c 5f 87 be ee 3c 30 bf c9 99 a3 3e 20 25 b0 3e
       -0.2643975 -0.6884297 0.31953266 0.34403324
000230 c2 8f b7 3e 61 6b e2 3d ad 41 79 bf 67 3d 72 3e
       0.35851866 0.11055637 -0.9736584 0.23656236
000240 89 23 2b 3e 5a 99 62 bf f5 61 99 3e 40 cc 8a 3e
       0.16712774 -0.88515246 0.29957548 0.27108955
000250 4c 93 27 bf af 0b a7 bf a5 54 a1 be 6a 61 26 bf
       -0.6545913 -1.305044 -0.3150989 -0.6499239
000260 fd 79 69 bf 1f bf 81 bf 01 e3 21 bf 70 e3 8b 3e
       -0.91201764 -1.013645 -0.63237005 0.2732196
000270 57 6e c5 3e e2 d6 28 bf 0e bf 79 3d 1c 9e 29 3e
       0.38560745 -0.65952885 0.06097322 0.1656422
000280 25 24 28 bf 08 7f 1b 3e 50 a3 b3 3e 88 99 a1 bd
       -0.6568015 0.15185177 0.35085535 -0.07890612
000290 f0 e4 7f bf c2 c3 89 bf 14 41 4b be ae a6 14 bf
       -0.99958706 -1.0762866 -0.19849044 -0.58066833
0002a0 14 60 e5 3e 61 53 bd 3e 23 00 fc 3d 28 8b a4 bf
       0.44799864 0.36977676 0.123047136 -1.2854967
0002b0 d6 25 8c be e2 55 23 bf 11 6e 98 3e 46 cd b0 3e
       -0.27372617 -0.6380292 0.29771474 0.3453161
0002c0 1d c8 b4 3e 51 f5 8a bf 78 9b 0e 3e df 82 43 bf
       0.35308924 -1.0856115 0.13926494 -0.7637157
0002d0 b6 3a 7a bf 9c 6e 41 3e 83 f8 54 bf ba 6c 7c 3e
       -0.97745836 0.1888985 -0.831917 0.24650851
0002e0 c6 da 0c bf e1 a6 e8 3e 8d 39 5e 3e d0 79 cb bc
       -0.5502132 0.45439819 0.21701641 -0.024838358
0002f0 c3 2d dd be 42 4b d4 3e 5f dd 81 be 29 c8 cb be
       -0.43198976 0.41463667 -0.25364205 -0.39801148
000300 1d 5f 92 3e 89 7d 81 bf 18 c9 2d bf 69 15 05 bf
       0.2858819 -1.0116435 -0.6788497 -0.51985794
000310 d6 0e e8 be 4e 07 b8 3e 46 69 0b bf ef 3c 02 be
       -0.4532382 0.35943073 -0.5445751 -0.12718557
000320 12 e9 b1 3e 21 5a c2 3e 86 47 72 bf 0e 09 66 bf
       0.3474813 0.37959388 -0.94640386 -0.89857566
000330 c1 40 79 3e c9 0b 59 bf d4 2e 2c bf 62 72 81 bf
       0.24341108 -0.8478361 -0.67258954 -1.0113032
000340 4b 2b 55 bf 82 eb 55 bf 75 fa 6f bf d4 06 bf 3e
       -0.83269185 -0.8356248 -0.9374154 0.37309897
000350 4a 11 bc 3e 84 67 1b bf e6 16 7a 3e 0a 27 9e 3e
       0.3673194 -0.6070483 0.24422798 0.3088916
000360 7f a7 81 3e 2a c5 bd 3e c7 fe 91 3e f4 e8 84 be
       0.25323102 0.37064487 0.28514692 -0.2595898
000370 a6 e5 82 bf 6e 45 bb 3e 4f 46 90 bf de 52 e9 be
       -1.0226333 0.36576408 -1.1271456 -0.45571035
000380 14 f0 9e 3e 12 b7 32 bf df 6b 81 3e b0 26 a3 3e
       0.3104254 -0.69810593 0.25277612 0.31865454
000390 49 e7 67 bf 28 b4 c1 3e b2 30 51 bf 5c b9 cd 3e
       -0.9058729 0.3783276 -0.8171493 0.4018048
0003a0 d6 98 cd 3e ff 82 47 be e9 c8 64 bf df 2c 69 bf
       0.40155667 -0.19483565 -0.89369065 -0.9108409
0003b0 0f 83 cf 3e 0c fc 25 bf 0b fc 33 bf 7c a6 eb 3e
       0.40529677 -0.6483772 -0.7030646 0.46025455
0003c0 ff 40 2a bf f9 0e 61 bf e6 84 c5 3e 21 33 e0 3e
       -0.66505426 -0.8791347 0.38577956 0.43789008
0003d0 f1 60 83 be 38 bb 07 bf 8b 73 bf 3e a3 db af 3e
       -0.25659898 -0.5302005 0.3739284 0.34347257
0003e0 e7 cc f6 be c8 a7 ca 3e 88 e3 11 bf 23 75 2c bf
       -0.48203203 0.39581132 -0.5698781 -0.67366236
0003f0 be ce e6 3e 76 4c c6 be 06 2c b6 3e cd cc 57 bf
       0.45079607 -0.3873021 0.35580462 -0.84296876
