bots/Snow.chatbot/Snowconverted_model.tflite (tflite, 199080 bytes, 4 tensors)

in/MatMul_bias f4 [64]
0.17573486 0.22970551 0.2346504 0.20055519 0.21955498 0.17213601 0.20702621 0.16931216
0.33470935 0.18727548 0.22268364 0.30295286 0.32310665 0.17802575 0.3691121 0.23381875
0.25189298 0.19508079 0.2556709 0.27352738 0.22110699 0.28677577 0.20954895 0.27153224
0.31304136 0.23342897 0.14132616 0.18521039 0.17837588 0.30129793 0.27528635 0.2990997
0.17126037 0.16959089 0.2671353 0.22917041 0.19770403 0.29462898 0.24385269 0.33309135
0.289055 0.19350038 0.19034944 0.26363048 0.2203481 0.2880411 0.18555285 0.26992553
0.37247428 0.27945727 0.25397694 0.3588333 0.2749578 0.2252802 0.30512512 0.3757688
0.18618825 0.20684113 0.26770496 0.2843099 0.25311866 0.30565467 0.2305881 0.23890705
00000000: d7f3 333e ec37 6b3e 3248 703e 575e 4d3e
00000010: 05d3 603e 6c44 303e aefe 533e 2b60 2d3e
00000020: 065f ab3e 25c5 3f3e 2e07 643e a31c 9b3e
00000030: 3c6e a53e 624c 363e 43fc bc3e 2f6e 6f3e
00000040: 1ef8 803e 42c3 473e 4ce7 823e c80b 8c3e
00000050: df69 623e 46d4 923e 0094 563e 4606 8b3e
00000060: f546 a03e 0108 6f3e ceb7 103e cba7 3d3e
00000070: 2ba8 363e b943 9a3e 55f2 8c3e 9923 993e
00000080: e15e 2f3e 3ca9 2d3e f5c5 883e a6ab 6a3e
00000090: ed72 4a3e 9cd9 963e 85b4 793e f38a aa3e
000000a0: 04ff 933e f724 463e f7ea 423e 93fa 863e
000000b0: efa2 613e 207a 933e 9101 3e3e ae33 8a3e
000000c0: f3b4 be3e 0615 8f3e 4409 823e 00b9 b73e
000000d0: 45c7 8c3e daaf 663e 5c39 9c3e c564 c03e
000000e0: 22a8 3e3e 29ce 533e a010 893e 1191 913e
000000f0: c598 813e c57e 9c3e 491f 6c3e 0da4 743e

in/kernel/transpose f4 [64, 736]
-0.20394596 0.2543822 0.098441854 0.13762227 -0.0809559 -0.24145284 -0.106575616 -0.14879587
-0.077377886 0.03266928 0.14382595 -0.0038533676 -0.27085182 0.23592791 0.20007293 -0.11019429
0.13867939 -0.19210027 -0.07139424 -0.08739377 0.05091907 -0.054428063 -0.11550049 -0.11347633
-0.15397933 -0.21853632 -0.21562575 -0.1609462 -0.15034853 -0.18104732 0.26922965 -0.10005477
7.977431e-05 0.01972904 -0.19040649 0.05071627 -0.11782701 -0.22135738 -0.019030528 0.09030524
-0.110518724 0.052707907 0.15387554 -0.15711106 -0.074374385 0.072331056 -0.14863715 -0.1818457
-0.1058448 0.1117015 -0.17067339 0.11264737 -0.06769854 -0.03897359 0.1736209 0.053009283
0.10416888 0.15404838 0.018907016 0.019731002 0.052925814 0.11826962 0.05527728 0.16598009
-0.06904207 -0.043329168 -0.08135585 0.022218518 -0.011359118 0.06554598 0.21043636 -0.122107886
-0.21113664 0.10773881 0.14552444 0.07346144 0.13394745 0.073416926 -0.13545807 -0.03895245
-0.12718476 -0.15079175 -0.027333958 -0.011538461 -0.122013465 0.14450786 -0.16665557 -0.005585632
-0.064590454 0.13017918 0.19478956 0.06454237 -0.14147373 0.13579832 -0.10735487 0.2610801
-0.13166879 0.25188518 0.10608783 0.1864959 -0.07098422 0.15800193 -0.109565176 0.268169
0.03343199 0.07560956 0.19689141 -0.089425854 0.010102031 0.14337121 -0.04260257 -0.12031637
0.13431962 0.05045618 0.11754026 0.25420097 0.18429624 0.19822288 0.2534002 -0.11362869
0.12124053 0.22630538 0.02226974 -0.32643867 -0.08707963 -0.16660579 -0.17931807 0.23727143
-0.054971937 -0.12873894 -0.28236824 0.067492664 -0.085558325 0.105224 -0.23152514 -0.15880787
-0.03600043 0.18385807 0.14911577 -0.1814091 -0.12001122 0.22413987 0.08672783 0.2039214
-0.13702703 0.0035663745 0.12813623 0.15677208 0.269719 0.19177721 0.13500519 0.0960962
0.25837252 0.26308805 -0.13689074 -0.00408556 0.047684897 0.24464154 0.072521344 0.17032264
0.16110623 0.09005032 0.17456941 0.23906302 -0.12126317 -0.011275084 0.1789492 -0.0024381431
-0.13021451 0.23140319 -0.06885042 -0.23793021 0.06850523 0.07460526 -0.1366877 0.16758099
-0.07167867 -0.09308674 -0.24147488 -0.07256405 -0.19162662 0.12157328 -0.30138803 0.02361613
-0.03270644 -0.10889509 -0.06864016 -0.32066274 0.11683833 0.25056592 -0.31051907 -0.097800404
0.025912778 -0.1326493 0.08483919 -0.2107013 0.1714591 -0.2326675 -0.12534462 -0.16635215
0.092515 -0.1379127 0.17614563 0.0366642 0.030070877 -0.12273173 -0.0757196 0.21911843
0.09593679 -0.012128187 -0.058883652 -0.050655942 0.13948342 0.050986674 0.1833146 -0.038132645
0.20292145 0.027057676 -0.10617636 0.15913686 0.043786317 0.25827515 0.171371 -0.1781866
-0.17633262 0.15441044 0.20187685 0.11295958 0.22654022 0.034320433 0.06767442 -0.05010275
0.13769825 0.10561377 -0.07536484 -0.08258368 -0.111386955 0.12490226 -0.06914918 0.18026458
-0.088096276 -0.06901811 -0.07988444 0.15580161 0.12164207 -0.05920051 0.13301054 -0.15876819
0.121470794 0.09660137 0.000989974 0.23851821 0.012529129 -0.05965717 0.23105748 0.039341576
00000000: 36d7 50be 623e 823e e29b c93d daec 0c3e
00000010: 35cc a5bd 6a3f 77be 5144 dabd f25d 18be
00000020: 4c78 9ebd 39d0 053d 1c47 133e c888 7cbb
00000030: 17ad 8abe 1697 713e ebdf 4c3e 8bad e1bd
00000040: f801 0e3e efb5 44be 2537 92bd 81fb b2bd
00000050: 8490 503d f6ef 5ebd 858b ecbd 4766 e8bd
00000060: c2ac 1dbe fcc7 5fbe ffcc 5cbe 15cf 24be
00000070: f7f4 19be 7864 39be 78d8 893e 84e9 ccbd
00000080: 824c a738 cc9e a13c ebf9 42be ddbb 4f3d
00000090: 4a4f f1bd 82ab 62be e9e5 9bbc f4f1 b83d
000000a0: a457 e2bd 3fe4 573d 8d91 1d3e b9e1 20be
000000b0: 9951 98bd 4e22 943d 5634 18be c235 3abe
000000c0: 29c5 d8bd c2c3 e43d 01c5 2ebe aab3 e63d
000000d0: 88a5 8abd c5a2 1fbd adc9 313e 4320 593d
000000e0: 7e56 d53d dcbe 1d3e e3e2 9a3c e9a2 a13c
000000f0: bdc8 583d 5837 f23d 6e6a 623d aff6 293e
00000100: ee65 8dbd ed79 31bd e59d a6bd 9c03 b63c
00000110: 981b 3abc f93c 863d a17c 573e b313 fabd
00000120: 3434 58be 2aa6 dc3d 5c04 153e f472 963d
00000130: 8529 093e 9d5b 963d 85b5 0abe 9b8c 1fbd
00000140: b93c 02be 2769 1abe 77eb dfbc d00b 3dbc
00000150: 32e2 f9bd def9 133e c2a7 2abe ad07 b7bb
00000160: 0048 84bd b14d 053e ea76 473e ca2e 843d
00000170: 7dde 10be b70e 0b3e dfdc dbbd 4aac 853e
00000180: 2fd4 06be 18f7 803e 9444 d93d c8f8 3e3e
00000190: 2d60 91bd 42cb 213e b563 e0bd 724d 893e
000001a0: fbef 083d 2fd9 9a3d e79d 493e e724 b7bd
000001b0: fd82 253c e7cf 123e 0880 2ebd 6e68 f6bd
000001c0: 158b 093e 24ab 4e3d f3b8 f03d a126 823e
000001d0: 27b8 3c3e f0fa 4a3e acbd 813e 29b6 e8bd
000001e0: f44c f83d 99bc 673e 086f b63c f822 a7be
000001f0: ce56 b2bd b59a 2abe 289f 37be 48f7 723e
00000200: 412a 61bd 24d4 03be 9292 90be 9839 8a3d
00000210: 3439 afbd ae7f d73d ed14 6dbe 889e 22be
00000220: 3075 13bd 4a45 3c3e ceb1 183e 4fc3 39be
00000230: 71c8 f5bd ec84 653e 5c9e b13d c5d0 503e
00000240: d050 0cbe d6b9 693b 2536 033e dc88 203e
00000250: 9c18 8a3e 3f61 443e cd3e 0a3e 16ce c43d
00000260: 6749 843e 7ab3 863e 162d 0cbe 29e0 85bb
00000270: 3d51 433d 5083 7a3e 1286 943d 0f69 2e3e
00000280: 08f9 243e 4d6c b83d 53c2 323e f0cc 743e
00000290: d358 f8bd 21bb 38bc 763e 373e 41c9 1fbb
000002a0: f456 05be f5f4 6c3e 7301 8dbd faa3 73be
000002b0: 784c 8c3d a4ca 983d dcf7 0bbe 5a9a 2b3e
000002c0: 44cc 92bd 43a4 bebd 3145 77be 769c 94bd
000002d0: c539 44be 69fb f83d 884f 9abe 9d76 c13c
000002e0: 30f7 05bd 6404 dfbd 3693 8cbd e82d a4be
000002f0: ef48 ef3d 2d4a 803e 5bfc 9ebe 944b c8bd
00000300: 0947 d43c 38d5 07be 2bc0 ad3d 15c2 57be
00000310: f992 2f3e 6440 6ebe 575a 00be 3858 2abe
00000320: 8178 bd3d fd38 0dbe 855f 343e 332d 163d
00000330: 3357 f63c c65a fbbd e112 9bbd 9560 603e
00000340: 827a c43d 4eb5 46bc fc2f 71bd 9b7c 4fbd
00000350: bed4 0e3e 67d7 503d d3b6 3b3e fa30 1cbd
00000360: a4ca 4f3e 0fa8 dd3c fe72 d9bd c6f4 223e
00000370: 4859 333d a43c 843e e17b 2f3e 8c76 36be
00000380: 8a90 34be c51d 1e3e ceb8 4e3e 5a57 e73d
00000390: 29fa 673e 9593 0c3d e398 8a3d 8b38 4dbd
000003a0: c500 0d3e 084c d83d e258 9abd a221 a9bd
000003b0: d81e e4bd c2cc ff3d 169e 8dbd 4797 383e
000003c0: d26b b4bd 5e59 8dbd 749a a3bd 758a 1f3e
000003d0: 7a1f f93d 3c7c 72bd ea33 083e 2194 22be
000003e0: aec5 f83d f0d6 c53d 04c2 813a 1e3e 743e
000003f0: fa46 4d3c 145b 74bd 559a 6c3e a224 213d

out/MatMul_bias f4 [36]
-0.12472653 -0.02221611 -0.0369043 0.051723443 -0.059795722 -0.035271235 -0.04813581 -0.06787711
0.04480651 -0.061356172 -0.0741259 -0.05415867 0.20246953 -0.006734565 -0.13061474 -0.079274416
-0.13709527 -0.044331905 -0.07587646 0.13869233 0.10950375 0.015317173 0.1119788 0.1634527
0.09042102 0.030285094 -0.0404361 0.09478663 -0.055075612 -0.031978935 0.047948968 -0.21286385
0.11457094 -0.050520383 0.0221465 -0.04800023
00000000: 9f70 ffbd 8ffe b5bc f728 17bd f6db 533d
00000010: 5cec 74bd 9278 10bd 0e2a 45bd 2703 8bbd
00000020: 0887 373d 9c50 7bbd 52cf 97bd 7bd5 5dbd
00000030: 2c54 4f3e a0ad dcbb dfbf 05be a05a a2bd
00000040: b462 0cbe 5f95 35bd 1e65 9bbd 5d05 0e3e
00000050: 8143 e03d e1f4 7a3c 2455 e53d 2560 273e
00000060: a82e b93d 7218 f83c 53a0 25bd 7e1f c23d
00000070: f796 61bd 58fc 02bd 2366 443d fbf8 59be
00000080: 2ba4 ea3d 76ee 4ebd 946c b53c e49b 44bd

out/kernel/transpose f4 [36, 64]
0.032266147 0.10150732 -0.595335 -0.90930384 -0.94085073 -0.8977419 -0.84031796 -0.92287976
-0.67868614 -1.073759 0.33252382 -0.7506443 -1.1311651 0.22248258 0.30287975 -0.66179377
-0.88764656 0.24277031 -0.8715828 0.2659608 0.35751584 0.36443597 0.06181305 0.15343776
0.15490292 -0.6315897 -0.4533132 0.27586716 0.21384434 -0.6027719 -0.6236688 0.26613602
-0.8163596 0.17040251 0.3005429 0.052217603 0.25809357 -0.6980046 -1.0710027 -1.1371652
0.35073745 -1.0511812 0.34380773 0.1638828 -1.0629349 0.2981399 0.2799506 0.1965027
0.18202282 -0.3371342 0.33567426 0.10406094 -1.2016883 0.265288 0.31290022 -0.5086511
-1.1465648 0.048577428 0.29255196 -0.88951564 0.13670027 0.2752882 0.20954806 -1.0170206
-1.0992904 0.19430366 -0.12379692 -1.1922361 0.30691332 0.33862424 -0.60584456 0.41278234
-0.57690346 0.1434766 -0.62725514 -0.26664048 -0.9647344 -1.0231028 -0.8276383 -0.79879546
0.20752187 0.2674164 -0.9171841 -0.9248353 -0.7092316 0.36993158 -0.93602836 0.34163097
-0.40200597 0.04547903 -1.1678083 0.2683262 0.20395558 0.24105868 0.39634252 -1.0813327
0.2337992 -0.5078809 -0.28206822 -0.83583415 -0.71520925 -0.56297255 0.34331486 -0.25433046
0.3130683 -0.75686723 0.16663007 -0.7530789 0.3338085 0.2667746 0.20699501 0.2953124
0.32528335 -0.644204 0.1656138 -0.50862867 0.24278708 -1.0453713 0.34205005 0.18511133
-0.98953015 -0.7640065 0.10616257 0.28766242 -0.41293344 0.3245289 0.3274884 0.17486483
-0.4801682 -0.6213002 -0.12193517 0.27177173 0.36898834 -0.4631488 0.26346177 -0.93591666
0.22546625 -0.992933 -0.39560083 0.4091087 -0.8018875 -0.3523976 -0.61812675 0.3443776
0.28497836 -1.0890766 -0.52774924 0.07810892 -0.8444573 0.2753738 0.27254248 0.29543573
-1.0476855 -0.6153103 0.19684422 0.29150116 0.13736297 -0.9206583 0.32022431 0.3547895
-0.4319832 0.20510171 -0.85352534 0.322425 0.17997259 0.2396969 0.42677224 0.3101211
-0.9311665 0.17847662 -0.4644969 -1.068685 -1.1550237 -0.71989745 -1.055572 0.22209398
-0.786308 -1.1567202 0.27253154 0.30634883 -1.2949586 -0.7763486 0.29177806 -1.153221
-0.36021802 -0.505598 -0.7855731 0.3009055 0.404931 0.28211173 -0.42623317 0.19014585
0.25063488 0.313377 -1.0767183 -0.91357005 0.26423395 0.107003555 -1.0164094 0.33739588
0.37129167 -0.33471057 -0.39991063 0.48285088 0.35657698 -0.15531872 0.27715743 0.22588243
0.25578108 -0.74415857 -0.55930895 -0.22945736 -0.50622755 0.28459787 -0.96948737 0.19289565
0.21875721 0.2536723 -0.7514098 -0.61963373 0.104281954 0.37305653 -0.8815853 0.35638902
-0.57065344 0.1721689 0.33381146 -0.033032186 -0.6705887 -0.8348883 -0.4756988 -0.6523315
-0.92729676 0.23445639 0.2870802 -0.6884011 -0.7140187 0.24630468 0.044899303 -1.0011374
0.28473487 -0.48273817 0.40715113 0.35517564 0.0800765 0.3020911 0.16384904 -1.0606261
-0.86868507 0.3347703 0.30663824 -0.8381751 -0.9976243 0.17248741 0.16728735 0.29547593
00000000: 8229 043d 12e3 cf3d e067 18bf 23c8 68bf
00000010: 98db 70bf 6ad2 65bf 141f 57bf d941 6cbf
00000020: 60be 2dbf ef70 89bf 9040 aa3e 3a2a 40bf
00000030: 05ca 90bf 79d2 633e 0e13 9b3e 516b 29bf
00000040: ce3c 63bf c898 783e 0d20 5fbf 042c 883e
00000050: 510c b73e 5a97 ba3e ae2f 7d3d ca1e 1d3e
00000060: df9e 1e3e ddaf 21bf ab18 e8be 763e 8d3e
00000070: 03fa 5a3e 424f 1abf c2a8 1fbf fb42 883e
00000080: f1fc 50bf ff7d 2e3e c2e0 993e 20e2 553d
00000090: d724 843e 6eb0 32bf 9e16 89bf a18e 91bf
000000a0: dc93 b33e 1b8d 86bf 9107 b03e e5d0 273e
000000b0: 400e 88bf cba5 983e af55 8f3e 0138 493e
000000c0: 3164 3a3e db9c acbe 7fdd ab3e e71d d53d
000000d0: ecd0 99bf d4d3 873e 7534 a03e f536 02bf
000000e0: a3c2 92bf 20f9 463d 5fc9 953e 4cb7 63bf
000000f0: 28fb 0b3e 93f2 8c3e c493 563e bb2d 82bf
00000100: 8cb5 8cbf 8af7 463e 3d89 fdbd 319b 98bf
00000110: be23 9d3e 2860 ad3e a118 1bbf 3558 d33e
00000120: f2af 13bf 88eb 123e cb93 20bf 1a85 88be
00000130: d5f8 76bf 08f5 82bf 1be0 53bf dc7d 4cbf
00000140: 9d80 543e cdea 883e 94cc 6abf 02c2 6cbf
00000150: 3490 35bf ac67 bd3e 8e9f 6fbf 41ea ae3e
00000160: bad3 cdbe 3848 3a3d be7a 95bf 0d62 893e
00000170: bbd9 503e 16d8 763e 68ed ca3e 1c69 8abf
00000180: 0f69 6f3e 7c04 02bf 3f6b 90be 3af9 55bf
00000190: f417 37bf f81e 10bf f7c6 af3e 9a37 82be
000001a0: 7d4a a03e 0dc2 41bf 13a1 2a3e c7c9 40bf
000001b0: f3e8 aa3e ae96 883e 80f6 533e 3033 973e
000001c0: 8a8b a63e 8eea 24bf aa96 293e 7d35 02bf
000001d0: 2d9d 783e bace 85bf 2f21 af3e d38d 3d3e
000001e0: d951 7dbf ee95 43bf c36b d93d 7d48 933e
000001f0: 036c d3be a728 a63e 8fac a73e c40f 333e
00000200: 9bd8 f5be 880d 1fbf 25b9 f9bd aa25 8b3e
00000210: 0aec bc3e d721 edbe 76e4 863e 3c98 6fbf
00000220: a0e0 663e db30 7ebf 318c cabe b276 d13e
00000230: 8048 4dbf 756d b4be 8e3d 1ebf 4352 b03e
00000240: afe8 913e dd66 8bbf 931a 07bf 92f7 9f3d
00000250: 5b2e 58bf cbfd 8c3e b08a 8b3e 5a43 973e
00000260: 8f1a 86bf fa84 1dbf 8891 493e a43f 953e
00000270: e1a8 0c3e 43b0 6bbf 71f4 a33e f8a6 b53e
00000280: e72c ddbe 2f06 523e a380 5abf e414 a53e
00000290: bc4a 383e 1b73 753e e481 da3e 31c8 9e3e
000002a0: ee60 6ebf 93c2 363e 8ad2 edbe acca 88bf
000002b0: d1d7 93bf 334b 38bf fc1c 87bf 9b6c 633e
000002c0: 7b4b 49bf 680f 94bf 4189 8b3e c1d9 9c3e
000002d0: 34c1 a5bf c8be 46bf ef63 953e bf9c 93bf
000002e0: 7f6e b8be df6e 01bf 521b 49bf 4910 9a3e
000002f0: 1e53 cf3e f370 903e 3c3b dabe 98b5 423e
00000300: 3753 803e f372 a03e e8d1 89bf badf 69bf
00000310: ac49 873e ae24 db3d b419 82bf 27bf ac3e
00000320: f119 be3e 2f5f abbe 16c1 ccbe 3b38 f73e
00000330: 4291 b63e df0b 1fbe 94e7 8d3e b94d 673e
00000340: bdf5 823e 2d81 3ebf df2e 0fbf dff6 6abe
00000350: 2198 01bf d0b6 913e 5330 78bf 7086 453e
00000360: e401 603e 56e1 813e 655c 40bf 51a0 1ebf
00000370: c791 d53d 4401 bf3e 93af 61bf 9f78 b63e
00000380: 5816 12bf 0b4d 303e 56e9 aa3e c24c 07bd
00000390: b3ab 2bbf 3dbb 55bf cb8e f3be 32ff 26bf
000003a0: 5263 6dbf 5615 703e 2dfc 923e 0e3b 30bf
000003b0: eec9 36bf 4b37 7c3e 55e8 373d 4525 80bf
000003c0: c5c8 913e 7529 f7be 1d76 d03e 95d9 b53e
000003d0: 26ff a33d afab 9a3e 0bc8 273e 99c2 87bf
000003e0: 2562 5ebf 0367 ab3e b0ff 9c3e a592 56bf
000003f0: 4e64 7fbf 8aa0 303e 604d 2b3e 9f48 973e
