bots/Churchill.chatbot/Churchillconverted_model.tflite (tflite, 312356 bytes, 4 tensors)

in/MatMul_bias f4 [64]
0	0x3ea18f2c	0.31554544
1	0x3eb1e9a6	0.34748572
2	0x3e8fb9a0	0.28071308
3	0x3ea5e5f9	0.32402018
4	0x3e80b078	0.25134635
5	0x3e9864d2	0.2976442
6	0x3e8e1e09	0.2775729
7	0x3e894663	0.26811513
8	0x3e98b33f	0.29824254
9	0x3e7493fb	0.23884575
10	0x3ea3f48d	0.32022515
11	0x3ec27b21	0.37984565
12	0x3e969d36	0.29416817
13	0x3eabec82	0.3357888
14	0x3e905b18	0.281945
15	0x3e5c2e46	0.21502027
16	0x3e6e1690	0.23250794
17	0x3eb18327	0.34670374
18	0x3e8fede0	0.28111172
19	0x3ec60efe	0.38683313
20	0x3e8bd1d1	0.27308515
21	0x3e65458b	0.2238981
22	0x3e8e7aba	0.27828008
23	0x3e9112c6	0.28334635
24	0x3e9b1cf8	0.3029554
25	0x3e94cdea	0.2906335
26	0x3e9978c1	0.2997494
27	0x3e973ff5	0.29540983
28	0x3ea66888	0.32501626
29	0x3e8a54d1	0.27017835
30	0x3e95f2fc	0.29286945
31	0x3e8e2fa6	0.27770728
32	0x3e856aeb	0.26058134
33	0x3e747893	0.2387412
34	0x3ead2934	0.33820498
35	0x3e8a720a	0.2704013
36	0x3e96abbc	0.29427898
37	0x3ea1464a	0.3149894
38	0x3e94a980	0.29035568
39	0x3e981fbd	0.29711714
40	0x3e7abdf8	0.2448653
41	0x3e92994e	0.28632587
42	0x3e87a1a1	0.264905
43	0x3e8d0101	0.27539828
44	0x3e8d992f	0.27655932
45	0x3e9e5287	0.30922338
46	0x3e63ff22	0.22265294
47	0x3e83492e	0.2564177
48	0x3eb6e5b7	0.35722134
49	0x3ea09117	0.31360695
50	0x3eabd394	0.3355986
51	0x3e855cae	0.2604727
52	0x3e831002	0.2559815
53	0x3e8d2cf9	0.27573374
54	0x3e96de61	0.29466537
55	0x3e8d759b	0.27628788
56	0x3e90a09d	0.28247538
57	0x3e82e96e	0.25568718
58	0x3eb91274	0.3614689
59	0x3e978fa4	0.29601777
60	0x3ebcbd72	0.36863285
61	0x3ea52236	0.32252663
62	0x3e9e36ea	0.3090127
63	0x3e8fa1ab	0.2805303

in/kernel/transpose f4 [64, 1147]
0	0xbd7a9769	-0.061179552
1	0xbe119f71	-0.14220978
2	0xbd81f23f	-0.06345033
3	0xbd55a119	-0.052155588
4	0xbe4173d7	-0.18891846
5	0x3e4710b1	0.19439961
6	0x3e25e0e2	0.16199067
7	0x3df7a56b	0.12092098
8	0xbdf3abf8	-0.11898035
9	0x3d9cabd0	0.07649958
10	0x3e3a5271	0.18195511
11	0x3e7edb60	0.24888372
12	0x3ee390d2	0.44446427
13	0x3eb87b39	0.3603151
14	0xbdfd17d7	-0.12358063
15	0xbcd45f2a	-0.025924284
16	0x3e31f085	0.17376907
17	0x3ed5c48e	0.41751522
18	0x3eb8d138	0.3609712
19	0xbe64b33f	-0.22334002
20	0xbe211be9	-0.15733303
21	0xbd8f701e	-0.070038065
22	0xbeabb8fe	-0.33539575
23	0x3e713eb6	0.23559079
24	0x3e1b9b3c	0.15195936
25	0x3e8346d1	0.25639966
26	0xbe148746	-0.14504728
27	0x3e3a248d	0.18178006
28	0xbe94aa4b	-0.29036173
29	0x3ec4dc01	0.384491
30	0x3e219e72	0.15783098
31	0xbe0e0d1d	-0.1387219
32	0xbd99da48	-0.07512337
33	0x3e161bdb	0.14659064
34	0xbdaa9217	-0.08328646
35	0xbd178b9d	-0.03699838
36	0xbe1eac50	-0.1549542
37	0xbdd30929	-0.103044815
38	0xbd4bd8fa	-0.04976747
39	0x3dff4cea	0.12465842
40	0x3ebe23c9	0.37136677
41	0x3e7a0cd5	0.24418958
42	0x3e7444b3	0.23854332
43	0x3e4172ac	0.188914
44	0xbde5c244	-0.11218694
45	0x3d8ff809	0.07029731
46	0xbe6aef37	-0.22942816
47	0x3cbeaffa	0.023277272
48	0x3ebe482f	0.37164447
49	0xbe1d8954	-0.15384418
50	0xbdf6c2c5	-0.12048868
51	0x3df68c18	0.120384395
52	0x3eaf3488	0.34219766
53	0x3dd0611a	0.10174771
54	0xbe239c4b	-0.1597759
55	0x3ad5e936	0.0016320113
56	0x3e8865c3	0.26640138
57	0x3e6f5037	0.23370443
58	0xbe1e9797	-0.15487514
59	0x3e116e7f	0.14202307
60	0xbd960020	-0.073242426
61	0xbe0b7a25	-0.13620813
62	0xbe6e0f76	-0.23248085
63	0xbeaa3e63	-0.33250722
64	0x39b6259b	0.00034741763
65	0x3e37d072	0.1795061
66	0x3e9fd032	0.31213528
67	0xbe3f08f4	-0.18655759
68	0x3e5e4356	0.21705374
69	0x3e756de1	0.23967697
70	0x3d6a37ce	0.057182126
71	0x3ea739fe	0.32661432
72	0x3e15f453	0.14643984
73	0xbe1e97cb	-0.15487592
74	0x3cb9f6fc	0.02270078
75	0x3e58ac52	0.21159485
76	0xbe41e3b1	-0.18934514
77	0xbe67fcde	-0.22655055
78	0x3dd3389c	0.10313532
79	0xbdd9bd71	-0.10631836
80	0x3e0c64c6	0.13710317
81	0x3e80e3dd	0.25173846
82	0x3cd094b3	0.02546153
83	0xbdceb262	-0.100926176
84	0x3dbe95fd	0.09305952
85	0x3e779d33	0.2418106
86	0x3e303ccc	0.17210692
87	0xbe119810	-0.14218163
88	0x3e690cc1	0.22758771
89	0xbdd7b158	-0.105318725
90	0x3e490749	0.19631685
91	0xbdf54203	-0.11975481
92	0xbd4e620a	-0.050386466
93	0xbcbfaacd	-0.023396874
94	0x3eff6432	0.4988113
95	0xbd620466	-0.055179976
96	0x3d094a83	0.033518326
97	0xbe0ede93	-0.13952093
98	0xbe32d322	-0.17463353
99	0xbe2eac4f	-0.17057918
100	0x3e1dfa96	0.15427622
101	0x3e4a9d14	0.19786483
102	0xbe7b05cd	-0.24513932
103	0xbde66cb5	-0.11251203
104	0xbe335451	-0.17512633
105	0xbe2f7ede	-0.1713824
106	0xbdeaaa83	-0.11458304
107	0xbcfe7a1f	-0.031064091
108	0xbc579fbb	-0.013160641
109	0xbddb819e	-0.10718082
110	0xbd565c7a	-0.052334286
111	0xbe50c45d	-0.20387407
112	0xbe09d6fc	-0.13460916
113	0x3e9e73f8	0.30947852
114	0xbd299f9d	-0.041411985
115	0xbd124a9e	-0.03571569
116	0xbe12d519	-0.14339103
117	0xbdfdf95f	-0.124010794
118	0xbdca3b7f	-0.09874629
119	0xbe45efa7	-0.19329701
120	0xbe82c06a	-0.25537425
121	0xbd961c4a	-0.073296145
122	0xbdbc50bb	-0.091950856
123	0xbeaa9b4a	-0.333216
124	0x3dffc02f	0.12487828
125	0x3e707527	0.2348219
126	0xbda01077	-0.078156404
127	0xbd95c3e3	-0.07312753
128	0xbe18776d	-0.14889307
129	0x3db187fb	0.08668514
130	0xbe0bb1fd	-0.13642116
131	0x3e7a03da	0.24415532
132	0x3e6c2d66	0.23064193
133	0x3c67c303	0.0141456155
134	0x3e61a15f	0.22034214
135	0xbde58568	-0.11207086
136	0xbea63782	-0.32464224
137	0xbc63928c	-0.01388992
138	0xbdaed9c3	-0.085376285
139	0xbd78066b	-0.060552996
140	0x3e390514	0.18068343
141	0xbc983f94	-0.018585004
142	0xbdbf1d7b	-0.09331795
143	0xbc7e0bc5	-0.015505736
144	0xbc3eaad4	-0.011637408
145	0xbe2a69ad	-0.16641875
146	0x3db80c3c	0.089867085
147	0x3e075177	0.1321467
148	0xbe655ceb	-0.22398727
149	0xbe22089a	-0.15823594
150	0xbe09a522	-0.134419
151	0x3e7720ca	0.24133602
152	0xbd120ef7	-0.035658803
153	0xbd894336	-0.067022726
154	0xbe95d29d	-0.29262248
155	0xbe0d7a82	-0.13816264
156	0x3e8cd9fa	0.27510053
157	0xbd50f45c	-0.05101429
158	0xbe5e6f55	-0.21722157
159	0x3e5ceb6f	0.21574186
160	0x3ca35d25	0.019941876
161	0x3e454ab6	0.19266781
162	0xbbdcee40	-0.006742269
163	0x3c4dc4b9	0.012559109
164	0xbd0f5a39	-0.034998152
165	0x3e80c9ff	0.2515411
166	0xbd90edc1	-0.07076598
167	0x3e5a0cb7	0.21293913
168	0x3dfa50e6	0.122224614
169	0x3e60a28d	0.21937008
170	0xbe3768ea	-0.17911115
171	0xbe42f34c	-0.19038123
172	0x3eabbcff	0.3354263
173	0xbd7c1e6b	-0.061552446
174	0x3cfb4b1b	0.030675462
175	0xbe49ab21	-0.19694187
176	0x3e1f13f9	0.15534963
177	0xbdd9a622	-0.106273904
178	0x3dfa4d1e	0.1222174
179	0xbce798a0	-0.02827102
180	0xbdf2e8ed	-0.11860833
181	0x3e2cd6da	0.16878834
182	0x3e1b4c35	0.1516579
183	0xbd2994d0	-0.041401684
184	0x3dee6405	0.11640171
185	0x3d01cbf7	0.031688657
186	0x3cf225cc	0.029559039
187	0x3e31966a	0.17342535
188	0xbdd8d85e	-0.10588144
189	0x3e662192	0.22473744
190	0xbe096473	-0.13417225
191	0xbe16b8fd	-0.14719005
192	0xbdf75d06	-0.1207829
193	0xbdbbbb9b	-0.09166642
194	0xbea60457	-0.32425186
195	0x3e1d382d	0.1535346
196	0xbd68ad69	-0.056806
197	0xbd3b2de6	-0.04569807
198	0xbe6be7d2	-0.23037651
199	0x3e0f3353	0.13984422
200	0x3b16164b	0.0022901471
201	0x3e4d2060	0.20031881
202	0x3e3c557d	0.18391986
203	0xbdbc8a4c	-0.092060655
204	0x3e18dd4b	0.14928167
205	0x3e5d1587	0.21590243
206	0x3cf9e9f8	0.030507073
207	0xbe2f7942	-0.171361
208	0xbdfde96d	-0.12398038
209	0xbdcb67ae	-0.09931885
210	0xbdaaf761	-0.08347965
211	0x3e5c2f7f	0.21502493
212	0x3d4cc352	0.04999096
213	0x3e4ea0ab	0.20178477
214	0xbe79eaeb	-0.2440602
215	0x3de2536e	0.11051069
216	0x3e78e417	0.2430576
217	0xbe366ca6	-0.17814884
218	0xbe403be5	-0.18772848
219	0xbda0a361	-0.07843662
220	0xbe6c7717	-0.23092304
221	0xbe93d3ae	-0.28872436
222	0x3e55f07e	0.20892522
223	0xbec152ec	-0.37758577
224	0xbcbed682	-0.023295645
225	0x3e753933	0.23947601
226	0xbda7c20d	-0.08191309
227	0xbe388b53	-0.18021898
228	0xbc68990c	-0.0141966455
229	0xbdf331f6	-0.11874764
230	0xbe810b88	-0.2520411
231	0x3e226712	0.1585963
232	0xbd9f37b8	-0.077742994
233	0x3dd6ad8f	0.104823224
234	0xbe2927e7	-0.16519128
235	0x3d97c2c9	0.07410199
236	0xbd99ea2c	-0.07515368
237	0xbcf6aaf4	-0.030110814
238	0xbe041e35	-0.12902148
239	0xbe01dde5	-0.12682302
240	0xbdac5371	-0.08414353
241	0x3e20b891	0.15695406
242	0xbe7149ec	-0.23563355
243	0xbe0417ff	-0.12899779
244	0xbe0c1c02	-0.13682559
245	0xbcd39aa9	-0.025830584
246	0x3e0494d9	0.12947406
247	0xbd50267b	-0.050817948
248	0x3de6bd1d	0.11266539
249	0xbe8dc3c0	-0.27688408
250	0x3e4c114d	0.19928475
251	0xbe1e2111	-0.15442301
252	0x3e2c964f	0.16854213
253	0xbdd13181	-0.1021452
254	0x3eb0d1a5	0.34534946
255	0x3e11f20a	0.14252487

out/MatMul_bias f4 [67]
0	0x3db91b6c	0.090384334
1	0x3cf2e78f	0.029651431
2	0x3d7d58a8	0.061852127
3	0xbe2e8b33	-0.17045288
4	0x3d1cc358	0.03827223
5	0x3d6540a5	0.055969853
6	0xbc8fef77	-0.01757024
7	0x3db76b95	0.089560665
8	0x3bbd1c3f	0.0057711895
9	0x3df6565b	0.1202819
10	0x3d389077	0.045059647
11	0x3d6f960c	0.058492705
12	0xbc931174	-0.017952658
13	0x3d0a149e	0.03371107
14	0xbd3a7d94	-0.045529917
15	0xbb667ff4	-0.003517148
16	0x3d5ed5e9	0.05440322
17	0x3dbc8ce6	0.09206562
18	0xbd3e4eb9	-0.046461795
19	0xbd9cf70e	-0.076643094
20	0xbdfc5f1b	-0.123228274
21	0x3df455e7	0.11930447
22	0xba69d97a	-0.0008920651
23	0x3d6440c7	0.05572584
24	0xbcf45e30	-0.029830068
25	0xbd11af76	-0.035567723
26	0x3d9d4bba	0.07680459
27	0x3d93665f	0.0719726
28	0x3d612a48	0.054971963
29	0x3e312746	0.17300138
30	0xbd0cfa71	-0.034418527
31	0xbcf4873c	-0.029849641
32	0x3d9302fc	0.071783036
33	0x3cb8026a	0.022462089
34	0x3d2d690f	0.04233652
35	0xbdba1b9b	-0.090872966
36	0xbc55911d	-0.013035086
37	0xbd09b5dd	-0.033620704
38	0x3d5cdfd6	0.053924404
39	0xbe5bf613	-0.21480589
40	0x3db880e2	0.090089574
41	0xbdba3703	-0.09092524
42	0x3c8554e8	0.016275838
43	0xbd8b1950	-0.06791937
44	0xbd773ac5	-0.06035878
45	0xbdcf0b77	-0.101096086
46	0x3af19194	0.0018430226
47	0x3d86b0f4	0.0657672
48	0x3c7494f7	0.014928094
49	0xbd4cb684	-0.049978748
50	0xbd6222f3	-0.05520911
51	0xbdef1a90	-0.11674988
52	0xbda82713	-0.08210578
53	0x3d18ca32	0.037302203
54	0xbd853d0d	-0.06505785
55	0x3d2c369f	0.04204428
56	0x3c17608c	0.009239327
57	0xbd4b332a	-0.04960934
58	0x3cec075f	0.028812109
59	0xbd526fe9	-0.051376257
60	0xbd43bce8	-0.047787577
61	0xbd92f0e6	-0.07174854
62	0x3c19b1e4	0.009380791
63	0xbd641002	-0.05567933
64	0x3bd09a33	0.006366038
65	0xbe6cfa63	-0.2314239
66	0xbc3d775c	-0.011564102

out/kernel/transpose f4 [67, 64]
0	0x3e96bdd6	0.29441708
1	0xbe068478	-0.1313647
2	0x3ebfc333	0.37453613
3	0xbe1388aa	-0.14407602
4	0x3d527f25	0.051390786
5	0x3eabccda	0.33554727
6	0xbbc52894	-0.0060168
7	0xbfb1edb1	-1.3900663
8	0x3e8c3dfe	0.27391046
9	0xbb9227ba	-0.004460302
10	0xbdc73302	-0.09726526
11	0xbf84bdbc	-1.0370402
12	0xbf0310e6	-0.5119766
13	0xbf6f5529	-0.9348932
14	0xbc6ef887	-0.014585621
15	0x3ead9386	0.33901614
16	0x3e94b742	0.29046065
17	0xbf9fe8ae	-1.2492883
18	0x3ece9b42	0.40352827
19	0xbeef8152	-0.4677835
20	0xbfa08b6a	-1.2542546
21	0xbf84fbaa	-1.0389302
22	0xbf3692af	-0.7131757
23	0xbf9d5d22	-1.2294047
24	0x3b5fef56	0.0034169755
25	0xbee1eb8a	-0.44125015
26	0xbf0748fd	-0.52845746
27	0xbf6ee2da	-0.933149
28	0xbfb10f2c	-1.3832755
29	0x3ed56029	0.41674927
30	0xbfb57064	-1.4174924
31	0xbf93104a	-1.1489346
32	0xbf80f0b9	-1.0073463
33	0x3e95a472	0.29227024
34	0xbf27fa13	-0.6561596
35	0x3ec57874	0.3856846
36	0xbf71ea8d	-0.9449852
37	0x3eabcc94	0.33554518
38	0x3e3a5079	0.1819476
39	0xbf1124c1	-0.56696707
40	0xbfa23a32	-1.267401
41	0x3db471e7	0.08810788
42	0xbedf2e3a	-0.43589956
43	0xbe818c62	-0.25302416
44	0xbe93abdf	-0.28842065
45	0x3e66860d	0.22512074
46	0xbfa8a37d	-1.3174893
47	0xbf724f71	-0.9465247
48	0xbfb9de3d	-1.4520947
49	0xbf9bf2c4	-1.2183461
50	0x3e9fccc1	0.31210902
51	0x3e9ed600	0.31022644
52	0x3d968938	0.07350391
53	0x3eda1daa	0.42600757
54	0x3ec65029	0.38733032
55	0xbf8bebc6	-1.0931327
56	0x3e890b89	0.26766613
57	0x3eaec3ab	0.34133658
58	0xbf896d0d	-1.0736405
59	0x3dca569c	0.09879801
60	0xbf86d921	-1.0535012
61	0x3ea98ed0	0.3311677
62	0xbfabcc36	-1.3421695
63	0xbed9190f	-0.4240193
64	0x3e9f612e	0.3112883
65	0x3e3011fc	0.1719436
66	0x3e9d00ca	0.30664665
67	0xbdd82ae7	-0.10555058
68	0xbfca7256	-1.5816143
69	0x3eb68a95	0.35652605
70	0x3e54982f	0.20761178
71	0xbf3f9864	-0.74841905
72	0xbf3b3b35	-0.7313722
73	0x3e60f164	0.21967083
74	0xbf1c6aba	-0.6110035
75	0xbe9c83f6	-0.30569428
76	0xbf1481ed	-0.5801075
77	0x3e5d216e	0.21594784
78	0xbf3d75b2	-0.74007714
79	0x3e88e624	0.26738083
80	0xbf505cb8	-0.8139148
81	0x3e7cda1d	0.24692579
82	0xbeebf8e3	-0.46088323
83	0x3e947b24	0.290002
84	0x3e89ed6a	0.26938945
85	0xbee68704	-0.45024884
86	0x3e775efc	0.24157327
87	0xbf7ab231	-0.9792815
88	0xbf4ee00b	-0.8081061
89	0xbf24d890	-0.6439295
90	0x3e9e21b5	0.3088509
91	0xbe7df6e0	-0.24801207
92	0x3eb123e3	0.34597692
93	0x3e253914	0.16135055
94	0xbf84fb12	-1.038912
95	0x3e9b8332	0.30373532
96	0xbf807846	-1.0036705
97	0xbef3a1c3	-0.47584352
98	0x3e772104	0.24133688
99	0x3eca52bd	0.3951625
100	0xbf26ef44	-0.6520884
101	0x3ea925f9	0.33036783
102	0xbfc6a0c9	-1.5517818
103	0xbfb2a443	-1.3956379
104	0xbf9452d1	-1.1587774
105	0x3e23494b	0.15945928
106	0x3ec92893	0.39288768
107	0x3d76c589	0.060246978
108	0xbf586e12	-0.84542954
109	0x3e9aba5d	0.3022031
110	0x3e3fb7c3	0.18722443
111	0x3e8568c2	0.26056486
112	0xbf327022	-0.6970235
113	0xbf3a3b54	-0.7274678
114	0x3eb6de2e	0.35716385
115	0xbf3b6680	-0.7320328
116	0xbf737a07	-0.95108074
117	0xbf58a3e6	-0.8462509
118	0x3e18b85c	0.14914078
119	0x3e72008e	0.23633024
120	0x3e7d17fb	0.24716179
121	0xbf8f5f25	-1.1200911
122	0xbe33e89b	-0.175692
123	0xbe555689	-0.20833792
124	0xbf2da800	-0.6783447
125	0xbf8f8b33	-1.1214355
126	0xbf0ed9b0	-0.55800915
127	0xbf67e97e	-0.90590656
128	0x3e8694d7	0.2628543
129	0x3e914089	0.2836955
130	0x3e923735	0.28557745
131	0xbe38ad63	-0.18034892
132	0x3eb10239	0.34572008
133	0x3e3eadf9	0.18621053
134	0x3e787f35	0.24267276
135	0xbf113ebb	-0.56736344
136	0xbf0ec4e7	-0.557692
137	0x3e7a8ce6	0.24467811
138	0x3e3bf60d	0.1835558
139	0xbf1e7671	-0.6189948
140	0xbf963220	-1.1734047
141	0xbf952365	-1.1651427
142	0x3c36263d	0.011117515
143	0x3ea6faab	0.3261312
144	0x3c8fdb62	0.017560665
145	0xbfa81291	-1.3130666
146	0x3ebe0882	0.37115866
147	0x3ec81db6	0.39085168
148	0x3ebe0426	0.3711254
149	0xbf99306e	-1.1967905
150	0x3ebe6034	0.37182772
151	0xbf6b3fd1	-0.9189425
152	0xbe973d1e	-0.29538816
153	0x3eb24718	0.34819865
154	0xbf6cd683	-0.9251482
155	0xbe50b1bf	-0.20380305
156	0xbf4858d7	-0.7826056
157	0x3ec6d4d5	0.38834253
158	0xbfb618e9	-1.4226352
159	0xbf34be8a	-0.7060324
160	0x3e20c96a	0.15701833
161	0x3e96dc83	0.29465112
162	0xbec3f143	-0.38270006
163	0xbf552bd9	-0.8327003
164	0x3ed32725	0.41240802
165	0xbf09d4c0	-0.53840256
166	0xbf971d33	-1.1805786
167	0xbe9e02f5	-0.3086163
168	0xbf0baac8	-0.54557467
169	0x3e4d87c2	0.20071319
170	0x3eb415d2	0.35172898
171	0x3e77145b	0.24128859
172	0xbf0bc5f7	-0.54598945
173	0xbf6d69d6	-0.9273962
174	0xbf91e046	-1.1396568
175	0x3e8b4ca8	0.27206922
176	0xbfad98ec	-1.3562293
177	0xbf12ac9b	-0.57294625
178	0xbf067ae0	-0.5253124
179	0xbeaafae6	-0.33394545
180	0xbf7130cf	-0.942151
181	0xbe438674	-0.19094259
182	0x3e8b36a1	0.27190116
183	0xbf66dab3	-0.9017746
184	0xbfc930cc	-1.5718017
185	0x3e428d36	0.1899918
186	0x3e814c0d	0.25253335
187	0xbf0e1ddb	-0.55514306
188	0xbe47e9bb	-0.19522755
189	0x3e9cd06d	0.30627766
190	0xbeb42c6f	-0.3519015
191	0xbf31b530	-0.69417095
192	0x3e4b7da2	0.19872144
193	0x3dcb1133	0.0991539
194	0xbf23c2b2	-0.63968956
195	0xbed912f3	-0.4239727
196	0xbed739c8	-0.4203627
197	0x3eb5df70	0.35522032
198	0xbee0e3d3	-0.43923816
199	0x3e95ac86	0.29233187
200	0x3e6343fc	0.22193903
201	0x3e16d79c	0.14730686
202	0x3e484b76	0.19560036
203	0x3e5875fd	0.21138759
204	0x3ca72450	0.020403057
205	0xbfa1b182	-1.2632296
206	0xbef85089	-0.48498943
207	0x3e33e503	0.1756783
208	0xbf026c89	-0.5094686
209	0xbe00dc4a	-0.12584034
210	0xbf305fe3	-0.6889631
211	0xbfa59b7d	-1.2938076
212	0x3ec137f5	0.37738004
213	0x3e515863	0.20443873
214	0x3e7ad90f	0.24496864
215	0x3eb3f319	0.35146406
216	0xbf1c43bf	-0.6104087
217	0x3e46402e	0.1936042
218	0x3e212ea8	0.15740454
219	0x3e9304fa	0.28714734
220	0xbcd688fb	-0.026188364
221	0x3e8d1cf8	0.27561164
222	0x3e7095bc	0.23494619
223	0xbf4f8312	-0.8105937
224	0x3daa23d4	0.08307615
225	0xbefa7168	-0.48914647
226	0x3e883076	0.26599473
227	0xbe0fb836	-0.14035115
228	0xbf0e033e	-0.554737
229	0xbf91f409	-1.1402599
230	0xbe0920d6	-0.13391432
231	0x3e97e0b8	0.29663634
232	0xbf782f76	-0.9694742
233	0xbf0da33a	-0.5532719
234	0xbec3614e	-0.38160175
235	0xbe93acc3	-0.28842744
236	0x3e410407	0.18849193
237	0xbf4bb59d	-0.79573995
238	0x3e988155	0.29786173
239	0x3dce433b	0.10071417
240	0xbedaf432	-0.4276443
241	0xbecb00ba	-0.39648992
242	0xbe4b2108	-0.19836819
243	0x3e700423	0.23439078
244	0x3e4c2f0f	0.19939826
245	0x3eb738bc	0.35785472
246	0xbfae8c78	-1.3636618
247	0x3e843c92	0.2582746
248	0xbe8e88b1	-0.27838662
249	0xbf3ee6ec	-0.7457111
250	0xbeb8e88f	-0.36114928
251	0xbe5d24f5	-0.21596129
252	0xbf7f217f	-0.99660486
253	0xbf322a5d	-0.6959589
254	0x3db0a165	0.086245336
255	0xbf9dcc19	-1.2327911
