bots/binbank.chatbot/binbankconverted_model.tflite (tflite, 85332 bytes, 4 tensors)

in/MatMul_bias f4 [64]
000000 1a 26 3b 3e a0 47 16 3e 15 28 1e 3e b2 b0 f1 3d
       0.18276253 0.1467576 0.15444978 0.1180128
000010 b2 08 fd 3d 2f 3d f0 3d fe 0b 6a 3e 01 72 53 3e
       0.12355174 0.1173042 0.22856137 0.20648958
000020 3b a4 02 3e 16 9c 57 3e 3b 3a 48 3e 3c 5e 62 3e
       0.12757961 0.21055636 0.19553463 0.2210626
000030 f6 e2 7e 3e ed b5 db 3d 80 79 e7 3d f3 7f 05 3e
       0.24891266 0.10728059 0.11302471 0.1303709
000040 1b a3 cd 3d bb a6 16 3e 0f 3a 57 3e c1 5b 3f 3e
       0.100408755 0.1471204 0.21018241 0.18687345
000050 8a d8 e9 3d 32 84 73 3e fe fd 3f 3e f9 cf 63 3e
       0.11418255 0.23780897 0.18749234 0.22247304
000060 52 95 00 3e c7 63 03 3e 6d 5b ff 3d 59 58 02 3e
       0.12556961 0.12831031 0.1246861 0.12729014
000070 dc 92 33 3e b4 0f 0d 3e 80 ee ec 3d 8f f5 f9 3d
       0.17536491 0.13775522 0.11568928 0.1220504
000080 e6 1f 28 3e 93 4a 1b 3e 20 87 39 3e 1b dc d5 3d
       0.16418418 0.15165167 0.18117952 0.104423724
000090 22 85 a1 3d 89 c3 36 3e da e1 f2 3d 85 d4 79 3e
       0.07886721 0.17848028 0.11859484 0.24397476
0000a0 d5 19 22 3e 87 86 13 3e 21 0f db 3d fd e8 75 3d
       0.15830167 0.14406787 0.10696245 0.060036648
0000b0 45 c8 29 3e 17 d2 0e 3e 24 56 30 3e ec 9c 28 3e
       0.16580303 0.1394733 0.1722036 0.16466111
0000c0 1c e7 16 3e 04 03 79 3e df 0f 2a 3e 94 c2 36 3e
       0.14736599 0.24317557 0.16607617 0.17847663
0000d0 b0 4d 4d 3e c8 40 3b 3e 79 32 0f 3e 71 b1 20 3e
       0.20049167 0.18286431 0.13984098 0.15692689
0000e0 a7 07 1f 3e 56 f1 2f 3e 7d 8d 31 3e b0 21 20 3e
       0.15530263 0.17181906 0.1733913 0.15637851
0000f0 0d 37 5c 3e ad ab 08 3e 30 29 33 3e f3 76 2f 3e
       0.21505375 0.13346739 0.1749618 0.1713522

in/kernel/transpose f4 [64, 313]
000000 18 81 d5 3b 95 f7 b4 bd ba 4f a1 3d e3 04 aa bd
       0.0065156333 -0.08836285 0.07876535 -0.08301713
000010 15 b6 e7 3d 94 0d 83 3d 76 82 83 bc b6 b4 02 3d
       0.11314026 0.06399074 -0.01605342 0.03191062
000020 78 69 23 be 60 31 33 be 40 19 98 3c df b9 e7 3d
       -0.15958202 -0.17499304 0.018566728 0.11314749
000030 68 45 29 be 33 e9 75 3d 5e 2d 19 bd dd 55 37 3e
       -0.16530383 0.06003685 -0.03739678 0.17903848
000040 9c a4 9a 3d 7b fa 0e 3e 5a 57 21 bd 78 bc f3 3c
       0.07550928 0.13962738 -0.039389946 0.029752955
000050 81 11 f8 bd 22 09 a1 3c e1 ed d8 bd 78 80 8b 3e
       -0.121127136 0.019657675 -0.10592247 0.2724645
000060 1e f2 db 3d 80 d8 22 3e ea 71 8a 3d 46 bc 0c 3e
       0.107395396 0.159029 0.06760009 0.13743696
000070 9d 1d 53 3e 46 05 72 3e d9 e7 ab bc b5 98 d1 bc
       0.20616765 0.23634824 -0.020984577 -0.025585512
000080 d1 c2 3b bd f4 df e2 3d 0f 99 27 be 4d 20 0e 3d
       -0.04584009 0.11077872 -0.16366981 0.034698773
000090 42 7e eb bd 79 62 b4 bd d6 63 4b be 62 a2 c8 3c
       -0.11498691 -0.08807845 -0.19862303 0.024491493
0000a0 aa 2d 4b be bc a2 c3 bc d5 e2 6c 3e 66 f6 50 bc
       -0.19841638 -0.023881309 0.23133405 -0.012754058
0000b0 d7 57 bc 3c d8 4a 4d bc 3e bd 90 3e 4a a9 73 be
       0.022991104 -0.012530051 0.2826938 -0.23795047
0000c0 b4 a6 07 3e 68 8c 32 3e d3 88 0b 3d f8 08 b1 3c
       0.13247186 0.17436373 0.034066033 0.021610722
0000d0 95 ff 32 bc d6 13 27 3e 84 2a 16 be 4c 78 31 3d
       -0.010925193 0.1631616 -0.14664656 0.043327615
0000e0 71 ac 69 be 72 91 83 be a4 a5 4e 3d d4 7a 22 3e
       -0.22819687 -0.25696903 0.050450936 0.15867168
0000f0 82 c2 7c 3e 10 23 86 be fc 95 f2 3d 67 85 83 3e
       0.24683574 -0.26198626 0.118450135 0.25687715
000100 82 b7 76 3e bf d0 3c be d5 ab 3b 3e c7 26 07 bd
       0.2409344 -0.18439005 0.18327267 -0.032995965
000110 65 61 a0 bd 76 fd 38 3e 08 fa a1 3d ad 07 68 3e
       -0.078310765 0.18065438 0.07909018 0.22659178
000120 62 6c 3d 3e 82 9e 4c 3e fc bc 63 3e 3b 66 11 be
       0.18498376 0.19982341 0.2224006 -0.14199154
000130 f2 47 0e 3e eb 45 1c be 7b ea bd 3c 16 c0 58 3e
       0.13894632 -0.15261047 0.023183098 0.21167025
000140 53 c8 13 be 8e 5c 9f 3d d4 0d fa bd 3f 3c a5 3b
       -0.14431886 0.07781325 -0.12209669 0.0050425823
000150 7a 5b 1a be 67 5e b5 3c 29 89 14 be b6 28 6b bd
       -0.15073958 0.022139741 -0.14505447 -0.05741187
000160 eb dc 32 be 93 90 1f be 8d ac 3f 3e 65 dd ba 3d
       -0.17467086 -0.15582494 0.18718167 0.09124259
000170 a1 23 fb 39 6a f7 28 3d a9 75 20 3d 1f 62 9d 3d
       0.00047900996 0.041251577 0.03917471 0.07684731
000180 46 6b 11 3e a1 b2 93 3c a6 7e d9 3d d7 ec 42 bd
       0.14201078 0.018029513 0.106198594 -0.04758915
000190 fe 0c cd 3d 8b 37 c5 3d d8 ee bc 3d 25 dc 72 3c
       0.10012244 0.096297346 0.09225243 0.014822994
0001a0 c1 7d bd bd 87 00 81 3e 6d e4 87 bc 4b 60 f2 3c
       -0.09252501 0.25195715 -0.016588414 0.029586932
0001b0 47 85 bf bd 32 fa 39 bd 60 eb db 3c 3a 36 f4 3d
       -0.093515925 -0.04540462 0.026845634 0.119244054
0001c0 41 5e c6 bd 87 fc a8 bd 66 81 00 3e fa 27 14 be
       -0.09685946 -0.08251291 0.12549362 -0.14468375
0001d0 6a 78 1d ba 20 d8 b9 bb 0c b9 90 3d 0c c6 eb bd
       -0.0006007018 -0.005671516 0.07066545 -0.11512384
0001e0 34 76 1d 3d eb 6e 8f bd 00 03 72 ba 62 ec d3 bc
       0.038442805 -0.07003578 -0.00092320144 -0.025869552
0001f0 21 2a b0 3d 93 e2 07 bd ca b8 1f be e8 98 11 3e
       0.086017855 -0.033175062 -0.15597835 0.14218485
000200 ac 2e 07 3d 5d 8a 2e be d1 50 30 3c 52 e5 dd 3d
       0.033003494 -0.17044969 0.010761456 0.10834755
000210 74 33 bc bd 8b ff 9c bd 1f 9f 40 3e 37 5c 9c bb
       -0.091895014 -0.076659285 0.188107 -0.004771735
000220 97 eb 0a 3e 8c c7 65 be 03 ce d4 3d 85 3c de 3d
       0.13566433 -0.22439402 0.10390856 0.10851387
000230 0a bb 4f 3d 85 63 27 3e 1b 24 d2 3c 93 36 24 3d
       0.050715484 0.16346557 0.025651982 0.04009111
000240 fc a5 33 be 21 93 73 3d 7c af 4b 3e ab a0 1d bc
       -0.17543787 0.059466485 0.1989116 -0.009620826
000250 9a 10 32 3e f7 ba 35 be 51 e2 23 bd 2f 4e c6 bd
       0.17389145 -0.17747103 -0.040010754 -0.09682881
000260 96 ef 71 be b7 d4 45 3e 30 d4 0b be 41 b6 03 3e
       -0.23626551 0.19319426 -0.13655162 0.12862493
000270 67 50 44 bd 29 42 2b be 1f d8 a2 3d 9e 27 57 3d
       -0.04792824 -0.16724457 0.07951378 0.052528016
000280 e6 a7 67 3e 25 85 0a bd 9a 3d 15 be b3 30 22 3d
       0.22622642 -0.033818383 -0.1457428 0.039597224
000290 25 87 86 bd 57 ff 94 bd 3a f7 83 bd d9 41 e4 3d
       -0.065687455 -0.07275265 -0.06443639 0.11145372
0002a0 d6 01 92 3d f0 f9 24 3e 35 92 84 bd 05 86 f9 3d
       0.071292564 0.16110969 -0.06473199 0.12183765
0002b0 4c 81 00 be fa 09 b2 bd 3e 7a e0 bd 14 0b 67 3d
       -0.12549323 -0.08693309 -0.10960816 0.05640705
0002c0 57 95 76 3e f2 89 34 3d 80 3f f2 3c 5c bc b4 3c
       0.24080406 0.044076867 0.029571295 0.022062473
0002d0 91 95 88 3e 0a 1b d7 bd 1c 45 92 bd a6 fd 30 be
       0.2667661 -0.10503204 -0.07142088 -0.17284259
0002e0 d8 33 f9 bc 35 30 c1 bd 7c 53 9c 3d f0 c4 ad 3d
       -0.030420229 -0.09433023 0.07633111 0.084848285
0002f0 15 8f b7 3b 00 8e 3e 3e a4 1d 54 bd 20 bd cf bd
       0.0056017735 0.18608856 -0.05178608 -0.101434946
000300 d0 ca 3b 3e f1 9f 76 3d a9 53 24 3e 16 17 15 3e
       0.18339086 0.060211126 0.16047539 0.14559588
000310 d9 a2 f6 bd 79 04 33 3c dc af 54 3e 04 06 a8 bd
       -0.120427795 0.010926359 0.2077021 -0.082042724
000320 db 48 40 3c 7e 78 e3 bd bd 84 bd 3d 6a 73 34 3e
       0.01173612 -0.111069664 0.092538334 0.17622152
000330 6d 8a 0e 3e 54 e6 7b 3e 27 df 07 3e 88 56 94 3e
       0.13919993 0.24599582 0.1326872 0.28972268
000340 01 17 56 3e a0 70 d3 bb 6f 0e c4 bc 92 3b bb bd
       0.20907213 -0.006452635 -0.023932664 -0.091422215
000350 d9 ac 8b 3c e8 83 54 3e 80 b0 23 3e ce 78 4c 3d
       0.017050194 0.20753443 0.15985298 0.049919896
000360 25 b1 8b 3d 78 a1 e0 bd 93 65 dc 3d c6 4a bd bc
       0.06820897 -0.10968298 0.10761561 -0.023106944
000370 14 9f 20 bd 75 9d c0 bd ab 2a 75 3c 1b ec e9 ba
       -0.03921421 -0.094050325 0.014963786 -0.0017846854
000380 e2 18 4c 3d 99 1a ce 3d ec 7e 8d ba a7 f4 27 3e
       0.049828418 0.10063667 -0.0010795272 0.16401921
000390 84 39 ad bd ff 71 97 bc 0d 17 3a 3e b9 e5 14 bb
       -0.08458236 -0.018486975 0.18172856 -0.0022719933
0003a0 79 c1 f0 ba fa 77 e0 3d c0 29 7f 3e 35 87 96 bd
       -0.0018368206 0.10960384 0.2491827 -0.073500074
0003b0 b1 28 95 3c 18 49 3f 3e 82 13 5f 3e d3 00 fb bc
       0.01820788 0.18680227 0.21784785 -0.030640041
0003c0 84 1e 12 be 57 c8 df 3d c3 42 55 bd f3 82 2f bd
       -0.14269453 0.10926884 -0.052065622 -0.042849492
0003d0 e4 aa 84 3c f3 8b c0 bd 60 20 1d 3d b9 10 35 be
       0.016194768 -0.09401693 0.038360953 -0.1768216
0003e0 a5 02 17 3e 3b 84 36 bd ca 31 4f 3e 47 e8 44 bd
       0.14747103 -0.0445597 0.20233837 -0.04807308
0003f0 3d 45 1c 3c b4 48 b2 3d 04 c6 0d bd 00 6a bd 3c
       0.009537992 0.08705273 -0.03461267 0.023121834

out/MatMul_bias f4 [15]
000000 e5 5d 5c bd 39 13 17 bd f1 3d a0 bd 35 04 76 3d
       -0.053800482 -0.036883567 -0.078243144 0.060062606
000010 51 8a 2a 3d e6 3a 5f bd d9 f1 99 3d fd 40 c8 3d
       0.041635815 -0.05449953 0.07516832 0.097780205
000020 18 fb 50 bc f4 f5 df bb 84 66 67 bd 9a 0b 33 be
       -0.012755178 -0.00683474 -0.05649425 -0.17484894
000030 37 33 14 bd ae 23 ad bd f3 74 ce 3b
       -0.036181655 -0.08454071 0.0063005625

out/kernel/transpose f4 [15, 64]
000000 ce fb 0c 3e 26 27 ff be dd b1 84 3e 1f 08 0c 3e
       0.13767931 -0.49834555 0.2591695 0.13674973
000010 85 5a 9e 3e 3d f0 bb be 0e 82 2a bf 0e f0 17 3e
       0.30928436 -0.36706725 -0.666047 0.14837667
000020 21 eb cb 3e c8 7e 29 3e c5 9d 26 bf 41 8e 17 3e
       0.39827827 0.1655227 -0.6508449 0.1480036
000030 75 7c 0a bf 97 5a a7 3e 4b 88 fc be cf d2 04 bf
       -0.54096156 0.32686302 -0.49322733 -0.5188417
000040 f9 99 f1 3d e7 39 93 be c5 26 03 3e b2 d9 88 3c
       0.11796946 -0.28755113 0.12807758 0.016705368
000050 9f 23 ad 3e b8 44 6a 3e ff 68 21 bf 0e 7e ff be
       0.3381624 0.22877777 -0.63050836 -0.4990086
000060 06 5a aa 3e 52 37 b6 be 26 4d 0e be 07 81 9e be
       0.33271807 -0.3558908 -0.13896617 -0.30957815
000070 0e f6 b1 be 7d 2e 91 be c8 57 77 be 68 e9 9f 3e
       -0.34758037 -0.2835578 -0.2415458 0.31232762
000080 33 5d 01 be 1a 71 a4 be 5e 2c c7 be 01 d2 ad 3d
       -0.12633209 -0.3211754 -0.38901037 0.08487321
000090 74 f4 9b be cf 51 f3 bd c2 d3 8a 3e a8 bb 62 3d
       -0.3045994 -0.11880838 0.27114683 0.055354744
0000a0 2a ef 9a be a8 44 98 3e c9 e8 84 3e a5 96 3e 3e
       -0.30260593 0.2973988 0.2595885 0.18612154
0000b0 61 2a d7 be 2a fd 82 3e 0b d9 34 3e 3d df 49 3e
       -0.4202452 0.25583774 0.1766092 0.19714065
0000c0 5a 2f 57 3e 03 be af 3d f7 6d 9b 3e 2a c1 f2 3d
       0.21014157 0.08581164 0.30357334 0.11853249
0000d0 c6 60 23 3e 8f 25 a0 3d aa 3a 11 bf df a3 b2 be
       0.15954885 0.07819664 -0.5673014 -0.3489065
0000e0 0d d0 03 3e 22 90 33 be 89 20 5a 3e 8c 2d de 3c
       0.12872334 -0.17535451 0.21301474 0.027121328
0000f0 10 4f 9d 3e 32 dc 81 3e e1 56 fb be e9 7f 06 bf
       0.30724382 0.25363308 -0.4908972 -0.52538925
000100 4c b4 89 3e 23 6b c0 3e f2 70 ad be 75 2a cd be
       0.26895368 0.3758174 -0.33875233 -0.40071455
000110 5b b0 8a 3e 29 12 e3 3d 93 e5 8b 3e ba ee fd be
       0.27087674 0.11087448 0.2732359 -0.49596196
000120 c9 42 96 3e 1d 3b 44 3e 07 0e 85 3e 77 b0 ba 3e
       0.29347828 0.19163175 0.25987265 0.36462757
000130 be 2e 31 bf 68 ca a3 be e9 58 ae be aa 55 c9 be
       -0.6921195 -0.3199036 -0.34052208 -0.3932317
000140 72 e1 ed be 0e 96 2c bf 05 c0 3f 3e 99 16 ad be
       -0.46461064 -0.67416465 0.18725593 -0.33806303
000150 41 62 ba be b6 4d 24 bf 06 2f 0e 3e 8e 4c 05 bf
       -0.36403087 -0.6418108 0.13885126 -0.5206994
000160 11 55 97 be bf d4 b6 3e b8 2f a8 be cc 99 c9 be
       -0.29557088 0.35709187 -0.32848907 -0.3937515
000170 a0 0a d8 be 56 ed b5 be 72 8f aa be d8 56 ac be
       -0.42195606 -0.35532635 -0.33312565 -0.33660007
000180 69 f5 f1 be 9c ff 19 bf 05 29 7c 3e cc 72 05 bf
       -0.47257546 -0.60155654 0.24625023 -0.5212829
000190 09 6a 78 3e 68 4a 44 3e eb 46 05 3e 53 57 f2 bb
       0.24259199 0.19169009 0.13015334 -0.0073956638
0001a0 ac 7b 8d 3e 30 69 c9 3e dc be ce 3e f8 1d 0f bf
       0.27633417 0.39338064 0.4037999 -0.55905104
0001b0 24 82 ad be fb 3a fe be 16 89 d3 be 80 ff 68 be
       -0.33888352 -0.49654374 -0.41315526 -0.22753716
0001c0 39 a9 c6 be ca 68 93 3e 1c 86 af be c6 6c cf 3d
       -0.38800982 0.28790885 -0.34282005 0.10128169
0001d0 30 1c fe be 31 79 e4 be 34 07 06 bf f6 9a 28 bf
       -0.4963088 -0.44623712 -0.5235474 -0.6586145
0001e0 e2 74 b9 be 77 41 a3 bd 6f cc b5 3e 6c e7 0a bf
       -0.36221987 -0.07971471 0.35507533 -0.5425937
0001f0 ef 9b 3f bd 76 b2 69 be b9 dd a2 be 66 28 aa 3e
       -0.04677957 -0.22821984 -0.31809786 0.33233947
000200 cb fc 28 3e 59 18 b2 3e 88 19 88 be f2 b7 96 be
       0.16502683 0.347842 -0.2658198 -0.29437214
000210 bd a5 75 3e e3 1a 8e 3e 43 e3 56 3e 86 31 f7 be
       0.23989005 0.27754888 0.20985131 -0.4827997
000220 1c d5 0a be 26 07 e6 be 3c 96 f8 3d 85 da ff be
       -0.13557857 -0.4492733 0.1213803 -0.49971405
000230 93 7b 26 bf c1 6d 5e 3d dd 83 34 3e 57 0e 6d bd
       -0.6503231 0.05430389 0.17628427 -0.057875004
000240 09 54 ea bd f8 30 c4 3d 73 52 f8 3d 46 c1 c7 be
       -0.1144181 0.095796525 0.12125101 -0.39014643
000250 81 dc c0 bd 9b 49 39 bf 18 cc ce be 4e 7f c5 be
       -0.09417058 -0.7237794 -0.40390086 -0.38573688
000260 32 97 f6 be 58 7d d9 be 8c f1 4d 3e c1 86 ea 3d
       -0.48162228 -0.42478442 0.20111674 0.114514835
000270 56 90 8a 3e 97 a3 16 bf fa 3a bc 3e a0 23 ee be
       0.27063245 -0.5884337 0.36763746 -0.46511555
000280 57 06 4a be a6 cd 06 3e e7 f2 87 3e e8 c4 d5 be
       -0.19728981 0.13164386 0.26552507 -0.4175179
000290 58 88 af be 8b 92 0f bf fc e1 65 3e b0 5e 04 bf
       -0.3428371 -0.5608298 0.22449487 -0.5170698
0002a0 cd ac 70 3e 99 13 dd be ab 17 d4 bd f1 fc 89 3e
       0.23503418 -0.43179014 -0.10356077 0.2695079
0002b0 eb 6f be be e5 03 9f 3d dd ea 3c 3e ce 9e f4 be
       -0.37194762 0.07764415 0.18448968 -0.47777408
0002c0 7c 58 dc 3e 3f e7 0f bf e3 53 05 bf 66 e7 1a 3e
       0.43036258 -0.5621223 -0.52081126 0.15127334
0002d0 41 f6 2f be 9b d0 4b be 58 bc a9 3e db 4d 0e 3e
       -0.17183782 -0.19903795 0.33151507 0.13896887
0002e0 18 2a e5 3c 13 96 68 bd 7c c3 0d bf a5 a1 a5 be
       0.027974173 -0.056783747 -0.5537641 -0.32349887
0002f0 c0 79 6d be 6a 64 a1 3e 56 29 da be 46 a9 23 3e
       -0.23190975 0.31521922 -0.42609662 0.15982541
000300 07 cb d4 be fd 78 bc 3e e4 a2 d7 3e 3f 98 b5 be
       -0.41561148 0.36811057 0.42116463 -0.35467717
000310 6a 03 a2 3e a7 d8 ce be 73 44 72 3e 85 66 d6 be
       0.3164323 -0.40399668 0.23658924 -0.4187509
000320 a0 0d d1 be 1c 2e c2 be 4b de 10 3e 52 d3 f0 be
       -0.40830708 -0.37925804 0.14147298 -0.47036225
000330 6b ab 37 3e f5 01 03 bf 39 e2 f5 3d 14 b2 8b 3e
       0.17936485 -0.5117486 0.12006039 0.272843
000340 62 c2 4e 3e 9b b6 8c 3e 00 1a 2e 3e e6 55 30 bf
       0.20191339 0.27483067 0.17002106 -0.6888107
000350 83 77 c4 be 53 c9 ca 3e ab 6e ce be 99 2e 23 be
       -0.3837243 0.39606723 -0.40318808 -0.15935744
000360 dc 7e d3 3d 6c aa 8f be 12 58 1c be 14 2c cc be
       0.10326931 -0.2805971 -0.15267971 -0.3987738
000370 fe 24 39 bf 3b d1 af be 37 49 ba be f2 8d fe be
       -0.7232207 -0.34339318 -0.36383983 -0.4971767
000380 ce 1c 8d 3e cb 22 2a bf 1b fe ac 3e 9f 65 f1 be
       0.2756104 -0.6645934 0.33787617 -0.47147843
000390 ff c8 00 bf 0e 3d 8b 3e a8 2f c6 3d a4 70 ea 3d
       -0.50306696 0.2719502 0.096770585 0.11447266
0003a0 cf 1b 1e bf b1 71 38 3e 07 e6 bd 3e 6c ae 4e 3e
       -0.6176118 0.1801212 0.3708956 0.20183724
0003b0 2d c5 78 3e 74 02 0e bf 9b a1 12 bf 3f dc b1 be
       0.24293967 -0.55472493 -0.5727784 -0.34738347
0003c0 65 cc aa 3e ac 5e 98 be 55 47 44 3e d1 23 a9 3e
       0.33359066 -0.2975973 0.19167836 0.33035138
0003d0 66 2c 7a be 5b 71 da 3e 6b 8e c4 be 14 9a 1b 3e
       -0.24430999 0.42664608 -0.38389906 0.15195495
0003e0 ff 78 63 3e f8 35 a9 3e 35 26 0c bf ff 2f 6c be
       0.22214125 0.33048987 -0.547458 -0.23065184
0003f0 c7 43 62 be bf a3 b9 3d 26 50 46 3e 90 cb 5d 3e
       -0.22096168 0.09064435 0.19366512 0.21659684
