bots/Celentano.chatbot/Celentanoconverted_model.tflite (tflite, 246996 bytes, 4 tensors)

in/MatMul_bias f4 [64]
00000000: f3f6 b13e c1ce 963e d790 9d3e 67de 773e
00000010: ca8a 6a3e bc18 b53e 8873 863e 8ceb 7d3e
00000020: cc93 9a3e 20f2 773e 410a a83e 18b1 893e
00000030: 613a 523e 13e1 913e 15d0 873e 2cca 6f3e
00000040: 224a a83e e790 423e ceb8 993e 3cd8 4b3e
00000050: 703b aa3e c02a 7a3e 6339 573e 42ef ad3e
00000060: 80a9 343e 802f 503e a5a8 263e e435 6c3e
00000070: 4ca5 a33e 39f4 783e 370f a53e 56e0 793e
00000080: fd08 a73e e772 8f3e c522 943e 498c 7f3e
00000090: 46ab 6a3e b8df 703e ec21 963e cc8b ac3e
000000a0: c695 1f3e fd31 273e 3e1e 583e 2fa0 793e
000000b0: 1c5c 8e3e 7418 623e d41b 933e 6260 5c3e
000000c0: d555 853e 5977 943e 9fb2 ae3e 7c3b 7e3e
000000d0: 6eb0 843e b836 713e 1c71 4b3e 37ea a33e
000000e0: 33b6 893e f697 953e a306 743e 6793 843e
000000f0: 0eae 9d3e 28c7 813e 61cb ac3e bfa0 cf3e
0.3475872 0.29454616 0.30774567 0.24205934 0.22904506 0.35370433 0.26260018 0.24796885
0.30190885 0.24213457 0.32820323 0.26892924 0.20530082 0.2849203 0.26525941 0.23416966
0.3286906 0.19000588 0.30023807 0.19906706 0.33248472 0.2443037 0.21017985 0.33971602
0.17642784 0.2033062 0.1627527 0.23067433 0.3196205 0.24311914 0.3223817 0.24401984
0.32624045 0.2801735 0.28932777 0.24955858 0.22916898 0.23522842 0.29322755 0.33700407
0.15584478 0.16327663 0.21105286 0.24377511 0.2780465 0.2207964 0.2873217 0.21521142
0.26042047 0.28997305 0.34120652 0.24827379 0.25915855 0.2355603 0.19867367 0.3201463
0.2689682 0.292175 0.23830657 0.2589371 0.30796856 0.25347257 0.33748916 0.40552327

in/kernel/transpose f4 [64, 912]
00000000: 8e16 ed3d 18b7 453d f0d7 aa3c 920f e5bc
00000010: d15a 7d3d 7438 52be 025a 83be b14f 8dbd
00000020: 3eaa 503e b228 943e b5af 633e 7280 463e
00000030: 3ad4 443d 4366 863d 52a2 783e f4ad 083e
00000040: 2f74 80bd df23 bcbd e3fb ff3d 73a9 8ebd
00000050: 5c5a 253e 797b 523e 7e68 463e 2c2a 5e3e
00000060: cb97 013e fd16 39be a653 4bbe bde0 e3bc
00000070: bfbc 833d 59b8 0fbd 94e3 303e dc71 6b3e
00000080: 82a0 73bd f004 18bd e660 303e 2cfa 203e
00000090: c558 b83d 02fd 323e 38c3 883e e4bd 44be
000000a0: 4f6b 8b3e 9a5a b0bc 2563 253e 97e4 e63d
000000b0: 8ccb 21be be76 fcbd 002d 3f3e b30d fe3d
000000c0: 6cbb 073d 5dbb 633e 34a9 bfbd 6a77 3e3e
000000d0: 9805 953d d1e6 673e 63e6 bd3e 4ce7 023e
000000e0: 5325 e33d ced8 20be 1c3b 14be da71 55be
000000f0: bd14 8dbe 181e 22be 4fd2 023e de44 753e
00000100: f5be 06be 4910 d43d a05e d53d 3dab 003e
00000110: e87e 70bd 81a8 5cbe e667 87bd c420 943e
00000120: ff6c 243e d7f3 54be 984f 1fbe 9dbb 2d3e
00000130: f13b 703d 95b3 f13d 9528 cfbd 7e34 033e
00000140: ffbe 1c3e 3ab3 4e3e 2726 133e 6474 5dbe
00000150: ed7f 5e3e ba5d 6b3e b5ba 15be 43ee 83be
00000160: 38eb f3bd b6a5 ec3d 0339 f1bd af67 833e
00000170: 3626 8d3d 902c e53d e70b 683e 2a8c 933e
00000180: 68f0 51be 983c 633d d10e bebe afb2 2b3d
00000190: 4bd5 f33d 6d43 813e 5bf6 483e 2de1 62bd
000001a0: 0cba 05be e571 f13d 167f 3d3e 40f3 723d
000001b0: ca46 80bc 5bd7 68be aa71 063e 4900 b03c
000001c0: b32a f6bc a7c5 db3d 166f fbbc 7de8 723e
000001d0: 3127 34be f304 93bd 76c2 32be 8897 793e
000001e0: a4b1 ddbc 4c2c 8fbc b431 473e a087 27be
000001f0: 83ac 613e ac78 1b3e 26e4 253e 6798 e0bd
00000200: 4475 5bbe ddab aa3c bf63 88bd 2764 093e
00000210: 00b1 e7bd c2c7 333e 6541 3f3e 5d2b e33d
00000220: d084 7dbd c512 103e bec1 9b3d 6934 00be
00000230: 5c28 a33e e4f7 153e 37a1 a0bd f42d 203e
00000240: 3aa5 39be 5331 c5bd d8d4 2e3e 2234 b0bd
00000250: 9d2c 233e ff9c 533e 9e2c 4cbe dc1b 62be
00000260: bf05 1fbe 4ffe 5bbe 1bbe b2bc c4b5 2abe
00000270: f30f b3bd 7275 883d b0a5 243e 288d e6bd
00000280: 5d7c a13d 9462 1ebe 183a 03bd afa6 0cbe
00000290: b4df 9abe 0c6c 7e3d 20ff 2f3c f19c 063e
000002a0: b287 583e a087 da3e 5ab4 193e b146 4f3d
000002b0: e8eb fe3d a373 be3d bca2 3b3e ac3a ca3d
000002c0: 45f9 15bd c9a7 403e 5c34 7e3e 95bf 303e
000002d0: 9576 88bc ac03 69bb 0821 023e 46cd e0bc
000002e0: 9b6c 433e d45d c4bd b77d d83d 99bf fb3d
000002f0: 70e4 3b3e cd02 7b3e 4630 9dbd e010 08be
00000300: c11d dc3d fb90 263e 2227 c53d 2f6f 64bd
00000310: ce2d edbd f58f 3a3e a410 81bd d3d3 153e
00000320: 949d 29be 9ee3 193e 1653 393e 54c7 f83c
00000330: 8db4 2d3e e511 633d 1c74 0d3e f23c 10be
00000340: 29ff 1ebe dcb7 2c3e 98f9 39be a860 873e
00000350: aaec 0a3e 7e14 343d 7c8f ffbc b104 773e
00000360: 3c88 853e 65ea e53d 4423 493e 6887 0c3e
00000370: d456 353e 3e7b 5f3e 23fc efbd 43c5 13bd
00000380: fdf0 4a3e c818 2e3e c28e b33d 712e c43e
00000390: da93 cf3d 4c62 903e 5ed1 5b3e eae6 763e
000003a0: 16f4 bbbd 45fb b13e dfc9 eabd 9a46 41be
000003b0: ec17 e6bd 9697 6bbe 2942 53be f2a8 2ebd
000003c0: 7ba6 84be accb b13e 6445 2cbd 0050 7cbd
000003d0: 2c64 62be b712 ca3e 8c2c 20bd 1d01 7f3e
000003e0: 0ecb dcbd f71a e63d 03a9 a73c fbe6 91bc
000003f0: 8de7 69be a70c ccbd 5435 9bbd ed6b 953e
0.115765676 0.048270315 0.02085492 -0.027961526 0.061854187 -0.20529348 -0.25654608 -0.068999656
0.20377442 0.28937298 0.22234996 0.19384935 0.048053958 0.065624736 0.2428067 0.13347608
-0.0627216 -0.09186529 0.124992155 -0.069659136 0.1614775 0.20554914 0.19375798 0.21695775
0.1265556 -0.18075176 -0.19856128 -0.027817125 0.06432485 -0.035087917 0.17274314 0.22992653
-0.059479244 -0.037114084 0.17224464 0.15720433 0.090013064 0.17479327 0.2671144 -0.19213063
0.27230307 -0.021527577 0.16151102 0.11274069 -0.15800303 -0.12327336 0.1866951 0.12404957
0.033137724 0.22239442 -0.09358445 0.1860024 0.072764575 0.22646643 0.37089834 0.12783545
0.110911034 -0.15707704 -0.14475673 -0.20844212 -0.27554885 -0.15831792 0.12775539 0.23952052
-0.13158782 0.10354669 0.10418439 0.12565322 -0.058714777 -0.21548654 -0.06611614 0.28931248
0.16057204 -0.20796143 -0.15557706 0.169661 0.058650915 0.11801831 -0.10115162 0.12812993
0.15307234 0.20185557 0.14370023 -0.21626431 0.21728487 0.22984973 -0.14622004 -0.25767717
-0.11910099 0.11555044 -0.11778452 0.25665042 0.06892054 0.1119014 0.2266079 0.28817874
-0.20501864 0.05547771 -0.3712068 0.041918453 0.11905917 0.25246754 0.19625227 -0.055390526
-0.13059253 0.11789302 0.1850551 0.059314013 -0.015658755 -0.22738402 0.13129297 0.021484511
-0.030049657 0.107310586 -0.030692618 0.237215 -0.17593075 -0.07178678 -0.17456993 0.24374211
-0.027062245 -0.017477177 0.19452554 -0.1636033 0.22038464 0.15182751 0.16200313 -0.109665684
-0.21431452 0.020833904 -0.0665965 0.13417111 -0.11313057 0.1755667 0.1867729 0.11092255
-0.061894238 0.1406966 0.07605313 -0.12519993 0.3186673 0.14645344 -0.07843249 0.1564253
-0.18129435 -0.096285485 0.17073381 -0.086036935 0.15934987 0.20665358 -0.19938895 -0.2208094
-0.15529536 -0.2148373 -0.021819165 -0.166709 -0.087432764 0.06663026 0.1607883 -0.11257392
0.078850485 -0.15467292 -0.032037824 -0.1373546 -0.30248797 0.06211476 0.010741979 0.13145806
0.21145514 0.426816 0.15010205 0.050604526 0.12447339 0.092994 0.18323797 0.09874472
-0.036614675 0.18814005 0.24824661 0.17260583 -0.016658107 -0.0035555167 0.12707913 -0.027441632
0.19084398 -0.09588209 0.10570853 0.12292404 0.1834886 0.24512787 -0.07675223 -0.13287687
0.107478626 0.16266243 0.096266046 -0.055770095 -0.11581002 0.18218978 -0.06302002 0.14631586
-0.16564018 0.15028235 0.18098101 0.030368485 0.16963406 0.055436987 0.13813823 -0.14085749
-0.15527023 0.16867012 -0.18161619 0.2644093 0.13566843 0.043964855 -0.031196348 0.24122883
0.260805 0.11226348 0.19642359 0.13723528 0.17708904 0.21824357 -0.11718013 -0.036076795
0.19818492 0.17001641 0.08767463 0.38316682 0.10135622 0.28199995 0.21466586 0.24111524
-0.09177415 0.34762016 -0.11464285 -0.18874589 -0.112350315 -0.23007044 -0.20630707 -0.042641588
-0.25908265 0.34725702 -0.042058364 -0.06159973 -0.22108525 0.39467403 -0.039104983 0.24902768
-0.10780917 0.11235612 0.020466333 -0.017810335 -0.22842236 -0.09963351 -0.07578531 0.29183903

out/MatMul_bias f4 [47]
00000000: 2017 ab3d b131 49bd a2a6 e7bd 3044 6bbd
00000010: 319f a2bd bfa4 80be 8d39 70bd b222 533d
00000020: 5d96 ab3d 810a 01bd 0d20 36bb d9b2 33bd
00000030: a49a ac3d bc6e 533e 2753 a8bd 984d 87bc
00000040: 3b82 3eba dff6 42bd 3ec5 2ebd a969 54bc
00000050: 14f2 5dbb 2104 4f3d bd82 ddbd 68c9 8bba
00000060: d8b9 5b3c 0b5f 09bd 79a1 e93c 5833 b03a
00000070: 49bb 13bd 1758 0d3d 143d 75bd 81e6 ddbd
00000080: a7c0 61bd 3431 f83d 5810 35bd c7d9 90bd
00000090: 33e2 84bc 1509 96bc 236d 0f3e abf2 edbd
000000a0: 2324 80bd d703 fc3c 885c 233e ba15 4c3e
000000b0: 3aaf 86bc cc49 82bd ad5c 2d3d
0.0835402 -0.049119655 -0.113110796 -0.057438076 -0.079405196 -0.2512569 -0.058648635 0.05154676
0.08378289 -0.031504158 -0.00277901 -0.043871734 0.08427933 0.2064771 -0.08218985 -0.016516492
-0.00072673307 -0.047598716 -0.042668574 -0.0129646445 -0.0033866214 0.050541047 -0.10815952 -0.0010664882
0.013411008 -0.033537906 0.028519379 0.0013443036 -0.03606728 0.034507837 -0.0598727 -0.10834981
-0.05511537 0.1211876 -0.04420504 -0.07072788 -0.016221141 -0.018314878 0.14006476 -0.11618551
-0.062568925 0.03076355 0.15953267 0.19930163 -0.016440976 -0.06361732 0.04232471

out/kernel/transpose f4 [47, 64]
00000000: ae2e 853e 1921 92bf 15cd ecbd c73b 4abe
00000010: 14f9 bb3e f78b 7bbf c0cd b93e 6d40 cd3e
00000020: 7487 d63d d0fd e93e e414 f1be f52f 39bf
00000030: 8c45 53bf 0f81 1dbf 479a 56bf 6874 99bf
00000040: 66ef 04bf d397 b93e 2063 c63e 5a56 ca3e
00000050: 3b95 8abf 047f 82be 53d9 76be 1ed4 7dbf
00000060: 5333 aa3e 6a0a 31bf 61f1 52bf 4fc7 69bf
00000070: 8b03 32bf 2053 bf3e 2305 bb3e d43b 933e
00000080: 18a2 b73e 6e12 83bf 1565 2bbf ce5b 85be
00000090: 2c15 6c3e 3ec1 bb3e a2f9 293e e42a d33e
000000a0: 9c6a a83e 4481 a9bf 46b2 20bf d11b 853e
000000b0: 0eb0 433d 9be0 24bf aba4 27bf c9f4 973e
000000c0: e3bd 4dbf e0d7 b23e 5c51 a03e 1db5 6ebf
000000d0: b61f 0ebf 42e8 86bf 662a 853e e06a 14be
000000e0: 7881 8ebf 5bfa 42bf 75de 2cbf 719c 843e
000000f0: 9f30 4ebf cdfa b0be 3b58 833e 94ca 853e
00000100: eba6 0e3e 90b3 b43e 7158 5cbf 5ff3 db3e
00000110: 471e 48bf 8c6e ca3e 60e7 d43e 2dda 42bf
00000120: fd0e 27bf 4c24 993e e2d7 17bf a7a1 3abf
00000130: 5700 59bf d10e ffbe e676 7d3e fc4b 3bbf
00000140: 4885 643e 996b 69bf af2b 753e e33e ab3e
00000150: 3e6d 5d3e 4691 5abf 46cc 87bf 1d75 6cbe
00000160: a961 ce3e b5ff c43e 02b9 bfbe ef70 a53e
00000170: 1f5e 583e 5c36 12be 8168 adbf b994 363e
00000180: 9d14 50bf e306 4fbf b535 20bf ed37 77bf
00000190: 1942 53bf 2f95 cb3e 54b3 18bf 6949 903e
000001a0: 8b60 2c3e 6ed6 803e d771 9d3e 94ee c43d
000001b0: d491 6e3e 68cb 7c3e ef6f acbf c8f8 7d3e
000001c0: 74d4 4d3e e56a 513e bb7a 0dbf b7a2 6d3e
000001d0: 87d7 29bf 3a29 833e 30d5 84bf 95bc 91bf
000001e0: 20e2 d03d 0c8d b9be 2728 a53e a4fc 95bf
000001f0: abc9 76bf 3763 983e 64ff 9cbf 3d2b 22bf
00000200: 42b9 8abf b14b bbbf fe4b 793e 00c7 d93d
00000210: cec8 9fbe 5742 be3e 6bf2 87bf 1d38 a23e
00000220: 0799 b2be b00d 20be 66bc 93bf f118 91bf
00000230: 1171 16bf 0d43 58bf c09f ff3d d177 7dbf
00000240: 852c e5bd 32b8 153e 547f 1b3e fb2a dc3d
00000250: 2321 8dbf 813a 53bf 3f4e b93e 352c 823e
00000260: e302 9b3e b08a 3ebe 2613 783e eef0 a3bf
00000270: 2c18 4abf 5d50 b53e 8083 7c3e 3759 9f3e
00000280: f745 59bf 2159 a9bf 24f1 5fbf 9313 d43e
00000290: 5826 dc3d f6f9 773e 2d04 96bf 4a33 d03e
000002a0: e354 303e 7a5b d43d e689 c43d dca6 b53d
000002b0: 8be2 123e fa08 8b3e 9751 903e 57ab a53e
000002c0: e563 94bf 8353 84bf c2d4 713e fb98 573a
000002d0: 0cc6 083e cc6f 62be 5884 973d 4f1e cf3e
000002e0: 78af 8ebf e15e 9f3e 204e 903e f0db 9b3e
000002f0: 6e79 7a3e 406e 8c3e bf5a 7bbf 21c8 85bf
00000300: 7528 ffbe 47d6 123e 581e a4bf b9e2 06bf
00000310: 17a7 e5be 0b97 3bbf eb59 8a3e 418a 933e
00000320: ffe4 f63d d3ab 70bf 9e16 c13e 6d34 aa3e
00000330: df0d 203e 70c6 e6be e69c 4abf 6f83 8ebf
00000340: 44e8 923e 6c2d a2be 7bb6 ae3e 3b10 af3e
00000350: 8f81 dcbe 1217 eebe 0db9 73bf 14cd 903e
00000360: cc54 c93e 44e7 a03e 0d6d 7e3e 6d5d 43bf
00000370: 903e 9d3e 87f5 c23e 628c 903e 18b4 25bf
00000380: cebc 86bf 4682 a03c da70 46bf 9d5b b43e
00000390: ffe4 62bf 401a 8c3e 0f5d 17bf e1c5 40bf
000003a0: 6edd febe 00ac e03e d997 46bf 3811 32bf
000003b0: 981e 7b3e 442d b73e 2afc f2be 82aa e0be
000003c0: bf86 03bf 3139 c63d 4c4e c13e c6fb 913e
000003d0: bd02 ca3e 6d3f 91be 1387 8ebf bde4 dc3e
000003e0: 5aca 63be 5c67 873c 3225 debe 7258 a93e
000003f0: 6984 983e 54dc 3dbf 7382 81bf 4f1f 343c
0.26012176 -1.1416351 -0.11562554 -0.19749366 0.3671347 -0.98260444 0.36289787 0.40088215
0.104750544 0.45701456 -0.4708625 -0.723388 -0.82527995 -0.6152505 -0.8382916 -1.1988649
-0.51927793 0.36248645 0.387475 0.39519006 -1.0826792 -0.2548753 -0.2410634 -0.9915179
0.33242282 -0.69156516 -0.82399565 -0.91319746 -0.69536656 0.37368107 0.36527357 0.28756583
0.35865855 -1.0239999 -0.66951114 -0.26046604 0.23054951 0.3667087 0.16599134 0.4124366
0.32893836 -1.3242574 -0.62772024 0.25997785 0.04777532 -0.6440522 -0.6548564 0.29678944
-0.8036787 0.34930325 0.31312072 -0.93245107 -0.5551714 -1.053963 0.2600891 -0.14493895
-1.1133261 -0.7616326 -0.6752694 0.25900605 -0.8054294 -0.34566346 0.25653252 0.26131117
0.13930862 0.35293245 -0.8607245 0.42959115 -0.781712 0.39537466 0.41582775 -0.7611416
-0.65257245 0.29910505 -0.59313786 -0.7290291 -0.84766144 -0.49815992 0.24752387 -0.7316282
0.22316468 -0.91179806 0.23942445 0.33446416 0.21623704 -0.8537792 -1.0609214 -0.2309155
0.40308884 0.3847634 -0.37445837 0.32312724 0.21129654 -0.14278549 -1.3547517 0.1783017
-0.81281453 -0.80869883 -0.6258195 -0.9656971 -0.8252273 0.39762256 -0.59648633 0.28181008
0.16833703 0.25163597 0.30750915 0.09615818 0.23297817 0.24686968 -1.347166 0.24801934
0.20100576 0.20450933 -0.55265397 0.23206602 -0.66344494 0.2561739 -1.037756 -1.1385676
0.1019938 -0.36240423 0.32257196 -1.1717725 -0.9640147 0.29763195 -1.2265439 -0.63347226
-1.0837786 -1.4632474 0.24345395 0.10633659 -0.3120789 0.37159988 -1.0620855 0.31683436
-0.34882376 -0.15630221 -1.154187 -1.1335737 -0.58766276 -0.8447731 0.12481642 -0.9901095
-0.11190132 0.14621046 0.1518529 0.107503854 -1.1025738 -0.82511145 0.3619251 0.25424352
0.3027564 -0.18607593 0.24226055 -1.2807901 -0.78943133 0.35412875 0.24659538 0.31122753
-0.8487238 -1.3230325 -0.87477326 0.41421184 0.10749501 0.24216446 -1.1720024 0.4066413
0.17219882 0.1036901 0.095966145 0.088697165 0.14344232 0.27155286 0.28187248 0.32357284
-1.1592985 -1.0337986 0.23616317 0.0008224395 0.13356799 -0.2211296 0.073982894 0.4045281
-1.1147299 0.31127074 0.28184605 0.30441236 0.24460384 0.27427864 -0.9818534 -1.04517
-0.49835554 0.14339553 -1.282176 -0.526897 -0.44854042 -0.7327735 0.27021727 0.28816417
0.12055396 -0.9401218 0.37712568 0.33243123 0.15630291 -0.4507327 -0.7914566 -1.113386
0.2869283 -0.3167528 0.34123597 0.3419207 -0.43067595 -0.46501976 -0.9520424 0.28281462
0.39322507 0.31426442 0.24846287 -0.7631443 0.30711794 0.38077947 0.28232104 -0.64727926
-1.0526369 0.01959337 -0.7751595 0.35226145 -0.8863067 0.27363777 -0.5912637 -0.7530194
-0.49778312 0.43881226 -0.7757545 -0.69557524 0.2452339 0.35776722 -0.4745801 -0.43880087
-0.5137748 0.09678877 0.37755048 0.285124 0.39455214 -0.28368703 -1.1134971 0.43143263
-0.2224516 0.016528778 -0.43387753 0.3307529 0.2978852 -0.7416432 -1.0117935 0.010993793
