bots/Einstein.chatbot/converted_model.tflite (tflite, 604964 bytes, 4 tensors)

in/MatMul_bias f4 [128]
000000 46 b4 77 3e f8 22 73 3e 77 4d 59 3e c4 d7 74 3e
       0.24189863 0.23743808 0.21220957 0.23910433
000010 f8 6d 66 3e 6d 91 63 3e 33 db 65 3e 66 46 5a 3e
       0.22502887 0.22223444 0.22446899 0.21315917
000020 72 7e 5b 3e 1f 6b 6f 3e a8 47 74 3e a0 2b 83 3e
       0.21434954 0.23380707 0.2385546 0.2561922
000030 07 9d 62 3e 69 9f 5f 3e 8a 1d 83 3e 28 3c 71 3e
       0.22130214 0.21838154 0.25608474 0.23558104
000040 ff b0 71 3e a2 2e 80 3e 24 8f 53 3e f4 46 49 3e
       0.23602675 0.25035578 0.20660073 0.19655973
000050 63 4a 70 3e e4 65 67 3e 4a 41 6c 3e 92 75 5c 3e
       0.23465876 0.22597462 0.23071781 0.21529225
000060 c7 bc 65 3e 6f 6d 6f 3e a6 3d 71 3e c4 c6 5f 3e
       0.22435294 0.2338159 0.23558673 0.21853167
000070 2f b6 5d 3e bf 3c 4e 3e 62 d8 85 3e b1 4e 84 3e
       0.21651529 0.2014036 0.2614165 0.25841287
000080 16 0d 85 3e 94 22 4b 3e 0c da 8e 3e 7f 19 5b 3e
       0.25986546 0.1983741 0.27900732 0.21396445
000090 87 de 68 3e 18 7b 4d 3e e4 e8 52 3e b5 99 5e 3e
       0.22741137 0.20066488 0.20596653 0.21738322
0000a0 27 6c 81 3e bd d1 72 3e 34 e3 73 3e 4c 6b 3c 3e
       0.25277826 0.23712821 0.2381714 0.18400306
0000b0 d5 23 34 3e e1 e7 6d 3e 78 0e 7c 3e b8 2a 8a 3e
       0.17591794 0.23232986 0.24614894 0.26985717
0000c0 68 c5 89 3e e3 cf 52 3e 97 84 5a 3e f9 3a 43 3e
       0.26908422 0.20587115 0.21339642 0.19065465
0000d0 be be 77 3e 45 cc 40 3e 24 b2 46 3e 11 a7 7e 3e
       0.24193856 0.18827923 0.19403893 0.24868418
0000e0 0c 4a 4a 3e 1c 65 64 3e e4 da 62 3e 9a 35 85 3e
       0.19754809 0.22304195 0.22153813 0.26017457
0000f0 5e 29 63 3e 2c 17 45 3e 77 da 67 3e c8 21 6f 3e
       0.22183749 0.1924712 0.22641931 0.2335273
000100 41 31 65 3e 54 e9 7a 3e e2 ba 74 3e d9 3b 40 3e
       0.2238207 0.2450307 0.23899415 0.1877283
000110 8a 74 88 3e ef 9a 82 3e f6 13 65 3e dd 89 49 3e
       0.26651412 0.2550883 0.22370896 0.19681497
000120 64 0b 8b 3e 81 eb 65 3e 86 15 1e 3e 69 3b 8b 3e
       0.27157128 0.22453119 0.15437898 0.27193764
000130 c0 3b 35 3e b8 3b 75 3e 52 2d 80 3e 0e 64 83 3e
       0.17698574 0.23948562 0.25034577 0.25662273
000140 55 61 77 3e f6 bf 24 3e 00 8f 69 3e 9d 96 65 3e
       0.24158223 0.16088852 0.22808456 0.22420736
000150 b6 28 83 3e cd bc 58 3e f2 2f 80 3e fe 70 7a 3e
       0.25616997 0.21165772 0.2503658 0.24457166
000160 dc 65 7f 3e e3 9f 6e 3e 87 cb 6e 3e f3 2c 85 3e
       0.249412 0.2330318 0.23319827 0.26010856
000170 a5 5a 74 3e 23 28 86 3e 71 26 58 3e 4d 11 72 3e
       0.23862703 0.26202497 0.21108414 0.23639412
000180 bc 41 88 3e 36 d6 48 3e e8 46 67 3e 16 f3 83 3e
       0.2661265 0.19612965 0.22585642 0.25771397
000190 e9 b5 5a 3e 84 01 57 3e 27 94 77 3e d5 f5 8e 3e
       0.21358456 0.20996672 0.2417761 0.2792193
0001a0 31 0f 58 3e f2 b3 33 3e de 31 3a 3e 37 56 54 3e
       0.21099545 0.17549112 0.18183085 0.20736013
0001b0 46 11 94 3e 3a 14 7f 3e 11 ad 42 3e d5 27 68 3e
       0.2891943 0.2491006 0.19011332 0.22671445
0001c0 26 a0 7f 3e 21 d7 75 3e 61 dc 46 3e aa bb 66 3e
       0.24963436 0.24007846 0.19420005 0.22532526
0001d0 f4 94 7f 3e ec cb 82 3e 92 43 6f 3e c8 38 6a 3e
       0.24959165 0.25546205 0.2336562 0.22873223
0001e0 cf 04 88 3e d6 ba 2f 3e 35 1d 3f 3e 2f 6c 4c 3e
       0.2656617 0.17161116 0.18663485 0.19963144
0001f0 32 2c 56 3e 3b 3b 63 3e 3f 38 78 3e ef 80 6a 3e
       0.20915297 0.22190563 0.24240206 0.22900747

in/kernel/transpose f4 [128, 1111]
000000 e8 e8 89 bd 50 30 ac bd d3 6b f5 bd 5b 38 23 be
       -0.067338765 -0.084076524 -0.119834565 -0.15939467
000010 99 77 b2 3d 35 ce ae bb d7 bf f1 bd ca 84 78 bd
       0.08714218 -0.0053346404 -0.11804169 -0.060673513
000020 4b 6f c9 bd 2c ca 69 bd bd 09 42 bd f3 b1 1d bc
       -0.098356806 -0.05707757 -0.04737257 -0.009624946
000030 a3 a3 18 3e b1 f9 15 3e 36 50 54 3d 94 64 5c bd
       0.14906172 0.14646031 0.051834308 -0.053806856
000040 a2 f7 1b be b7 05 b5 3d 12 51 ab 3d bd b2 9e bd
       -0.15231183 0.08838981 0.08365072 -0.07748935
000050 5a c1 a0 bc 8e c9 93 b9 5d 15 8b bd cb 36 e4 3d
       -0.019623447 -0.00028188195 -0.06791184 0.111432634
000060 1f 80 01 be 1d 08 ba bd bd f6 73 3d 7e 30 8b 3d
       -0.1264653 -0.09083579 0.05956148 0.067963585
000070 a2 cc 04 be 43 72 e9 bd d7 15 07 3e 2e bf 0d be
       -0.12968686 -0.11398747 0.13191925 -0.1384246
000080 1e 6b 14 be b8 93 86 3d 53 06 89 bd 44 78 24 be
       -0.14493987 0.06571144 -0.066906594 -0.16061503
000090 34 9e 21 be 42 70 58 3e 52 7c a1 3d 69 8a 54 3e
       -0.15783006 0.21136573 0.0788504 0.20755924
0000a0 51 f7 10 be 40 15 2a bd 6e e6 84 3d 79 a0 d5 bd
       -0.14156844 -0.04152417 0.064892635 -0.10430998
0000b0 56 30 66 3d 7d d2 e2 3d f2 16 a2 3d 14 08 cb 3d
       0.05619844 0.11075304 0.07914533 0.0991365
0000c0 3a 3a 3b be 49 9b 1f be 4e d5 0e be 68 8d 33 be
       -0.1828393 -0.1558658 -0.13948557 -0.17534411
0000d0 48 b2 b0 bc 63 60 12 be 68 a5 f8 bd 65 3f 88 3e
       -0.021569386 -0.14294581 -0.12140924 0.26610866
0000e0 95 eb 26 3e 64 62 98 bc a5 55 51 bc 17 a5 0b be
       0.16300805 -0.018601604 -0.012776767 -0.13637196
0000f0 1c 8d 17 3e a8 9c 8a 3c 6d 8c 79 bd 96 9f 15 3e
       0.14799923 0.016920403 -0.060924936 0.14611658
000100 b9 56 19 be bf 9f fe bd 95 94 27 3e 2c a2 84 bd
       -0.14974488 -0.12432813 0.16365273 -0.06476244
000110 50 03 17 3e d3 f8 90 bd 3d db 3e 3e 44 a6 aa 3b
       0.14747357 -0.070787095 0.1863832 0.0052078087
000120 d3 e7 5a 3e 1b e0 4e 3e 9e d5 c8 bd 25 56 1b 3e
       0.21377496 0.20202677 -0.09806369 0.1516958
000130 2c b1 2b 3e b8 a2 7c 3e 60 36 70 3e 00 1f 15 3e
       0.16766804 0.24671447 0.23458242 0.14562607
000140 69 5c 04 3e 64 61 b2 bd 5c d0 0f bd 1f 73 17 be
       0.12925877 -0.08709982 -0.035110816 -0.14790009
000150 8b 0c ee bd 04 cd 04 be e9 f1 27 3e ba bd 78 be
       -0.11623486 -0.12968832 0.16400875 -0.24291125
000160 0a ab e1 3d 72 93 e0 bd 05 fc a4 bd fb b8 7a bd
       0.11018951 -0.10965623 -0.080558814 -0.061211567
000170 25 07 18 3c a6 ec 05 3e ee bd 84 3e 87 84 5c 3e
       0.009279047 0.13078555 0.25926155 0.2153493
000180 17 65 e7 3d 25 90 52 3e b1 88 8d bc 71 33 5b 3e
       0.11298578 0.205628 -0.017277094 0.21406342
000190 96 27 9a bd 2f 6f a0 bd 97 a7 08 be c5 d9 f7 3d
       -0.07527082 -0.078337066 -0.1334518 0.12102083
0001a0 b7 2f cb bd 22 a0 1a bd e6 4d c1 bd ee 88 9d bd
       -0.0992121 -0.03775037 -0.09438686 -0.07692133
0001b0 6d c5 b3 bd e1 de 7b bd c4 1e bb bd c8 b3 9f bd
       -0.0877789 -0.06149185 -0.091367275 -0.077979624
0001c0 ae 08 2d be e6 15 24 be cb 44 cb bd e4 fd 73 3c
       -0.16897842 -0.16023979 -0.099252306 0.014892075
0001d0 19 01 36 bd 17 c0 80 be fc cd 04 be 54 b3 15 be
       -0.04443464 -0.25146553 -0.12969202 -0.1461919
0001e0 df c7 1c be 94 29 9a bd 11 4b e1 bd d7 f2 36 3e
       -0.1531062 -0.07527462 -0.11000646 0.17866074
0001f0 31 52 db 3d f3 8c a7 3d 3e 28 fe 3d 06 3e 44 3e
       0.10709036 0.08181181 0.12410019 0.19164285
000200 94 cc cc 3b ae 35 96 bc 0a 9a 7e bd dd 11 1f 3d
       0.0062499736 -0.018336143 -0.06215862 0.038835395
000210 0d bf 1a 3e f9 5e 0c be bf 3f d9 3d 46 16 b0 3d
       0.15111943 -0.13708104 0.10607862 0.08597998
000220 76 61 99 bd d2 65 71 be fa fe 02 3e 50 ef 36 bd
       -0.07489292 -0.23573998 0.12792578 -0.04466182
000230 cf 18 45 bd 21 e0 a5 bd b5 47 41 3e 92 b5 7b bd
       -0.048119362 -0.0809939 0.1887501 -0.061452456
000240 54 77 24 3e 9a 08 6e 3e ed 9b 41 3d 2d 8c a4 3d
       0.16061145 0.23245469 0.047267843 0.08034549
000250 71 6a 2c be fc 05 f2 bd ea a3 9f 3d 2f b5 b6 3d
       -0.16837479 -0.11817548 0.07794936 0.08921277
000260 3c 39 05 3e 83 46 66 3e 5e 2b 31 bd 54 99 91 3d
       0.13010114 0.22487836 -0.04325425 0.07109323
000270 a4 96 99 3d c6 4e 42 bd d6 6e a9 bd af 53 78 be
       0.074994355 -0.047438405 -0.082730934 -0.24250673
000280 ef 6d a2 3d 0d 19 22 3e ef 73 3a 3e 8c 78 1d be
       0.079311244 0.15829869 0.18208288 -0.15378016
000290 d5 0f dc bd d2 1d 2e 3e fc 35 32 bd 86 97 4a be
       -0.10745207 0.17003563 -0.043508515 -0.19784364
0002a0 2e ef bb bd 2f 20 11 be 62 e2 36 3e 84 58 60 3d
       -0.09176479 -0.14172433 0.17859796 0.054771915
0002b0 89 34 1a 3e 8e c0 94 bd 5d 12 1a be 91 0e 8d be
       0.15059103 -0.072632894 -0.15046068 -0.27550176
0002c0 bd 3d 61 3e 7c b4 65 3d 20 9c cc bd 5a f1 ec bd
       0.21996208 0.056080326 -0.09990716 -0.11569472
0002d0 28 10 2b be 6e 04 ca bd a7 e9 9f bc 90 a1 a8 3d
       -0.16705382 -0.09864126 -0.019520594 0.082339406
0002e0 44 01 b9 3d 77 8d 35 be 0f 4b 1b bc 56 c8 2b 3e
       0.090334445 -0.17729746 -0.009478345 0.16775641
0002f0 db 06 c1 bd 4c a8 d2 bc e3 3a e3 bd a4 bd f7 3d
       -0.09425136 -0.025715016 -0.11095216 0.12096718
000300 3d 24 41 be f5 7e 29 3e 4f f6 d2 bd 22 44 24 3e
       -0.1886148 0.16552337 -0.10300886 0.16041616
000310 75 ae e0 bd 3b c6 b6 3d ba f5 61 3e 1b e2 63 3d
       -0.10970775 0.08924528 0.22066393 0.055635553
000320 fb 47 88 bd d1 9d 53 3e ae 63 08 be 07 d2 1f bd
       -0.06654354 0.20665671 -0.13319275 -0.039018657
000330 c9 1f 38 bd aa 3a 05 be 80 9e a4 bc 8c e8 80 be
       -0.044952188 -0.1301066 -0.02009511 -0.2517742
000340 a9 aa 2c bd af 87 02 3e 4b cd 2b 3e 62 fd 3f be
       -0.04215494 0.12747072 0.16777532 -0.18749002
000350 1f a3 78 be 69 71 09 be d2 46 19 be e5 a2 bc bd
       -0.24280976 -0.13422169 -0.14968422 -0.09210757
000360 0c 8e 8b be f1 2f 4d be a8 e0 dd 3d 0b 44 c6 3d
       -0.2725681 -0.2003782 0.108338654 0.09680947
000370 e3 d9 59 3e c8 29 31 be 56 22 bc bd ce e8 1c 3e
       0.21274523 -0.17301095 -0.091862366 0.15323183
000380 ae 5a e8 bd e0 5d b6 bc aa 4f d7 bd 8e cd cd bd
       -0.11345421 -0.02226156 -0.105132416 -0.10048972
000390 60 27 24 3e 0e cd de 3d 1c 12 ec bd f2 5d 3b be
       0.16030645 0.10878955 -0.115268916 -0.18297556
0003a0 0e 4e d1 3d e5 88 25 be 91 0a 09 be 29 87 03 3d
       0.10219966 -0.16165502 -0.13382937 0.03211132
0003b0 ac d6 f0 bd aa af 16 be e8 38 0d be f8 0f 8e bd
       -0.117596954 -0.14715448 -0.1379124 -0.069366395
0003c0 ab f7 2f be 8a 2a cf bd 74 24 df bd ae ff d6 bd
       -0.17184322 -0.101155356 -0.10895625 -0.10497986
0003d0 2e fe 17 3e 83 34 1f be f3 e9 a6 bd f1 ae b6 bd
       0.14843056 -0.15547375 -0.08150091 -0.08920086
0003e0 f8 d9 18 be 73 27 bb 3d 64 d6 0e 3c 2b da 8f bd
       -0.14926898 0.09138384 0.008718107 -0.07024034
0003f0 9c 25 57 3e ce 19 07 bc 73 6a 8a 3c 09 36 cb 3d
       0.2101044 -0.008245898 0.016896462 0.09922416

out/MatMul_bias f4 [67]
000000 4d 72 01 3b 14 0c 0b bb 2a b6 86 bc ef 06 05 3c
       0.0019751966 -0.0021216916 -0.016444284 0.008119329
000010 c5 0f 07 3c 9f 26 11 3d 3f e0 59 3d c7 59 5d 3c
       0.008243506 0.035437223 0.053192373 0.013510174
000020 dc c9 4c be b7 fc 32 bd d1 79 80 bc 1d 5b 80 3d
       -0.19998878 -0.04369804 -0.015683087 0.062673785
000030 a6 4f cd 3c 32 cf fb bc db 05 95 3c 75 7b e3 bb
       0.025062393 -0.030738447 0.018191269 -0.0069422075
000040 0a 8a 77 bd 27 ea 28 bd 8b 2b fd bb 8d 0c 43 bd
       -0.06043438 -0.04123893 -0.007726138 -0.04761939
000050 ab 33 a1 3c ec e9 c0 3c 3a 51 35 3d 8e 1b 33 3c
       0.019677958 0.023549043 0.044266917 0.0109318625
000060 da cc b8 3c bc 68 d5 3c 33 2b 08 bd bf 71 df 3d
       0.022558618 0.026050918 -0.033244323 0.10910367
000070 9c 17 06 bc 25 01 94 3d 7a 46 c9 3c fd 85 b5 bb
       -0.00818434 0.07226781 0.024569739 -0.0055396543
000080 0f 28 00 3d 2e 66 17 bd 27 43 a2 bd 5c 46 57 3c
       0.031288203 -0.03696268 -0.079229645 0.013139334
000090 20 7c f5 bb b0 4c ee bc 06 ec a5 3c dc 9b 96 bd
       -0.0074916035 -0.029089302 0.020254146 -0.073539466
0000a0 56 96 3d 3d 48 c9 a4 bc 94 e3 39 3d 3a b5 9d bb
       0.04628595 -0.02011551 0.04538305 -0.0048128637
0000b0 b6 7c 10 3d ea 05 90 bc 92 1e 0d bc 4e fe 50 be
       0.035275184 -0.017580945 -0.008613246 -0.2040951
0000c0 d5 68 32 bd c1 80 93 bd 74 45 5f bd f3 c3 51 bd
       -0.043557007 -0.07202292 -0.054509595 -0.051212262
0000d0 8a 3e 5c bd 34 3a e0 bc 85 cc c0 3d a4 74 0d bd
       -0.05377058 -0.027371503 0.09414009 -0.034535065
0000e0 d2 77 b7 bc 4d fc 09 bd fb c3 34 3a f9 65 86 bd
       -0.022396002 -0.03368788 0.00068956584 -0.065624185
0000f0 41 11 73 3d a6 e6 2f 3d dc 30 35 bc ea 44 45 3c
       0.059342626 0.042944573 -0.011059012 0.012040356
000100 04 ff 95 3b e3 e5 4e be 1e d3 0c 3d
       0.0045775194 -0.20204882 0.034381025

out/kernel/transpose f4 [67, 128]
000000 9c 26 df be d2 bb 97 be e9 35 42 bf 8d 3e 95 3d
       -0.43584144 -0.29635483 -0.7586351 0.07287321
000010 77 b5 99 3e 9e 68 2b 3e 41 89 21 3e b2 d3 3d 3e
       0.3002126 0.16739127 0.15775014 0.18537787
000020 d6 a3 1c 3b f6 1c 6a 3e d5 c7 cd be 8a ce f0 be
       0.0023901365 0.2286261 -0.40191522 -0.47032577
000030 ce e9 ea be af 3b 1b 3e 3e 93 14 bf e2 19 13 bf
       -0.45881504 0.15159486 -0.58037174 -0.5746137
000040 d2 31 4c 3e 28 e7 1b bf f4 32 59 3e da 45 33 bf
       0.1994088 -0.6089959 0.21210843 -0.7002846
000050 4b f9 36 3e a5 54 d6 be ad c8 b9 3d e0 06 6a be
       0.17868535 -0.41861454 0.09071479 -0.22854185
000060 fc b2 98 3e 60 69 91 3e c4 ac 34 bf 90 f9 37 3e
       0.29824054 0.28400707 -0.7057612 0.17966294
000070 f5 98 57 3e 82 33 e6 3c 61 c9 df be 7e d9 20 bf
       0.21054442 0.028100733 -0.43708327 -0.62831867
000080 7f 3f b2 be 97 1d 48 bf 5e a2 ce be 1c 68 4c 3e
       -0.3481407 -0.7817015 -0.4035825 0.1996159
000090 f7 c5 82 be c1 62 56 bf fb 28 ad 3d 67 7e 10 bf
       -0.2554166 -0.83744437 0.08455082 -0.56442875
0000a0 7e fd 06 3e 98 72 ae be b4 d4 b0 3e 98 48 4a 3e
       0.13182637 -0.34071803 0.3453728 0.19754255
0000b0 98 5f a2 3d 3f 77 6d 3e 23 54 2c bf 9e 7c 34 bf
       0.07928389 0.2319002 -0.6731588 -0.7050265
0000c0 7c 34 d9 be f8 55 f5 be 1d 09 2a 3e c0 6c d1 be
       -0.42422855 -0.4791715 0.16605039 -0.40903282
0000d0 b5 42 ac 3e 75 58 ea 3d c6 f1 85 be 11 b4 0b bf
       0.33644643 0.11442653 -0.2616102 -0.54571635
0000e0 50 b2 25 bf fa b2 44 bf 54 c3 7b 3e 42 cd 56 3e
       -0.6472521 -0.76835597 0.2458623 0.20976737
0000f0 8d 77 2f 3e d9 07 c0 be 17 a4 68 3e 19 f9 23 bf
       0.17135449 -0.37505987 0.22718845 -0.6405197
000100 b0 dc 0b 3e 6a 3f 3f be a2 3d 44 be ff 33 50 bf
       0.13658404 -0.18676534 -0.19164136 -0.8132934
000110 a8 4d 6a 3e 2d 0e 33 bf e9 2c ba 3d bb e9 e6 be
       0.22881186 -0.69943506 0.09090597 -0.45100197
000120 81 73 f8 be 97 cc 41 3e b5 99 b2 be fa cb 0c 3e
       -0.48525622 0.18925701 -0.34882894 0.13749686
000130 a2 a7 1c 3e 2a 45 7b 3e e5 80 17 3e b3 08 81 3e
       0.15298322 0.24538103 0.14795263 0.2520195
000140 ff 2e 41 bf d0 7a 01 bf 3e 4d 36 3e 9d 08 1b bf
       -0.75462335 -0.5057802 0.17802903 -0.6056002
000150 ea 39 a0 3e e6 9f 20 bf 39 15 15 3e 73 4e 81 3e
       0.31294185 -0.62743986 0.14558877 0.25255165
000160 1c 5d 03 bf 6a d9 0b 3e 84 fb 73 3e 30 d3 93 3d
       -0.5131395 0.13657156 0.23826414 0.07218015
000170 be f2 e1 3d b2 2c 3a bf 6c a1 c8 be 1e e7 ed be
       0.110326275 -0.7272445 -0.39185655 -0.4646539
000180 bc dc d4 3d 6b 7a 42 3e e1 38 5f be f5 85 a0 3e
       0.10393664 0.18992011 -0.21799041 0.313522
000190 e3 df 14 bf 2d 57 8a 3e 7d 3b 8a 3e e2 ac cc 3d
       -0.58154124 0.27019635 0.2699851 0.09993912
0001a0 06 88 f6 be 52 c1 45 3e d5 ee 29 3e 75 74 6d 3e
       -0.48150653 0.19312027 0.16595013 0.23188956
0001b0 e8 d7 d9 3c 20 49 ff 3d 1c 23 13 bf 6e ca 42 bf
       0.02659221 0.12465119 -0.5747545 -0.76090133
0001c0 da e4 21 bf a2 f5 86 bf 27 91 32 3e ef 7c dc 3d
       -0.63239825 -1.0543711 0.17438184 0.10766017
0001d0 75 b9 4f 3e ae 09 13 bf 5b 3f a8 3d 0e a3 b2 be
       0.2028559 -0.57436645 0.08215209 -0.34890026
0001e0 17 3c 5b 3d 78 e1 00 3e e7 3d c6 be 5a 9e ca 3d
       0.053524103 0.1258601 -0.38719103 0.098934844
0001f0 fc 37 fb be cf ce 21 bf 48 c3 64 3e d3 52 95 3e
       -0.4906615 -0.6320619 0.22340119 0.29164752
000200 cb df 8d 3e 68 a2 81 3e db e6 97 be e4 24 66 bf
       0.27709803 0.2531922 -0.29668316 -0.8990004
000210 95 71 79 3e 43 bf 9d 3e 82 e8 ab be 2e 70 5e 3e
       0.24359734 0.30809984 -0.33575827 0.2172248
000220 90 09 7b be 1d b3 b6 3d d0 c2 92 3e 66 2b c4 be
       -0.24515367 0.08920882 0.28664255 -0.3831436
000230 4c 41 d2 be f3 d3 4a 3d 6d 93 62 3e da c1 fd be
       -0.41065443 0.049518537 0.22126551 -0.4956196
000240 a5 f9 9b be 1f 03 dc be 2b 5c cb bd c8 70 99 be
       -0.304639 -0.4297113 -0.09929689 -0.29968858
000250 77 97 cc be 76 d7 0f 3e ac 37 d7 be a3 46 39 3e
       -0.39959309 0.14047036 -0.42034662 0.18093352
000260 23 ec d7 3d bc 15 f7 bd 85 8a 68 3e 49 da 5b 3e
       0.105430864 -0.120646924 0.22709091 0.21469988
000270 80 48 9b 3e 89 52 8a 3d 9d 84 5c bf 32 5b 90 3e
       0.3032875 0.067540236 -0.8613985 0.28194577
000280 1d 8f c5 3d 05 d4 3c 3e e4 e4 d7 be db 15 7e bf
       0.09646437 0.18440254 -0.42166817 -0.992521
000290 a8 c8 98 be de 8b dd be 39 c5 1d 3e 73 51 05 bf
       -0.2984059 -0.43270773 0.15407266 -0.52077407
0002a0 50 c8 59 3e 06 fb 94 be ce 8d db be 81 0d 0a bf
       0.2126782 -0.29097766 -0.42881626 -0.53926855
0002b0 ef 71 39 be 8d f0 ca be 2f 22 42 bf 7c 6b 3f bf
       -0.18109868 -0.3963665 -0.7583341 -0.74773383
0002c0 18 5e 07 3e 58 90 87 be ba 1b 86 3d c7 f1 19 3e
       0.13219488 -0.26477313 0.06548257 0.15033637
0002d0 96 d9 1f be 3c 69 65 3e 16 d7 4e bf d0 00 ee be
       -0.15610346 0.22403425 -0.80796945 -0.46484995
0002e0 0c f0 16 bf 17 5c 8c 3e 76 26 65 bf 41 44 52 3e
       -0.5896003 0.2741401 -0.8951181 0.2053385
0002f0 59 82 fe be 0c 0c aa 3e 10 6b 5b 3e 6a a1 95 3e
       -0.49708822 0.33212316 0.2142756 0.29224712
000300 21 05 f4 3d de 38 0f bf f6 f6 4a 3e 73 d1 03 bf
       0.11915041 -0.5594615 0.1982077 -0.5149147
000310 57 8b bc 3c 2a 2e 9e 3e 33 9d bf be 63 2c 4f 3e
       0.023015661 0.30894595 -0.3742462 0.20231776
000320 d4 16 a0 be 38 72 55 bf 3f f5 dd bc 14 88 7a 3e
       -0.31267416 -0.8337741 -0.027094482 0.24465972
000330 31 07 a2 3e 12 d5 57 3e 71 32 05 bf 53 78 a6 3d
       0.31646112 0.21077374 -0.5203009 0.08128419
000340 cd a6 a8 3e e8 f2 47 3e 8f 33 cb be 31 ad 3f 3e
       0.3293976 0.19526255 -0.39687774 0.18718411
000350 4d 28 97 3e 00 26 6c 3e 5a 76 43 3e 9d 3a 2a bf
       0.29522935 0.23061371 0.19088116 -0.66495687
000360 0f 36 36 bf 2e 16 25 3e 87 c8 61 3e ce 49 0e bf
       -0.71176237 0.16121742 0.22049151 -0.55581367
000370 b8 3a 37 3e a6 93 56 be 5f 86 f4 be 8a 02 21 bf
       0.17893493 -0.20954761 -0.47758767 -0.628945
000380 4e 2e 3b 3e 29 9e 08 bf 85 56 f0 bd b7 0a 93 be
       0.18279383 -0.53366333 -0.11735252 -0.28719112
000390 7c bf 04 3e 13 1e b4 be b0 39 f5 be 6a 0b 00 bf
       0.1296367 -0.35179195 -0.47895575 -0.50017416
0003a0 5b a6 61 3e cb 22 91 3e eb 39 d7 be b5 d9 09 3e
       0.22036116 0.28346857 -0.42036375 0.13461955
0003b0 11 58 68 bf cb ed 58 be 45 bd 03 bf bd 20 2d bf
       -0.9075938 -0.21184461 -0.5146068 -0.6762808
0003c0 33 38 81 3e 65 ed 80 3e fc cf 8c be 9e 6a 1e 3e
       0.2523819 0.25181118 -0.2750243 0.15470359
0003d0 8d f2 6b be 17 c4 38 3e 6c 29 8e bf 9a 18 88 3d
       -0.23041745 0.18043552 -1.1106391 0.066453174
0003e0 39 43 af 3c 95 a8 9e 3d 99 9e 93 3e 9f 9d 01 3e
       0.021394359 0.07746998 0.28831938 0.12657784
0003f0 55 7e a5 be e1 7c 54 3e 28 a5 43 bf 5c fe 5f bf
       -0.32322946 0.20750763 -0.76423883 -0.87497497
