bots/Einstein.chatbot/Einsteinconverted_model.tflite (tflite, 291364 bytes, 4 tensors)

in/MatMul_bias f4 [64]
00000000: 0754 913e 5936 963e 9304 9a3e 4303 ae3e
00000010: a95f 8c3e 79e7 983e c7b0 9a3e ca0d a23e
00000020: 5db3 bc3e 342a 5a3e 5812 993e 7302 933e
00000030: b2d5 913e c760 893e a061 7b3e 5fad 933e
00000040: a933 913e 4cb0 8c3e e518 9f3e 1cba 813e
00000050: 06aa 8f3e 3728 8c3e 71d8 933e f962 a23e
00000060: b50e 9a3e 7806 a33e 5281 9c3e 775d 743e
00000070: da9f 9c3e 6218 9d3e b8ff 853e 5718 8e3e
00000080: 757e 823e 2fe1 723e 0e0b a93e c138 a13e
00000090: 499b 963e 4025 913e 73b1 953e 4d39 903e
000000a0: e8f0 9a3e 5711 8c3e 4b06 953e 22dc 883e
000000b0: e6bd 9b3e 3930 a43e 3b19 853e 9a31 8c3e
000000c0: c818 9b3e ce04 8d3e 901d 8f3e 7eaa a23e
000000d0: 9400 923e 3e35 8c3e 63c3 923e fc91 743e
000000e0: a5c7 953e e8da 763e 9d88 983e dbd2 833e
000000f0: 43fd 8c3e 0f81 8a3e a642 9c3e 6952 863e
0.2838442 0.2933834 0.30081615 0.33986863 0.27416733 0.298641 0.30212995 0.31651145
0.36855593 0.21305162 0.29896808 0.28712806 0.2848335 0.26831648 0.2454896 0.2884321
0.28359726 0.27478254 0.3107368 0.25337303 0.28059405 0.27374431 0.2887607 0.31716135
0.30089346 0.31840873 0.30567414 0.23863779 0.30590707 0.30682665 0.2617166 0.27752945
0.25487104 0.23718713 0.33016247 0.31488612 0.29415348 0.28348732 0.29236946 0.28168717
0.30261922 0.2735698 0.29106364 0.26730448 0.3041832 0.3206804 0.25995812 0.27381593
0.30292344 0.27542728 0.27952242 0.317707 0.28516066 0.2738437 0.28664693 0.23883814
0.2925388 0.24106944 0.29791728 0.25746807 0.27536973 0.2705159 0.305196 0.2623475

in/kernel/transpose f4 [64, 1065]
00000000: 134d b4bd cf47 cfbd 33c8 3c3e c7e9 52be
00000010: a5de 35be 6f35 083e ebc7 4d3e 3434 11be
00000020: e16e 58bd c9e5 c1bd 51ac 81bd bcd5 23be
00000030: 1726 4dbe 2b15 373e 4c7f 0bbe 5b11 91bd
00000040: 39e0 943e 7415 283e e707 7c3e df72 603e
00000050: efda 573e 57ec 2f3e a575 e83d 4780 eabd
00000060: ae60 c4bd ff91 16bd 3153 37be 6c36 31be
00000070: 6080 4e3d 0cc0 a53e bbb6 423d 3367 213e
00000080: 4a6a 643e 29c4 09b9 40af 4b3d 7cf4 9f3e
00000090: c743 6f3e d596 49be a670 943d 4255 323e
000000a0: baba a93d 992f 023e 0592 20be 5783 d93d
000000b0: bd68 36be 6074 413e aba1 023e dc33 e33c
000000c0: 19d5 21be f125 42be 8443 1bbe 874d b3be
000000d0: 3939 f93d 4561 a83e dcd3 343e 671d 823e
000000e0: d8db 78bc 9797 39be 2e46 e5bc 3af0 433e
000000f0: 9753 79bd 6c2e 36bd 6df6 f6bd f25f 95bd
00000100: 69f2 413e 6bfb 803e 18b2 a33c 4e4c 0abe
00000110: 258a 873d 3dc8 0d3e bf19 e13d 1008 8ebd
00000120: b210 04be dbb1 01be 5c41 a0be 1727 cdbd
00000130: b0b1 923c 73b6 a6be e267 a1be 54fc 34bd
00000140: ef69 3cbe d8f4 3e3e b41b f2bd 31ab 65be
00000150: 675a d33e c11f 4c3e 5c5b d1bd d56a 8a3e
00000160: 4a2d e8bd 7de7 7a3e ca04 3dbe 2f2f c03d
00000170: 7fb1 a2bd 1225 0bbe 46d4 d33c 08e9 593e
00000180: 31aa c23d 6801 53be b5ff ccbc cdb1 75be
00000190: 1c55 5c3e 7d4f 5cbd b840 ffbc 140a acbd
000001a0: d779 50be c262 a1bd 822f 6dbd 7aa3 4b3e
000001b0: 57c7 583c a561 9abe 1f4f debd 8875 a6bd
000001c0: 5e1c 3ebe e55a 423e f028 5c3e 5454 983b
000001d0: 1adf 073e be82 7c3e e770 02be d010 4e3e
000001e0: b1f1 5a3e 81b4 4a3e 5702 5cbe f4ce d9bd
000001f0: 668b a13d c709 5e3e 6af5 be3d 4b4d 4b3e
00000200: 4947 993b 9dde 903e bd9e 9fbd 8ec0 41bd
00000210: e8cb 213e e4d1 82be 9a7d 50bd c65a 583e
00000220: 9713 da3d da25 74bc a5ec cd3d 5360 9cbd
00000230: c47c 403e 5e93 ffbd b39b 20bd 8719 f03d
00000240: 7c39 32bd 372f 853e 38f9 11bd 0600 993e
00000250: 1074 2e3e 0335 90bd b341 203c 87d1 5d3e
00000260: 6e9d dd3d 242d 1dbe 27c7 da3d 8426 d53d
00000270: 477e 933e 1940 6b3e 8b5f 9dbe d96b a33e
00000280: 46c3 473d 1f1f ec3d ea2b e2bd 5556 313e
00000290: 3dd8 64bd 8d28 13be a0fa f1bd bc89 f53d
000002a0: 033b 1b3e 6333 90be 5f1c 1cbe 6d6a c33d
000002b0: 596e 283e 5387 3a3e 88a2 083e cc37 623e
000002c0: c4eb 473e 7ec2 813e 1851 043e 45db 503e
000002d0: 446a 5e3d 3019 47bd 9351 e33d e14c 413d
000002e0: 8d78 3a3e 7797 9f3d b9ca 393e 5c9a e3bc
000002f0: 6348 323e 849c 75bd d800 453e e11f 1bbe
00000300: 6f37 1fbc ba7c 04be a130 903c 32a2 04bd
00000310: a66b a1bd 56a4 edbd 9f68 4bbe e204 e9bd
00000320: 791f 97be 7c8f 2f3e c176 6e3e b022 5abe
00000330: d3cc 17be fb62 b03e 6c93 9b3e fa32 b73d
00000340: 09fe bd3d ac5e 243e 9aa3 cf3e 382e 5e3e
00000350: 6338 073c 0643 5f3e d812 99bd 3100 d6bd
00000360: adad edbc 86a8 823e 910e 1f3e 3400 01be
00000370: 8fc3 8ebd 3d33 1ebe e87e 633e bc03 4b3e
00000380: 3e6d 0f3e a684 eabd 19fd fd3d 8215 b73e
00000390: 2481 553e c0a8 8e3d e534 5d3e ca5c 90bc
000003a0: 34d3 5b3e 72b8 a43d efa9 5ebe 1f46 d63d
000003b0: 920d 203e dee9 18bc 88ad 86be 6268 65be
000003c0: 8b5f 043e fec0 32be 1a72 293e bac5 36be
000003d0: 2d41 1d3d 38dd 233e ec0c f5bd dd5a 19be
000003e0: 73fd 423e f0b7 ddbd 87ab e4bd 2aea 52bd
000003f0: 9ab9 2ebe ff37 10be bdbb 9fbc 26c1 6c3e
-0.08803763 -0.10121118 0.18435745 -0.20596991 -0.17760713 0.13301633 0.20095794 -0.1418007
-0.052840117 -0.09467656 -0.06331695 -0.15999502 -0.20034061 0.17879169 -0.13622779 -0.070833884
0.29077318 0.16414434 0.2461239 0.2191882 0.2107961 0.1718 0.11350564 -0.11450248
-0.09588753 -0.036760326 -0.17902829 -0.17305917 0.050415397 0.32373083 0.047537547 0.15762024
0.22306171 -0.00013138413 0.04972768 0.31241214 0.23365699 -0.19686444 0.072480485 0.17415336
0.082875684 0.1271347 -0.15680702 0.10620754 -0.17813392 0.1889205 0.12756984 0.02773469
-0.15803947 -0.18959786 -0.15162474 -0.35020086 0.121691175 0.3288671 0.17658943 0.25413057
-0.015189134 -0.18124233 -0.027987566 0.19134608 -0.060870733 -0.044477865 -0.12058721 -0.07293691
0.18940128 0.25191817 0.019982383 -0.1350567 0.06618146 0.13845916 0.10991239 -0.069351315
-0.12896994 -0.12665503 -0.31299865 -0.100172214 0.017906994 -0.32561073 -0.3152457 -0.04418595
-0.18399785 0.18648088 -0.1182169 -0.22428586 0.4127991 0.19933988 -0.102225035 0.2703463
-0.11336763 0.24502368 -0.18458858 0.093839996 -0.07944011 -0.1358836 0.025858056 0.212803
0.09505118 -0.20606005 -0.025024274 -0.23993607 0.21516842 -0.053786743 -0.03115879 -0.0840036
-0.20358978 -0.07880165 -0.057906635 0.1988658 0.01323112 -0.30152622 -0.10854935 -0.08127886
-0.18565509 0.18979986 0.21499991 0.0046487246 0.132687 0.24659249 -0.12738381 0.20123601
0.2138126 0.1979542 -0.21485268 -0.10635176 0.07887916 0.21683417 0.09324153 0.19853704
0.0046776873 0.2829484 -0.07793949 -0.047302775 0.1580044 -0.2555076 -0.050901033 0.21128377
0.10648268 -0.014901603 0.10054902 -0.0763556 0.18797594 -0.1247928 -0.039210986 0.11723619
-0.043511853 0.26012585 -0.035638064 0.2988283 0.17036462 -0.07041361 0.009781289 0.2166196
0.10821043 -0.15349251 0.106825165 0.10407737 0.2880728 0.2297367 -0.30736956 0.3191822
0.04877021 0.115293734 -0.11043532 0.1731809 -0.055870283 -0.14370938 -0.11815381 0.11989161
0.1515923 -0.28164205 -0.15245198 0.095417835 0.16448344 0.18215685 0.13343251 0.22091597
0.19523531 0.25343698 0.1292156 0.20396145 0.05430056 -0.048608005 0.110995434 0.047192458
0.18210049 0.077925615 0.18143739 -0.027783565 0.17410426 -0.059963718 0.19238603 -0.1514888
-0.009717806 -0.12938204 0.017601313 -0.032381244 -0.078818604 -0.1160361 -0.19864129 -0.113778844
-0.295162 0.17144579 0.23287489 -0.21302295 -0.14824228 0.34450516 0.3038591 0.0894527
0.09276969 0.1605174 0.40554506 0.21697319 0.00825319 0.21802911 -0.07474297 -0.10449255
-0.02901348 0.25519198 0.155329 -0.12597734 -0.069708936 -0.15449233 0.2221638 0.19825643
0.14006516 -0.11451082 0.1240179 0.35758597 0.20850044 0.0696578 0.21602209 -0.01762237
0.21467286 0.08042993 -0.21744512 0.10462593 0.15630177 -0.009333102 -0.2630427 -0.224031
0.12927072 -0.17456433 0.16547433 -0.17848864 0.038392235 0.16002357 -0.11965355 -0.14976068
0.19041996 -0.10826099 -0.11165529 -0.051492848 -0.17062989 -0.14083861 -0.0194987 0.23120555

out/MatMul_bias f4 [67]
00000000: 6961 093d bb4a 6abc e87b c8bd e475 aabc
00000010: e7eb e5bc f400 c13d ccdb 523e 6376 04be
00000020: 6bcd 8cbe e20f c7bb 847b 85bc d937 023e
00000030: c329 8f3b 3ef5 fdbb ac36 df3a babd b43d
00000040: cbeb eabd 42c1 973c df75 ae3c 3924 91bd
00000050: d7fe ca3c 1f6a 273c ef7c b83d a28b 97bd
00000060: 79db 5d3c 8677 593d 571e 9fbd 3ab6 f63d
00000070: b75e d5bc e4c7 143e b371 923d c50e 6e3d
00000080: 49f6 69bd be0d 5cbd 1422 23bc 776f 843d
00000090: c9a8 babd 3b07 afbd 2b2d d13c c3b5 89bd
000000a0: c572 fe3c 9021 44bd c685 cfbb b1d7 29bd
000000b0: cc3e 633c a6b6 bf3d 8c6e bcbd 2720 90be
000000c0: f571 273d 9a57 d7bd 1fa9 81bd 4ec0 bcbd
000000d0: d4c6 8b3b b41d 5ebc 8878 cf3d dac7 cfbb
000000e0: 2894 07bd 2ccf 7cbd 582d 833d 8e6a 813c
000000f0: 3b6c 40bd 0769 01bd aa99 0abe f683 983b
00000100: 662b 393c 6b34 96be 85bf 233e
0.033540163 -0.014300044 -0.09789258 -0.020808168 -0.028066589 0.0942401 0.20591658 -0.12935786
-0.2750047 -0.0060748914 -0.016294248 0.12716617 0.004368992 -0.0077501824 0.0017029843 0.0882525
-0.11470755 0.01852477 0.02129644 -0.07086987 0.02477972 0.010218172 0.09008204 -0.0739968
0.013541096 0.053092502 -0.07769459 0.12046476 -0.02604614 0.14529377 0.07150593 0.058119554
-0.05711964 -0.053724043 -0.009956855 0.06466573 -0.091142245 -0.08546301 0.025534233 -0.067241214
0.031060586 -0.04788357 -0.0063330857 -0.041465465 0.013869952 0.09361009 -0.09200773 -0.2814953
0.040880162 -0.105147555 -0.063310854 -0.09216367 0.0042656455 -0.013556886 0.101304114 -0.006340963
-0.033100277 -0.061721012 0.06405133 0.01579788 -0.046978217 -0.031594303 -0.1353518 0.004654403
0.011301851 -0.29336867 0.15991028

out/kernel/transpose f4 [67, 64]
00000000: 7854 77bf bb2d 943e a3e5 703e b168 33bf
00000010: 62b2 7a3e d9bc 74bf 49f6 a13e f11d 64bf
00000020: 858d 8d3e 3e07 68bf f0cf 96bf cfd4 41be
00000030: 7766 9b3e b48f 71bf 6244 9d3d 3ff1 c0be
00000040: 2652 eebe 7a28 76bf fbcd 923e 1397 01bf
00000050: 0984 c13d bdcb e0be 7ab3 4d3e 09cd 32bf
00000060: 12e3 72bf cdb7 21bf 198d b03d 0a70 efbe
00000070: 28e5 0a3e 33a6 4cbf 9d4e e0be f14f 9e3e
00000080: 35c8 40bf a88e b1be 79c8 a13e 35ee 1dbf
00000090: 3977 ba3e 235f 9f3e 8371 7e3e 3d85 27bf
000000a0: b9c7 bc3e afeb 9f3d 713f c03e d73f 843e
000000b0: 8474 b03e 6cea 413d 7938 833e 1861 893e
000000c0: 7942 9fbf 3ac4 903e 84bf 4cbf 3bb8 883e
000000d0: 3112 a63e d3ce fbbe 0e9a dbbe 1dc1 4ebf
000000e0: 4cc9 753e 969d 37bf aa10 54bf 8f04 b8bf
000000f0: b2ce 47bf 8b96 b83e 777a cb3e 0abb 753e
00000100: 1cad 8dbf 997c 28be 86cf bd3e 5e75 9e3e
00000110: cb47 1cbe 4ebe 6a3e 6ef2 d73d d754 923e
00000120: 9571 2bbf 2d6b 07bf dd47 eebe 47fb ac3e
00000130: a4cf 603c c9f9 163e 4601 5b3e cdf9 05ba
00000140: 6f3a b43e 191f 943e f99d 9a3e 30fc bdbe
00000150: 61d5 253e 41a2 40bf 01b0 60bf 9e8f 80bf
00000160: feb3 60bf c998 c3bf 00ed a2bf df71 bbbe
00000170: 9f11 6fbf 7d4f 953e ff7d 623e 7c6c 9b3e
00000180: 86d0 003e 9705 963e 05fd 87bf 3f5b 453e
00000190: 56c9 493e 1827 6a3e 9557 b8bf 0643 70bf
000001a0: 53c6 8e3e fd5b 8abf 910e 8c3e 427a b8be
000001b0: a505 923e 02fb 893e dcd5 90be 8756 9a3e
000001c0: 43d5 b23c c76e e93d 2487 37bf ea52 3a3e
000001d0: d304 34bf 2274 62bf c798 6abe 3c50 46bf
000001e0: 8913 abbe 6f9d 19bf 6223 68bf ba27 813e
000001f0: 448f 503e 839a a93e e83a 59bf 70e0 5b3e
00000200: 1e5f 2abf ef14 8a3e 697d 2bbf 8fc5 c7bf
00000210: 9430 883e e97c 8f3e 7429 13bf 7055 93bf
00000220: a8d5 b93d 37f7 f2be b715 6b3e 7336 863b
00000230: 3514 36bf 1471 c9be 00a8 e8be dbfa 8cbf
00000240: 8da1 0abf 7f01 db3e 9464 ed3d 2a07 833e
00000250: c222 4cbf 0017 16bf 5439 7b3e eda7 00bf
00000260: 5c1d a43e 4914 47bf a0f8 d93e 5230 39bf
00000270: a22d 723e 5410 f9be ddc2 8a3e 0b1e b5bf
00000280: b479 99be a81c 7d3e ab1b 99bf 02eb 93bf
00000290: 9eed 56bf 58a8 63bf c234 d5be 055d 733e
000002a0: b97d 503e 1c9e 71be 32aa 3ebe 6c2a 553e
000002b0: fb0a 4d3e 877f b1bf 7b92 9b3e 0559 b1bf
000002c0: eec6 89bf 4a53 023e e8f0 5ebf 97e6 d03e
000002d0: 4b10 393e 023f 983e 0a1e c4be d8cb d63e
000002e0: 5763 18bf c974 a5be e562 f63d 1131 953e
000002f0: b09f 8f3e c917 aa3e 0cb4 a43e 3544 44bf
00000300: 692b c8be 5950 98bf e551 5bbf 4a75 a0bb
00000310: 3a84 953e 34a2 a5bf 7021 303e b64d 89bf
00000320: 32ff 623e 7b36 2fbf 5a6a cfbe 11f9 8a3e
00000330: 9287 b9be 7251 823e e2aa 7cbf c054 a7bf
00000340: aac5 d43e ec81 80bf 0b71 1d3e 1cb8 9b3e
00000350: b2da 74bf 79f3 7a3e 2d12 61bf aff4 303e
00000360: 86d0 37bf 89b8 54bf 80ad 14be 6806 17bf
00000370: b540 ab3e 867b 733e 6f06 b7be b587 59bf
00000380: 59f4 963e 6874 aa3c 8f05 8d3e 0ae3 91bf
00000390: a103 673e 590a 9ebf 76c4 0bbf 1d0b d1be
000003a0: 7d70 8c3e 0ebb 6c3e 4c13 90be 6463 4cbf
000003b0: 94df 4b3e c85a 7a3e ceaf 8d3e 6b76 c63e
000003c0: a76c ad3e 679b a2bf 7f7a 0fbf 5e13 93bf
000003d0: ae35 483e 9a8c 83bf 27f5 53bf 6a8c d03e
000003e0: a4f5 993e 2332 7a3e 56ae a5bf e45f 33bf
000003f0: 2af0 7b3e 6399 b03e cd20 75bf c5ae 63be
-0.96613264 0.2894114 0.235251 -0.7008162 0.2448211 -0.9560066 0.31633213 -0.89108187
0.27647033 -0.9063605 -1.1782207 -0.18928836 0.30351612 -0.943599 0.076790586 -0.37684056
-0.4654705 -0.9615551 0.28672776 -0.50621146 0.09449012 -0.4390544 0.20087996 -0.6984411
-0.9487773 -0.6317108 0.08620662 -0.46765167 0.13563979 -0.799411 -0.43809977 0.30920365
-0.7530549 -0.3467915 0.3159826 -0.616916 0.36419085 0.3112727 0.24847989 -0.6543768
0.36871126 0.07808625 0.37548402 0.25829956 0.34463894 0.047342703 0.25629023 0.2683189
-1.2442161 0.2827471 -0.7997973 0.26703057 0.32435754 -0.49181232 -0.42890972 -0.8076342
0.2400257 -0.7172483 -0.8283793 -1.4376391 -0.78049767 0.36052355 0.3974187 0.23997131
-1.1068454 -0.1645378 0.3707239 0.3094892 -0.15261762 0.22924158 0.10544287 0.28580353
-0.6697019 -0.5289791 -0.46539202 0.3378546 0.01372138 0.14743723 0.21387205 -0.00051107706
0.3520083 0.28929976 0.3019865 -0.37106466 0.16194679 -0.7524758 -0.8776856 -1.0043828
-0.87774646 -1.5281001 -1.2728577 -0.36610314 -0.9338626 0.29162207 0.22118376 0.30356205
0.12579545 0.2930114 -1.062409 0.19273089 0.1970571 0.22866476 -1.4401728 -0.9385227
0.27885684 -1.0809323 0.27354863 -0.36030775 0.2851993 0.26949316 -0.28288162 0.3014414
0.021830207 0.11398082 -0.71690583 0.18195692 -0.7031986 -0.88458455 -0.22909842 -0.7746618
-0.33413342 -0.6000585 -0.9067899 0.2522562 0.20367151 0.33125696 -0.8485551 0.21472335
-0.6655139 0.26969096 -0.66988236 -1.5607165 0.26599562 0.28024986 -0.5748513 -1.1510448
0.09073955 -0.47454235 0.22957502 0.0040958463 -0.71124583 -0.39344084 -0.45440674 -1.1014055
-0.54152757 0.4277458 0.115914494 0.25591403 -0.79740536 -0.58628845 0.24533588 -0.50256234
0.3205365 -0.7776533 0.42572498 -0.72339356 0.2365022 -0.4864527 0.27101794 -1.4149793
-0.29975665 0.24717963 -1.1961569 -1.1556094 -0.83956325 -0.8892875 -0.41641814 0.23765953
0.2036046 -0.2359547 -0.18619612 0.20816964 0.2002372 -1.3867043 0.30385193 -1.3855292
-1.0763834 0.12727085 -0.87086344 0.40800926 0.18072622 0.2973557 -0.38304168 0.41952395
-0.5952658 -0.32315663 0.120305814 0.29138997 0.2805152 0.33221272 0.32168615 -0.76666576
-0.3909562 -1.189952 -0.85671836 -0.0048967944 0.29202443 -1.2940125 0.17200255 -1.072684
0.22167662 -0.68442506 -0.40510827 0.27143148 -0.36236244 0.25452763 -0.98698246 -1.3072739
0.41557056 -1.0039649 0.15375154 0.30413902 -0.956462 0.2450694 -0.8791836 0.1728084
-0.71802557 -0.8309408 -0.1451931 -0.5899415 0.33447805 0.23777589 -0.35747096 -0.849727
0.29483297 0.02080746 0.27543303 -1.1397412 0.22559978 -1.2346908 -0.5459665 -0.4082879
0.27429572 0.2311823 -0.28139722 -0.7983916 0.19909507 0.24448693 0.2767319 0.3876222
0.33871958 -1.2703675 -0.5604629 -1.1490285 0.19551727 -1.0277283 -0.8279595 0.40732127
0.3007022 0.24433188 -1.2943828 -0.7006819 0.24603334 0.34492025 -0.95753175 -0.22234638
