bots/Corleone.chatbot/Corleoneconverted_model.tflite (tflite, 215740 bytes, 4 tensors)

in/MatMul_bias f4 [64]
00000000: 3a5b 743e 78fa ac3e 3596 933e 1cd2 873e
00000010: 5e9d 653e 10d5 983e 548d 8b3e 7095 673e
00000020: c924 a43e 6c98 7a3e a7d9 703e 57cd 753e
00000030: 61eb 983e 0fcd 893e a250 503e 65b2 a03e
00000040: cd20 723e cb45 a13e 4510 763e 20af 3a3e
00000050: f8a2 8e3e 5f98 743e 767b 843e 2706 af3e
00000060: a022 6f3e 5ab8 8f3e 6073 883e 4441 3b3e
00000070: 5226 983e 6fdd 293e 6671 553e 457e a83e
00000080: cc8c 793e cdbb 6f3e 282e aa3e 42f2 883e
00000090: 3433 623e 526f 843e f7ca 733e 22a7 843e
000000a0: 62eb 973e 4876 7a3e 0c26 493e 0f6a 843e
000000b0: b977 a13e c6e6 3d3e 869f 873e 59ca 753e
000000c0: d0b2 813e fb15 673e 23d5 843e 6c47 5e3e
000000d0: b19e 7d3e 734d 8a3e 465a 843e 878e 613e
000000e0: c592 7f3e e10a a13e 6bec 3d3e 691b 8c3e
000000f0: 9f75 993e 15c2 713e 5f21 983e fe25 883e
0.23862925 0.33784842 0.28825536 0.26527488 0.22423312 0.29850054 0.27256262 0.226156
0.32059315 0.24472207 0.23520528 0.24004112 0.2986708 0.2691426 0.20343259 0.31386104
0.23645325 0.3149856 0.24029644 0.18230867 0.2785871 0.2388625 0.25875443 0.3418438
0.23353052 0.28070337 0.26650524 0.18286616 0.29716736 0.16588376 0.2084404 0.32908836
0.24370116 0.23411484 0.3323834 0.26747328 0.22089845 0.2586618 0.23807894 0.25908762
0.2967177 0.24459183 0.1964342 0.25862166 0.31536654 0.18545064 0.26488894 0.24002971
0.25331736 0.22566979 0.2594386 0.21706933 0.24767567 0.27012214 0.25850123 0.22027026
0.24958332 0.31453612 0.18547218 0.27364662 0.2997255 0.23609193 0.2971296 0.26591486

in/kernel/transpose f4 [64, 796]
00000000: 78ea 2a3d aa71 bdbd 09da bdbd a206 73be
00000010: c5c3 01be c4e3 9f3d 4763 833d 6fea babd
00000020: 073e a2bd 55eb 013e d713 85bd 762b ca3c
00000030: 4e89 c63c b51a 4cbe 334b 753e e3e9 c9bd
00000040: bf61 98bd 42ae 84bd d3ee 183e 42da d0bd
00000050: fcf2 43be b6a7 8abe b917 64be 1bef 0e3e
00000060: 9729 2dbe de49 54be 23ec 01be 2231 f9bd
00000070: 8b73 6c3e 0ffb 7ebd ff4e e6bd fc68 1b3e
00000080: 31f2 873e cdc9 193e 40ea 42be cf5f e23d
00000090: b568 733e e546 42bd aeb0 54bd 833c 683e
000000a0: 1cbb 803d 8641 cfbd 5334 7a3d 50db cbbd
000000b0: 1eb6 0d3c 8b77 833d aadb 86bd eae6 39bd
000000c0: e5c2 39be 700f 79bd 7532 f7bd c502 b83d
000000d0: a8d7 2cbe 0cf9 2f3e 9c32 bbbd 3a26 edbd
000000e0: ed56 a3bd 729a bcbc a069 f33d 5dc4 4ebe
000000f0: fa01 5e3e ca60 1a3e 958b 233e 97cd 113e
00000100: 542f 1b3e a6f0 d0bd e029 413e 13df 15be
00000110: e1ca b23d bcc3 0ebe adcf 0abd 0b77 373a
00000120: 9421 90bd a772 173e 46b1 a73d 51a4 4abd
00000130: 1334 803e 722c 6ebb 6fb3 203e 3378 84be
00000140: 3f6a ec3b 0a96 7f3e 1478 873e 3bae 483e
00000150: 09c9 b73d 1247 b5bd 214c 38bd 1625 cbbd
00000160: 14a3 0cbe 6a61 3bbd 5454 83bd 12b4 a2bd
00000170: 98fb 4b3e 186d 05be ff68 113d 6609 5a3d
00000180: d8db 04be f522 16be 05be 8bbd f49a 7bbd
00000190: c13c 5cbe fc8c aabd 846d 22be fb4d 2e3e
000001a0: aee2 0fbe 440b 363e ba83 ed3c 0017 e3bd
000001b0: abb6 4cbe 68d2 493e 22e8 a0bd 7fa6 6c3e
000001c0: 08fe 853d 502e 96bd 0721 49bd d683 313e
000001d0: 4887 f33d 11cf 5b3e 4918 f93d 3780 77bb
000001e0: b39b 1e3d 7faf 01bd cd83 0fb9 cdc5 c4bd
000001f0: 8465 17bd 5ee1 bd3d 3931 82be 0516 303e
00000200: 22fc 243e 05cc 443e 0d98 b0be 7d3e 89be
00000210: 17fa 4c3e 8ec9 b3bd 0748 6dbe 85ff 483e
00000220: b01d f5bc 91c6 2dbe 7a5e 093d db94 05be
00000230: 7505 433e cd05 9fbd 7590 2c3e 4cb5 453e
00000240: 35aa 9f3e 4d9e 493e 1fa5 f63d 21d9 5cbe
00000250: 2a03 423e 12d6 ab3d 8d83 023e edb6 153e
00000260: aa82 f23d 9a0e 053e d670 923e f474 1f3e
00000270: 6aa4 02be 4bc8 c03d 4b08 26be e31a 403d
00000280: 073c 41bd 5ae2 59bd c0cd e0bd 7e85 773e
00000290: c505 693c 9374 113e 49bc 26bd 8ec5 b93d
000002a0: d68b 4fbe c80a e03d f21f 94bd d524 323e
000002b0: 6aec 3a3e e9ce 823e 0a47 40be bdd0 953d
000002c0: b279 c83d beac 853e b061 c43d 3584 303e
000002d0: 422b c03d 082e 093e c5dc 8d3d 3100 7b3e
000002e0: aebc 843e 9121 433e 02d6 9ebb 39da 77be
000002f0: 095c 3cbe fa71 3c3e 31ba 853e 12d1 19bd
00000300: 6949 773e 9cf1 943e 4ad0 2abd 723f 2abe
00000310: cc79 3a3e 48d4 09be 9157 a8bd 4270 46be
00000320: aa9b f8bd a880 883e 856a 343e 3627 6439
00000330: aa24 7bbd 1ed0 c0bd 79f6 ac3d 5844 803e
00000340: 427d 4cbe 1045 87bc 50a4 0c3e 4a0c 353e
00000350: d011 3c3e 713f 07be c0d3 1cbe 49df 073e
00000360: 8133 b7bd 7bde da3d b20a 0d3e 8e6e 92bd
00000370: 83ab 343e a47d 073d be77 abbd 9e90 74be
00000380: 470f 9fbd e040 af3c dd1b e7bd 06f5 e0bd
00000390: 8677 7abd 09eb 2cbe 7efe 7cbe 1d47 84bd
000003a0: 98e4 77bd 9d93 82be 6f7b ac3a 8f49 78be
000003b0: dc0d 2dbe f20e c13d 62ba 4c3e 15d8 35be
000003c0: ad7c 163e c6e9 7abe a0d4 cbbc e45e c03c
000003d0: cf06 6f3e f262 94bd 99cc 203e 6ae4 fbbc
000003e0: 9724 be3c fd01 953c 4199 3abe 1744 80bd
000003f0: 1fa5 6abd 7997 8d3d 49cd 5e3e 241f ab3b
0.041727513 -0.09250195 -0.092701025 -0.23732999 -0.12672336 0.07807115 0.0641542 -0.09126746
-0.07921987 0.12687428 -0.06497925 0.024678927 0.024235394 -0.19932063 0.23954467 -0.098590635
-0.074405186 -0.064785495 0.14934854 -0.101978794 -0.1913566 -0.27081078 -0.22274674 0.13958399
-0.16910397 -0.20731303 -0.12687735 -0.121675745 0.23090951 -0.062251147 -0.11245536 0.15176767
0.26551965 0.15018387 -0.19034672 0.1105343 0.23770411 -0.04743089 -0.051926307 0.22679333
0.06285688 -0.101199195 0.061085057 -0.0995394 0.008649377 0.064192854 -0.06584866 -0.045386232
-0.18140753 -0.060805738 -0.12070171 0.08984903 -0.16879141 0.17184848 -0.09140512 -0.11579557
-0.07975564 -0.023022864 0.11885381 -0.20192094 0.21680441 0.15075985 0.15971215 0.14238583
0.15154773 -0.1020215 0.1886363 -0.14635877 0.08730102 -0.13941854 -0.03388946 0.0006998635
-0.070376545 0.1478983 0.08188109 -0.04947311 0.2503973 -0.003634241 0.15693448 -0.25872955
0.007214814 0.24959579 0.264588 0.19597714 0.08973891 -0.08851446 -0.044994477 -0.09919183
-0.13734084 -0.0457472 -0.06412569 -0.07944502 0.19920194 -0.13029897 0.035500523 0.05323162
-0.12974489 -0.14661773 -0.06823353 -0.06142707 -0.21507551 -0.08327672 -0.1586209 0.17021935
-0.14051315 0.17777735 0.028993476 -0.11088371 -0.19991557 0.1970917 -0.07856776 0.23110388
0.06542593 -0.07333052 -0.049103763 0.17335448 0.11891037 0.21465708 0.12162835 -0.003776563
0.038722705 -0.031661507 -0.00013686642 -0.0960804 -0.036962047 0.09271501 -0.2542818 0.171959
0.16111806 0.19218452 -0.34491006 -0.26805487 0.20017277 -0.08778678 -0.23172008 0.19628723
-0.029921383 -0.16970278 0.033537365 -0.13045065 0.1904505 -0.07764778 0.16851981 0.1930744
0.31184545 0.19689293 0.12043213 -0.21567203 0.1894652 0.0839044 0.12745495 0.14620562
0.118413284 0.12993851 0.28601712 0.15571958 -0.12758031 0.09413203 -0.16214101 0.04690064
-0.047176387 -0.05319438 -0.10976744 0.24172017 0.014222567 0.14204626 -0.040706906 0.09070884
-0.20268187 0.10939556 -0.072326556 0.17396863 0.18254247 0.25548485 -0.18777099 0.07315204
0.097888365 0.26108354 0.09588945 0.17237933 0.09383251 0.13396466 0.06926874 0.24511792
0.259252 0.19055773 -0.004847289 -0.24204339 -0.18394484 0.18402854 0.26118615 -0.0375529
0.24149098 0.29090583 -0.041702546 -0.16625765 0.18210524 -0.13459885 -0.08219827 -0.1937876
-0.121390656 0.26660657 0.17618759 0.00021758382 -0.061314262 -0.09414695 0.084454484 0.25052142
-0.19969657 -0.016512424 0.13734555 0.17680469 0.1836617 -0.13207795 -0.15315151 0.1326877
-0.089453705 0.10686966 0.13773611 -0.07149993 0.17643552 0.033078805 -0.083724484 -0.23883292
-0.07766586 0.02139324 -0.112846114 -0.109842345 -0.061149143 -0.16886534 -0.24706456 -0.06458876
-0.06052074 -0.25503245 0.0013159345 -0.2424681 -0.16899818 0.09426679 0.19992974 -0.1775821
0.14695998 -0.2450324 -0.024881661 0.023482747 0.23342441 -0.07245435 0.15703048 -0.030748565
0.023210807 0.018189425 -0.18222524 -0.06262987 -0.057286378 0.06913657 0.21757998 0.005222218

out/MatMul_bias f4 [41]
00000000: e4a6 b13d 09c6 6fbd d801 bebd 974c 543d
00000010: dbd7 e5bb 5629 43bd 64b2 85bd b3be 123d
00000020: d66e 93bd bbae 8cbc e811 293e b420 9b3d
00000030: d13a 64bd d196 b6bd 001d e23d 0105 31bd
00000040: 098e 2a3e f91d 80bd 011b f0bb 37ee cdba
00000050: c2ff b73c 9218 3cbc b75e 12be c487 783d
00000060: 47e5 fe3c 358e fcbd 4284 26bd ffe1 20bd
00000070: 8c22 f1bc 5f93 063e 6e34 67bd c12b 04be
00000080: 630b fbbc 0c40 debd 3ba0 d13c d6b1 1ebd
00000090: 7f66 5d3d dafb 0dbd c494 6a3d 7ddd 993d
000000a0: 3596 1bbd
0.0867441 -0.05853847 -0.092776954 0.051830854 -0.0070142574 -0.047646843 -0.06528166 0.035826396
-0.07198875 -0.017173162 0.16510737 0.07574597 -0.055720154 -0.08915485 0.110406876 -0.043217663
0.16655745 -0.06255717 -0.007327438 -0.0015711252 0.022460822 -0.011480467 -0.14293943 0.06067635
0.031115187 -0.12331811 -0.040653475 -0.039278027 -0.029435419 0.13142155 -0.056446485 -0.12907316
-0.030645078 -0.1085206 0.0255891 -0.038743816 0.054052826 -0.034664012 0.05727078 0.07512949
-0.037985045

out/kernel/transpose f4 [41, 64]
00000000: d464 953e 5d3d 5dbf 810f bd3e 22e6 24bf
00000010: e45e 3bbf abae a7be f145 b33e b551 3a3e
00000020: c2cd ad3e 1ae7 af3e 6c2d 33bf 84ad 483e
00000030: 09c0 4fbf 51c0 d6be 19bf 223e 6737 99bf
00000040: 24ef 80bf 1b2f 17bf 448a 16be fc92 d43c
00000050: e3a2 1fbf d28f c63e 4749 fa3e 665a 823e
00000060: f9e4 913d 3fb4 c73e 44be 15bf def3 2f3e
00000070: cbe5 c63e 1883 07bf 61ee 97bf af2b 863e
00000080: f51b aa3e a4dd 55bf f35c 69bf 0463 ef39
00000090: 9a0d 30bf 6774 27be 1068 a83e e547 10bf
000000a0: 7e18 bc3e 62d1 d63e 3334 3abf f6d9 af3e
000000b0: 66db 6dbf cf2f 50bf 8478 6abf 0e3d 4fbf
000000c0: 4a69 8ebf 25c8 70bf f180 a9be 9b78 18bf
000000d0: a846 2bbf 62ef 0bbf 2d03 b23e 6cea c43e
000000e0: fa43 3a3e 04ee a83e 269b 893e 54e7 30bf
000000f0: 1027 2d3e ccc4 e9be 8e0e a2bf a310 4cbf
00000100: 5864 04bf 6c0f 68bf deca 88bd e685 683e
00000110: 3035 823e 4f08 84bf 6dbe 72bf 8433 323e
00000120: ab1f 823e 2869 923d 8c2b b0be 010a 853e
00000130: afbf 583e 9638 66be 401b 533e a0cd 6dbf
00000140: 6f94 1cbf a891 773e 64ac 8bbf 1798 c13e
00000150: 5474 813e c0dd 09bf 0668 85bf 099f a2bf
00000160: dc2a c13d e547 3f3e 0305 69bf edb5 8b3e
00000170: 1e41 653d 7169 223e 5a26 8c3e a06f 92bf
00000180: ef20 73bf 72b5 cdbe 64a9 023e 19b1 67bf
00000190: dfd2 523e 86b0 48bf 4b80 593e db7e 183e
000001a0: 7af1 373e aae1 bebc dad4 80bf de1a 62bf
000001b0: b09b 9b3e 751f 6e3e 2323 85bf faae 2cbf
000001c0: 8b8d 6c3e 085e 7a3e db2d 2f3e 9e44 2f3e
000001d0: 17aa 9d3e 6e4b 353e 106f 39bf 703f 49bf
000001e0: 8d5f 3abf 0310 bfbd 3c28 873e d9f8 9f3e
000001f0: e2ce 803e 0b59 6e3e 6f05 3c3e 4678 9b3d
00000200: fdc1 07bf b87f 8cbf 35a4 ef3d 6e90 45be
00000210: 10dc 823e a9fb a03e 5430 723e d41f 313e
00000220: 99a7 e6be 5901 4dbf 2407 a1be 151e 67bf
00000230: 6ef0 9dbf b3e8 bd3e 9ef0 dabe c4e1 913e
00000240: 33fa 0fbf 4c1d 333e d2ca 95bf 6a8b 4abf
00000250: 2431 5ebf 4904 0abf f7ea b13e 2402 963e
00000260: 6756 5e3e de08 c43e e860 d43d 2848 1b3d
00000270: e28a aa3e aaa0 b33e 3707 273e 3ce8 95bf
00000280: bc3e c1be 634a 2abf 277b 9c3e 2dca c03e
00000290: 37e0 5f3e bf49 5b3e 1be6 85bf 61a8 9a3e
000002a0: 00dc ab3e 69b7 43bf cfee 543e 1a72 cc3e
000002b0: ecd0 4b3e becc 7a3e 98d4 abbf ff0f 8a3e
000002c0: 95f7 ae3e 9f7a 6fbe ae82 61bf bbfd 81bf
000002d0: d05e 33bf 3904 1dbf 0896 c53e 9b6a 4dbf
000002e0: fdb8 913e bf4d 93bf 4e35 75bf 8506 6dbf
000002f0: cb4d 01bf 38d8 c43e 8dcd 30bf 0f52 18bf
00000300: 0b4c 72bf 3bd4 69bf 46a0 913e 00e8 d73e
00000310: 5a9c 8b3e e13a b93e f80b 64bf 277e 9f3e
00000320: a65c ae3e 17c4 55bf ec7e b1be 9fa5 80bf
00000330: 3bf4 983e f439 85bf 9568 db3e 312b f4be
00000340: 996a 60bf 65a2 aa3e 0907 823e beff b73e
00000350: 2017 c03e ab6f 50bf f6cf c03e 0351 c93e
00000360: 380e 70bf 8b79 44bf df5d d13e 8511 8bbf
00000370: fbfb 5fbf 907c ccbe 3d64 df3e a4c6 08bf
00000380: ba34 b73e aaaa 823e 60ad 503e 0e93 b43e
00000390: 9aec 6ebf 2394 a13e 9c01 903b fefc 2bbf
000003a0: 28e2 ccbe 6aab 33bf 96f8 3bbf 1a8d ebbe
000003b0: ce5d 82bf 4190 52bf 8cd9 75bf 4bf9 913e
000003c0: 4f6c d5be 46a3 db3d 8969 15bf 30d1 b33e
000003d0: c6cc 24bf f35d 05bf 881e 28be afef f6be
000003e0: 7600 c53e 220c 8c3e 1dcd 14bf 10c1 e2be
000003f0: be0d 2dbe c10a 30bf 752c 903e 8eda 69bf
0.29178488 -0.8642176 0.3692589 -0.64413655 -0.73191667 -0.3275045 0.350143 0.18195231
0.33946043 0.34356004 -0.69991183 0.19597441 -0.811524 -0.419436 0.1589321 -1.1970032
-1.007298 -0.5905625 -0.14701182 0.025948994 -0.6235792 0.387816 0.4888403 0.25459594
0.07123751 0.39004704 -0.5849345 0.17182872 0.38847193 -0.5293441 -1.1869622 0.26205203
0.33224455 -0.8354132 -0.91157454 0.00045659405 -0.68770754 -0.16352998 0.32891893 -0.563597
0.36737436 0.4195662 -0.727359 0.34345978 -0.929129 -0.8132295 -0.9159014 -0.8095254
-1.1125882 -0.94055396 -0.33106187 -0.5955903 -0.6690469 -0.54662144 0.34768048 0.384601
0.18189994 0.32994092 0.2687618 -0.6910298 0.16909432 -0.45657957 -1.2660692 -0.79712886
-0.5171561 -0.9064853 -0.06679319 0.22707328 0.25431204 -1.0315036 -0.94821817 0.17402464
0.25414786 0.07148963 -0.34408224 0.25984195 0.21166871 -0.22482523 0.20615864 -0.92891884
-0.6116399 0.24176657 -1.0911984 0.37811348 0.25284064 -0.5385399 -1.042237 -1.2704784
0.09432003 0.1867977 -0.9102327 0.27287236 0.055970304 0.15860535 0.2737301 -1.1440315
-0.9497213 -0.40177494 0.1275993 -0.90504605 0.20588253 -0.78394353 0.21240346 0.14892142
0.1796321 -0.023300964 -1.0064957 -0.88322246 0.30392218 0.23254187 -1.0401348 -0.67454493
0.2310087 0.24449933 0.17107336 0.17116019 0.3079383 0.17704555 -0.7243509 -0.7861242
-0.7280205 -0.09329226 0.26397884 0.31244543 0.2515784 0.23276155 0.18361448 0.075913
-0.5303038 -1.0976477 0.11701242 -0.19293377 0.2555852 0.31442 0.23651248 0.17297298
-0.45049742 -0.8008018 -0.3145076 -0.90280277 -1.2338998 0.37091598 -0.427617 0.28492558
-0.5624115 0.17491645 -1.1702521 -0.7911898 -0.8679373 -0.5391279 0.34749576 0.29298508
0.21712647 0.38288015 0.10370046 0.03791061 0.33309084 0.35083514 0.16311346 -1.1711497
-0.37743175 -0.66519755 0.30562708 0.37654248 0.21862875 0.2141485 -1.0460848 0.30206588
0.33566284 -0.76451737 0.20794223 0.39930803 0.19903916 0.24492165 -1.3424253 0.2696533
0.34173265 -0.2338662 -0.88090026 -1.0155557 -0.7006655 -0.6133457 0.38591027 -0.8024079
0.28461447 -1.1508101 -0.9578446 -0.92588073 -0.5050933 0.38446212 -0.69063646 -0.5950021
-0.9464728 -0.91339463 0.2844259 0.4216919 0.27267724 0.36177734 -0.8908076 0.31150934
0.3405506 -0.83502334 -0.34667146 -1.0050544 0.29873833 -1.0408311 0.42853227 -0.47689202
-0.87662655 0.33327022 0.25395992 0.35937303 0.37517643 -0.8142039 0.37658662 0.3931962
-0.93771696 -0.7674796 0.4089193 -1.0864722 -0.87493867 -0.39938784 0.43631163 -0.534281
0.35782415 0.2552083 0.20378637 0.35268444 -0.93329775 0.31558332 0.004394723 -0.6718291
-0.40016294 -0.7018343 -0.7342619 -0.4600609 -1.0184877 -0.82251364 -0.96035075 0.28510508
-0.41684195 0.10724501 -0.5836416 0.35120535 -0.6437496 -0.5209648 -0.16417897 -0.4822974
0.38476914 0.27353007 -0.5812548 -0.4428792 -0.16899773 -0.6876641 0.28158918 -0.91349113
