bots/Teresa.chatbot/Teresaconverted_model.tflite (tflite, 208300 bytes, 4 tensors)

in/MatMul_bias f4 [64]
00000000: f254 5f3e cb0c 383e f281 5e3e 6801 5e3e
00000010: 89e1 253e 7b2f 113e 5134 053e 38e5 663e
00000020: e219 913e be47 483e edf1 a73e 045a 993e
00000030: 948a 743e 6b3a 9d3e 84ee 233e b963 493e
00000040: a43b c33e 7716 8f3e e75f 683e e788 543e
00000050: 5442 ae3e 2835 263e ba32 913e a382 9e3e
00000060: cadc 5e3e 3487 933e d300 303e af24 9d3e
00000070: a333 213e 4acd 5c3e 06db 983e 2a04 a43e
00000080: 1713 a03e 70b2 a73e 6376 a63e 49c4 873e
00000090: 1bcb a03e ddf1 813e f81b 1b3e e56f 893e
000000a0: e1e1 643e 05a6 953e b16e ac3e 8b93 8e3e
000000b0: c146 be3e 9077 673e 95bf 813e 9460 823e
000000c0: 6bcb 6c3e 7397 753e 4430 bc3e a7a0 603e
000000d0: f327 3d3e 0e20 843e 92da 3e3e da69 2b3e
000000e0: a24e a13e dc3a 533e 4b08 a73e 4c4f 0d3e
000000f0: 62b6 923e e048 923e e3f2 8a3e eb83 743e
0.21809748 0.1797363 0.21729258 0.21680224 0.16199316 0.14178269 0.13008238 0.22548378
0.2834006 0.19558617 0.32801762 0.2995149 0.23880988 0.30708632 0.16008955 0.19666947
0.3813144 0.27946827 0.22692834 0.20755349 0.3403498 0.16231215 0.28359014 0.30959043
0.21763912 0.2881409 0.17187814 0.3069205 0.15742354 0.21562687 0.29854602 0.32034427
0.31264564 0.32753325 0.32512197 0.2651694 0.31404957 0.2537984 0.15147388 0.2684318
0.22351791 0.29228225 0.336782 0.2784694 0.37163356 0.22604203 0.25341478 0.25464308
0.23124473 0.23983555 0.36755574 0.21936284 0.1847227 0.25805706 0.18638065 0.16739598
0.31505305 0.20627922 0.32623515 0.1379978 0.28654772 0.28571224 0.27138433 0.23878448

in/kernel/transpose f4 [64, 771]
00000000: 663e 5fbe 7292 783d 1d91 943d 3db3 8d3d
00000010: bc3d 5e3e 0320 47be 05e9 4d3e e3eb fc3d
00000020: d8b5 323e 9b0e 493e aa02 f3bd 2868 1cbe
00000030: 0d7a 6a3e 60d9 69be e36e ab3e 2634 07bb
00000040: 28f3 61be 5ff5 1fbd a7a2 9d3d f188 91bd
00000050: bf8c 55be 18ae a2bd 7660 983d bbde 5f3d
00000060: 01a8 863e 6544 abbd a83a f8bd 84e8 44be
00000070: 0ac5 4dbe 1130 a63e 54e1 533e 895b 45bd
00000080: 716e 253e d6c1 b93e c576 8b3d 0e95 4e3e
00000090: 830f fcbd 6257 57bd 052b da3d 3986 39bd
000000a0: e83b 6d3e 684f 4c3e c2b2 61be 1707 5d3e
000000b0: ff2b 723d abcf 3dbe cf71 bb3c 85ca 73be
000000c0: e7e5 b9bd 8ddf aabe 4f71 183e 629b 173e
000000d0: 6603 41be d935 ee3d 13ca e7bd e1a5 85be
000000e0: 811d 9b3e d4b4 5dbe ca99 773e 7872 013d
000000f0: 70de 0bbd ad7e b93e 377a 1bbc 77af e5bd
00000100: 8e9f 0d3e dc63 a83d 1eae 23be c005 f13d
00000110: 15c9 d13d 5a82 51be bd00 6e3d ed00 c13d
00000120: 7b42 6f3e 5028 75be c344 17be cfc9 4d3e
00000130: 8796 d33c f23d a6bd d23e 303d 9a7e ad3d
00000140: f63f a53d 1531 1ebe 87c8 483e d928 103e
00000150: b6c2 093e 1f92 5b3e 6592 e63d 0c37 013e
00000160: 535f b63d 0273 493e 0b3c 4fbd 2028 213e
00000170: 5e58 81bd 4270 d1bd ac90 423e 41cd 343e
00000180: be13 093e 7ddf 62be fd6a dfbd 7f22 23be
00000190: 6b38 9ebd 87e5 0fbe a21a 3ebe 35bf c13d
000001a0: 5a57 7c3d b9eb d6bd 544b 71bc 9453 653c
000001b0: 3c06 14bd a375 3e3e 4b18 353e 67ca 8d3d
000001c0: 907d 663e 6dba 063e c512 a73d 70bd a63e
000001d0: ae54 1f3e 9e7e 353e 5f4b 75be fca1 07be
000001e0: 1588 0ebe 2451 d3bd 601c 2c3e fc3b cdbc
000001f0: 3b96 ecbd 4b2a de3d 0dfb 15be 797a 17be
00000200: 1e5d 04be 1ded 1f3e 0119 26be 5b97 0dbd
00000210: eb6e 69be e5c6 4bbd a896 91bd 703a e53d
00000220: c780 58bc 8d03 633e 0825 eb3d ac19 5c3d
00000230: a0f6 8c3d 0861 e63d ffb0 f3bd 883d 623e
00000240: 43f0 673e 575b 1cbd f2ab b73d 36ef a2bc
00000250: 195e 2a3e 8225 8f3d eb0f 7b3d 06d4 6fbd
00000260: 3e39 f7bd 0a39 3a3e 83ce fa3a f497 423e
00000270: cfff 0ebe e2a5 333e b02f 8d3e e5b2 113e
00000280: b11f 04be cbbf fbbd 87b9 2ebd cae5 6bbd
00000290: d42d 89be e294 c63c f303 2c3e 0755 283e
000002a0: 01e2 49bc c1d1 82bc 7c49 203e 9ea9 c2bd
000002b0: 466c 353e ad8c debc 508d 63be 8c67 06be
000002c0: 0948 af3d b395 513e 5b62 883e 5770 7d3d
000002d0: a485 53bd 9666 25be 6f5e 37bd 9234 943e
000002e0: 627a 793e 7e03 653e 6c4c 31be b08f 97bd
000002f0: 4a1d 44bc 209d 93bc 1557 403d b4ac 883d
00000300: ee93 b4bd a28a 153e 89c4 d13d 7811 813e
00000310: 364f 94bd 980a c63e c7e9 4e3e e51a a43e
00000320: ad9d 9a3e 05e8 96bd 0194 15bd f4cd 873e
00000330: 099e 5cbe a7cf fcbd dc43 34be 2f7e 27be
00000340: e1de b23d 3a99 443e 62ac be3d 4639 72bd
00000350: a078 23bb 222b c93d da90 653d a630 4e3e
00000360: 61e1 b3bd 9dfc 783d b23b bcbd e413 7dbd
00000370: 3ea1 933e 1590 d0bd 6d68 d33e a82a 4a3e
00000380: f15c 903e 963f bd3d 23ab ebbc aa36 8ebd
00000390: 44d3 243e c3b5 373d e15c 35be 2d95 2e3e
000003a0: fc9c d83c 88c5 df3d 4962 f6bd 2217 253e
000003b0: b28b 0d3d c9ba 553e d119 693e 1222 25be
000003c0: 02e1 8b3d 05d6 17be 1c5d 6f3e 6345 c7bd
000003d0: 7615 1d3e b410 a5bd 8d2f 08be dddb 243e
000003e0: e3ae 053e 09cc 1b3e fc5e 173e 97ba 02bd
000003f0: 6206 223e 4fbc 763e 9bd9 333e c096 8c3d
-0.21801147 0.060686536 0.07254241 0.069189526 0.21703237 -0.19445805 0.20108421 0.12349679
0.1745218 0.19634478 -0.118657425 -0.15274107 0.22898121 -0.22836828 0.33483037 -0.0020630448
-0.22065413 -0.039052363 0.07697039 -0.071061976 -0.20854472 -0.07943362 0.074402735 0.05465577
0.26300052 -0.083626546 -0.12120563 -0.19229323 -0.20094696 0.32458547 0.20691425 -0.048182998
0.16155411 0.36280698 0.06809763 0.20174047 -0.12307646 -0.05257357 0.106527366 -0.04529402
0.23167384 0.19952166 -0.22040847 0.21584736 0.05912399 -0.1853625 0.022881417 -0.23807724
-0.090770535 -0.3337368 0.14886974 0.14805368 -0.18848953 0.116313644 -0.113178395 -0.26103118
0.30295947 -0.21651012 0.2417976 0.031603307 -0.03414768 0.36229458 -0.0094895875 -0.11215108
0.13830397 0.08222172 -0.15984389 0.11768675 0.102434315 -0.20459881 0.058106173 0.09424005
0.23365204 -0.23941159 -0.14772324 0.20096515 0.025828613 -0.08117284 0.04302866 0.08471413
0.0806884 -0.15448411 0.19607745 0.14078082 0.13453183 0.2144246 0.11258391 0.12618655
0.089049004 0.19672778 -0.05059437 0.15737963 -0.06315683 -0.102264896 0.190005 0.17656423
0.13386437 -0.22155567 -0.10909078 -0.15931128 -0.077256046 -0.14052401 -0.18564847 0.09460298
0.061606742 -0.10494179 -0.014727432 0.013996977 -0.036138758 0.18599562 0.17685048 0.06923371
0.22508836 0.13157053 0.08157877 0.32566404 0.15559646 0.17724082 -0.23954533 -0.13245386
-0.13919099 -0.10318211 0.16807699 -0.025053017 -0.11552092 0.108479105 -0.1464655 -0.14792813
-0.12926146 0.15617795 -0.16220476 -0.034568172 -0.22796218 -0.049750227 -0.071088135 0.11192787
-0.013214297 0.22169323 0.114816725 0.05373542 0.068829775 0.11248976 -0.11898994 0.22093785
0.22650246 -0.038173046 0.08968343 -0.019889455 0.16637458 0.06989576 0.061294477 -0.05855181
-0.12071465 0.18185821 0.0019135032 0.19003278 -0.1396477 0.17543748 0.27575445 0.14228399
-0.12902714 -0.12292441 -0.0426574 -0.05759219 -0.26792777 0.024240915 0.16798382 0.16438685
-0.01232195 -0.01596916 0.15653032 -0.09505008 0.17717084 -0.027166689 -0.22221875 -0.13125437
0.085586615 0.20467262 0.2663754 0.061874714 -0.05164112 -0.16152415 -0.044767793 0.28946358
0.24363092 0.22364613 -0.17314309 -0.07400453 -0.011969874 -0.018019259 0.046958048 0.066735655
-0.08817278 0.14603665 0.10242564 0.2520864 -0.07241671 0.38679957 0.20206366 0.3205177
0.30198422 -0.07368473 -0.0365181 0.26524317 -0.2154466 -0.12344294 -0.17604011 -0.16356729
0.08733917 0.19199076 0.09310223 -0.05913665 -0.0024943724 0.0982268 0.056046344 0.20135745
-0.08783222 0.060787786 -0.091910735 -0.061786547 0.28833956 -0.101837315 0.41290608 0.19742835
0.2819591 0.09240644 -0.028768128 -0.0694402 0.16096216 0.044851076 -0.17711212 0.17049094
0.026442043 0.10926348 -0.12030465 0.16122106 0.034557052 0.20872034 0.22763754 -0.16126278
0.06830026 -0.14827736 0.23375362 -0.09730031 0.15340218 -0.080598265 -0.13299389 0.16099496
0.13054995 0.15214552 0.14782327 -0.031916227 0.15822747 0.24095272 0.17563479 0.06864691

out/MatMul_bias f4 [37]
00000000: c35b 193d f9e9 3cbe 6632 6cbd 894b f43b
00000010: 3296 40bc cb43 c6bd 321f dbbd 4628 d73c
00000020: 7fb1 e53c 3ca1 0bbe ce38 403e faac 6d3d
00000030: 6e53 bb3d 3c10 90bd 000b 753b 1ef3 5d3e
00000040: feb9 20bd 065f a1bd 5662 1dbd 4da0 aebc
00000050: e411 b1bd 7e6e 243e c3c7 52be 5634 ad3b
00000060: 4c13 d3ba 5162 553e 399d 083d 999e 37be
00000070: bcc0 98bd a8b0 d4bd 7af2 d9bd 05ad 61bd
00000080: 46f3 82bd c1ed 013e f38b dcbc 4c3d bd3d
00000090: b1fb 543d
0.037441026 -0.18448628 -0.05766525 0.0074552936 -0.011754559 -0.09680899 -0.106993094 0.026264321
0.028038738 -0.13635725 0.1877167 0.05802629 0.09146772 -0.070343465 0.003739059 0.21674773
-0.039239876 -0.078794524 -0.03842386 -0.021316672 -0.086459905 0.16057774 -0.20584016 0.00528578
-0.0016103773 0.20838286 0.033353064 -0.17931594 -0.07458636 -0.10385257 -0.10641952 -0.055096645
-0.06394057 0.12688352 -0.026922202 0.09240207 0.051997844

out/kernel/transpose f4 [37, 64]
00000000: ee53 cb3e cd06 93bf 265c 94bf ab7b db3e
00000010: 8567 493d 7e60 9cbe 1e45 5e3e 3aa2 b33e
00000020: a581 84bf 8140 bd3e 0953 36bf 39a6 74bf
00000030: 83bb 2dbe aee7 babe 4415 cbbe f4d4 1cbf
00000040: 5a9d cd3e 9909 ebbe 45aa dc3e b790 e0be
00000050: e644 ebbe 415d 763e c1b8 5abf 642f fc3e
00000060: a309 a0bf 000a 71bf 0e0a 3bbf 5387 51bf
00000070: efa2 9dbf e807 513e 2db8 67bf 4fcb 9c3e
00000080: 6746 74be b914 dd3e 31e9 b93e 46ce fcbe
00000090: 855d 2a3e 76a8 2dbe 05f3 953e b9f5 3cbf
000000a0: 248c bb3e 7db4 b53e 4caf 85bf 4938 66bf
000000b0: 3836 993e 1b48 3fbf 75b5 e33d 31c9 de3e
000000c0: f486 51be 37e6 f2be 1226 86bf b102 1bbf
000000d0: aa9f c53e 3aec a2be 96e0 5abf 6621 bf3e
000000e0: 646d 23bf 3e4d dcbe 5209 67bf 04f4 803e
000000f0: 5f65 27bf 1d5a c63e 71a0 f33e f0fa b03e
00000100: 902c bf3e 420e 9c3e 17f2 22bf 4e18 02bf
00000110: 0b06 a83d eca2 643e 0abf ab3e 36f4 edbe
00000120: 3ce9 5b3e 4c6f 7fbf f61e 003e 6ddc 2d3e
00000130: 3495 473e 0b02 803e 7b41 8bbf 8d11 38bd
00000140: 00aa a43e 6a33 0bbe e0eb 92bf a97c 67bf
00000150: abad 9dbe ade8 a73d 2fb3 6a3e b42f 763e
00000160: 8a26 07bf 79ce 93bf 0872 9a3e db09 05bf
00000170: 9a28 653e fcae 983e 002e e63e dfd3 333e
00000180: d678 d43d 204d b8bf ac1c 6b3e 132d 84bf
00000190: 6b3d 23bf ed35 673e ae7d 78bf fc62 d93d
000001a0: 4c8c bc3c 4262 8d3e b452 3f3e 4da1 e73d
000001b0: 826b 27bf dde3 7f3d 75de 543e ee65 453e
000001c0: 37f3 d1be 9883 4e3e 2658 2c3e 8d02 39bf
000001d0: a1ce 473e 5a5d 90bf a4f8 543e ca56 87bf
000001e0: ba9f 9dbf f1ca 74bf 7861 083d 7b84 643e
000001f0: 5286 74bf 9a83 7abf 9117 ae3e 264d 233e
00000200: 9508 953e c2a2 633e cf37 80bf 152c 183e
00000210: 869f 0cbe 155d 6bbf 72ba c5be 20ad d03e
00000220: 2aa4 6abf 6043 4d3e 3f72 c53e b4b4 143e
00000230: 7a95 31bf 9c3d 6d3e c7b0 903e 886e 253e
00000240: d150 90bf 5104 8d3e 3673 893e 14e7 523e
00000250: a31f 0ebf 53d1 fe3d a659 1cbf 6c47 0ebf
00000260: c72f 5ebf 3207 e13e 31c1 7a3e dd02 ac3e
00000270: 2ccd 60bf ca3f bf3d 6ccc 4abf ca54 4f3e
00000280: 6f26 c03e 8fc5 95bf e59f 65bf 6b1d 8b3e
00000290: 3249 20bf 1f7d 2bbf 5f8b 1cbf acdd afbf
000002a0: 2a06 d73d 2458 7c3e 58eb d93e 30d0 35bf
000002b0: 2c49 67bf 4b05 993e 1916 b93e 57c4 c6be
000002c0: 5ea6 503e 162a d1be 80e3 883e ac7d c23e
000002d0: 0ee0 fabe 5a0d 293e 8cb9 8bbf e62e 823e
000002e0: 56c2 56bf 16e1 1bbf 8f9e 4abf 2e85 ac3e
000002f0: 2f3a 24bf 2e3a af3e 0aed db3e 8fec 4dbf
00000300: 27a3 0cbf e058 df3e d847 3abf fb11 e33e
00000310: 9163 a33e c0f0 99be 5ec8 89be e904 a63e
00000320: 2fb6 8abf 0ade 993e 980a 3ebf 410d d73e
00000330: 4130 c53e 3201 b83d 9c3a 92be 22a9 c8be
00000340: 65fd a9bf 1ac8 9f3e a56e 3abf d310 af3e
00000350: 3235 3fbf 4285 84bf 3a51 86be 6f67 e3be
00000360: b841 92bf a180 8e3e 0fd9 a73e 3420 8cbf
00000370: f2fc aabe 0c3b c73e 1090 21bf c48a 2e3e
00000380: 0310 773e d759 6e3e 212f babf ce49 60bf
00000390: 1b6c 993e 7040 69bf 673f 83bf d06f 7bbf
000003a0: 30d5 5abf 7158 5cbf 2d8c e43e 29c2 b53e
000003b0: 881f c7be 6d23 873e 919c 33be 86b8 e03e
000003c0: 784f 9d3e 0486 af3e f772 ba3e 451e 13bf
000003d0: 5269 febe 21ae 95be a55d c13e c28b 46bf
000003e0: a364 a03e ec44 9dbf 5b17 d6be 57ea efbe
000003f0: f464 803e bf2e 87be c14d 11bf 96e7 08bf
0.3971247 -1.148645 -1.1590621 0.4286779 0.04917099 -0.30542368 0.21706054 0.35084707
-1.0352064 0.36963275 -0.7122045 -0.95566136 -0.16966061 -0.36504883 -0.39664662 -0.6126244
0.40159112 -0.4590576 0.43098655 -0.4386041 -0.45951003 0.24059011 -0.8543816 0.49254906
-1.2502941 -0.94155884 -0.7306222 -0.81847113 -1.2315348 0.20413172 -0.90515405 0.30623862
-0.23854981 0.43179873 0.36310723 -0.49376124 0.16637237 -0.16958794 0.29286972 -0.73812443
0.36630356 0.35489264 -1.0444121 -0.89929634 0.29924178 -0.747194 0.111185946 0.43512872
-0.20461637 -0.47441265 -1.0480368 -0.6055098 0.38598377 -0.31820852 -0.8549894 0.37330168
-0.6383879 -0.4302768 -0.90248597 0.2518617 -0.65389055 0.38740626 0.47583345 0.3456645
0.37338686 0.30479628 -0.6365065 -0.50818336 0.082042776 0.22327775 0.3354419 -0.4647538
0.2147569 -0.997792 0.1251181 0.16978617 0.1949051 0.2500156 -1.0879358 -0.044938613
0.3216095 -0.13593832 -1.1478233 -0.9042459 -0.3079656 0.08198676 0.22919916 0.24041635
-0.5279318 -1.1547385 0.30165124 -0.51968163 0.2237877 0.29821002 0.4495697 0.17561291
0.1037461 -1.4398537 0.22960156 -1.0326256 -0.6376559 0.22579165 -0.9706677 0.10614583
0.023016118 0.27614027 0.18683892 0.113100626 -0.6539842 0.062473167 0.20787986 0.19277164
-0.4100587 0.20167387 0.16830501 -0.7226952 0.19512416 -1.1278489 0.20797974 -1.0573361
-1.231437 -0.95622164 0.03329608 0.22316162 -0.95517457 -0.9785706 0.34002355 0.15947399
0.2910811 0.22230056 -1.0017031 0.14860566 -0.13732728 -0.91938907 -0.3861881 0.40757084
-0.91656744 0.20045233 0.38563725 0.14522058 -0.6936871 0.23168033 0.2825987 0.16155446
-1.1274663 0.27542356 0.2684571 0.20595962 -0.55517024 0.12442269 -0.6107429 -0.5557773
-0.8679165 0.43950802 0.24487759 0.33595935 -0.8781307 0.09338339 -0.79218173 0.20247188
0.37529323 -1.1700915 -0.89697105 0.27170882 -0.6261169 -0.66987795 -0.61150163 -1.3739524
0.104992226 0.24642998 0.42562366 -0.71020794 -0.90346026 0.2988685 0.36149672 -0.3882167
0.20375964 -0.40852422 0.2673607 0.37986505 -0.48999065 0.16509 -1.0916 0.25426406
-0.83890283 -0.6089033 -0.7914819 0.33695358 -0.6415128 0.34224075 0.42954284 -0.80439085
-0.5493645 0.43622494 -0.72765875 0.44349656 0.319119 -0.3006649 -0.2691068 0.3242562
-1.0836848 0.30052215 -0.74234915 0.420023 0.38513377 0.08984603 -0.2856034 -0.39191538
-1.3280455 0.31207353 -0.7282508 0.34192523 -0.74690545 -1.0353167 -0.26233846 -0.4441485
-1.1426306 0.2783251 0.3278279 -1.0947328 -0.33396107 0.38912237 -0.63110447 0.17045122
0.24127202 0.23276459 -1.4545633 -0.87612617 0.2996529 -0.9111395 -1.0253724 -0.9821749
-0.8548155 -0.8607245 0.44638196 0.35499695 -0.38891244 0.26394215 -0.17540194 0.4389078
0.30724692 0.34281933 0.36415836 -0.5746806 -0.49689728 -0.29234412 0.37766758 -0.77557003
0.3132678 -1.2286658 -0.41814694 -0.46858475 0.2507702 -0.26402852 -0.5675927 -0.5347837
