bots/Tsoy.chatbot/converted_model.tflite (tflite, 894876 bytes, 4 tensors)

in/MatMul_bias f4 [128]
0.29207936 0.20075902 0.24102211 0.23377295 0.2525028 0.17005269 0.16911203 0.2871967
0.24121895 0.28210866 0.27083904 0.24463545 0.23853993 0.22019394 0.23462877 0.28339174
0.28117076 0.24431063 0.3143013 0.16171645 0.23777412 0.22626613 0.18924597 0.2856909
0.21255358 0.22234131 0.2926317 0.24934992 0.2142387 0.23503777 0.24687049 0.27302206
0.25823262 0.23833121 0.28931803 0.17351827 0.22305703 0.14712435 0.20313802 0.32599056
0.14914195 0.17116413 0.230209 0.23248212 0.27473 0.15620069 0.20049028 0.16055834
0.20848338 0.25698665 0.26852 0.30501452 0.23433429 0.2981964 0.23326477 0.3478213
0.21557719 0.2251623 0.2586479 0.16899586 0.2749115 0.23003563 0.38565058 0.25976598
0.35844776 0.17639735 0.20026918 0.2319656 0.24177909 0.16454914 0.2564198 0.2566302
0.16489133 0.25871977 0.28211874 0.3202915 0.25693068 0.2318786 0.16864507 0.39374214
0.19075496 0.25771457 0.35023758 0.19456509 0.31773686 0.17977706 0.17688641 0.23398814
0.2921711 0.3189018 0.22238404 0.17020886 0.21612796 0.19473314 0.19224112 0.33074695
0.2410216 0.31402704 0.20191409 0.19689223 0.35177884 0.24771069 0.19029984 0.13981682
0.31172058 0.16652952 0.244637 0.15982026 0.19601932 0.15942408 0.29000622 0.24635163
0.19101448 0.16034758 0.27056995 0.27907884 0.26158836 0.2038771 0.29801288 0.2289008
0.18552962 0.22678438 0.19366726 0.34283295 0.2122073 0.30843288 0.21356337 0.19062853
00000000: 6d8b 953e c693 4d3e 80ce 763e 2d62 6f3e
00000010: 0c48 813e 4b22 2e3e b42b 2d3e 720b 933e
00000020: 1a02 773e 8c70 903e 6aab 8a3e b781 7a3e
00000030: d043 743e 857a 613e 8642 703e b918 913e
00000040: 9df5 8f3e 912c 7a3e 1aec a03e ff98 253e
00000050: 0f7b 733e 4fb2 673e b2c9 413e 1446 923e
00000060: a5a7 593e 71ad 633e d2d3 953e 9655 7f3e
00000070: 6461 5b3e bead 703e 9ecb 7c3e 8cc9 8b3e
00000080: 1137 843e 190d 743e 7e21 943e c6ae 313e
00000090: 1069 643e c4a7 163e 6a03 503e 3ce8 a63e
000000a0: abb8 183e a645 2f3e e8bb 6b3e cb0f 6e3e
000000b0: 69a9 8c3e 13f3 1f3e 534d 4d3e 6869 243e
000000c0: ab7c 553e c193 833e 747b 893e dd2a 9c3e
000000d0: 54f5 6f3e 33ad 983e f6dc 6e3e a215 b23e
000000e0: 44c0 5c3e f290 663e 7f6d 843e 400d 2d3e
000000f0: 33c1 8c3e 768e 6b3e fe73 c53e 0c00 853e
00000100: 7786 b73e 82a1 343e 5d13 4d3e 6488 6d3e
00000110: f094 773e 927f 283e 7549 833e 0965 833e
00000120: 46d9 283e eb76 843e de71 903e 3ffd a33e
00000130: 6b8c 833e 9571 6d3e 4bb1 2c3e 9298 c93e
00000140: 4555 433e 2af3 833e 5752 b33e 123c 473e
00000150: 68ae a23e 7a17 383e b621 353e 969a 6f3e
00000160: 7397 953e 1947 a33e a4b8 633e 3b4b 2e3e
00000170: a650 5d3e 2068 473e dbda 443e aa57 a93e
00000180: 5ece 763e 27c8 a03e 91c2 4e3e 1e9e 493e
00000190: 5b1c b43e dfa7 7d3e f6dd 423e 242c 0f3e
000001a0: d799 9f3e b786 2a3e 1f82 7a3e eca7 233e
000001b0: 4ab9 483e 1140 233e b27b 943e 9a43 7c3e
000001c0: 4d99 433e 2832 243e 2588 8a3e 6ce3 8e3e
000001d0: e9ee 853e 29c5 503e 2595 983e f964 6a3e
000001e0: 7afb 3d3e 2a3a 683e b650 463e cd87 af3e
000001f0: df4c 593e eaea 9d3e 5bb0 5a3e 2034 433e

in/kernel/transpose f4 [128, 1647]
-0.08402699 0.015002674 0.1482811 0.110557795 0.09287457 -0.08310546 0.123944834 0.029281188
-0.030792722 -0.27370733 0.27077642 0.31754455 0.23831746 0.085017465 -0.13529213 -0.04897009
-0.22057168 -0.077070184 0.25785732 0.108366616 0.22043052 -0.051815674 -0.27432367 0.10664136
0.16477728 -0.023490978 -0.16514389 -0.25211024 -0.20527762 -0.2563827 -0.26460987 -0.26435465
0.16529925 -0.16719654 -0.15311474 0.119458035 0.07294737 -0.26995605 -0.15665154 0.061466202
0.08447238 0.15155384 0.117677666 0.11245802 -0.04567441 -0.17093171 0.19989194 -0.10625955
-0.16838895 -0.1432891 0.12634535 0.10359989 0.06426817 0.08441019 0.011227717 0.15087087
-0.16629551 -0.13924055 -0.23356736 0.3012217 0.15370545 0.16375741 -0.057693355 -0.11921448
-0.11635755 -0.10154134 0.24134046 0.24611251 -0.19172367 -0.12078366 0.21950963 0.20060888
0.34243444 0.12893543 -0.114138514 -0.12867005 -0.0023972313 -0.15781668 0.13300423 0.15496904
-0.043478787 -0.061238818 -0.1888811 -0.28430995 0.0014361315 -0.23296733 0.039556418 0.15807322
0.22191751 -0.18435241 0.21654099 0.19708046 0.09969108 0.21895559 -0.07978728 0.021514481
-0.008883431 0.12459108 -0.07280981 0.2410414 0.054768186 -0.17760032 0.09373973 0.17979439
0.1510787 -0.16756219 0.24583496 0.19263673 0.1261527 -0.20066795 0.065870285 -0.13634893
-0.1914552 -0.15477887 0.21639538 -0.2013998 -0.22460596 -0.17576388 -0.124952294 0.11461895
-0.15948884 0.041107707 -0.007836816 -0.16753109 -0.23940298 -0.1644961 -0.040371925 -0.112760186
-0.17614003 0.17227894 0.13538003 0.17407994 -0.101460636 0.18678068 0.2181612 0.11534691
0.11924345 0.051151283 -0.15432824 -0.0928516 -0.018169207 0.26079714 0.22292528 0.04026197
0.15099469 -0.078462765 -0.064238586 -0.029599871 0.13635801 -0.22367372 -0.052212898 -0.03786994
-0.14043938 -0.05360413 0.00093570724 -0.18365712 -0.08394435 -0.18805985 0.20646887 -0.0690825
-0.006260625 -0.053633187 0.120158836 0.1229482 -0.18662177 -0.19791569 0.011051588 -0.011510409
-0.27136922 -0.047277503 -0.032717198 -0.17985228 -0.26034552 -0.15863879 0.17895675 0.28199095
0.12999088 -0.025871135 -0.22056952 -0.16500774 -0.12731223 0.14433494 0.120863944 -0.11502178
-0.0041449876 0.27714768 0.13999481 0.14178306 0.19964907 -0.06350296 0.12818219 0.12809508
-0.013638153 -0.06429012 -0.08384208 0.028770529 0.24335036 0.27449292 0.21499789 0.11059971
-0.03425875 -0.0066303806 -0.03613738 -0.099121526 0.08145037 -0.17466146 0.1026695 -0.11815132
0.20999634 0.119500704 -0.066379555 -0.19983856 -0.20171556 0.014388404 -0.114947304 0.01321842
-0.12026508 -0.09124515 -0.13516021 -0.07594847 -0.08858266 0.14378618 0.10382876 0.3349961
-0.0748932 0.12005223 0.13326734 0.11457559 -0.057190154 -0.21572508 0.053548984 0.24881792
0.015145691 -0.07696128 -0.19728102 0.079816096 0.04537644 0.12438719 -0.103331536 -0.10219251
0.19456579 -0.20768581 0.16285285 0.3158621 0.33508214 0.17501432 0.2712201 0.120350525
0.25572392 -0.10822701 0.12904195 0.24311417 0.2798279 0.16281715 0.10968488 0.0936902
00000000: 5816 acbd c7cd 753c 00d7 173e 206c e23d
00000010: 0635 be3d 3233 aabd cad6 fd3d 1adf ef3c
00000020: 0541 fcbc 5e23 8cbe 35a3 8a3e 3395 a23e
00000030: 7e09 743e a31d ae3d 058a 0abe dc94 48bd
00000040: 8bdd 61be f9d6 9dbd e005 843e 51ef dd3d
00000050: 8ab8 613e ac3c 54bd 2774 8cbe c966 da3d
00000060: 60bb 283e 2770 c0bc 7b1b 29be 9814 81be
00000070: 4c34 52be 9844 83be f27a 87be 7e59 87be
00000080: 3544 293e 9235 2bbe 1cca 1cbe 6aa6 f43d
00000090: 6e65 953d ae37 8abe 4369 20be fcc3 7b3d
000000a0: dbff ac3d ee30 1b3e fd00 f13d 6450 e63d
000000b0: 1715 3bbd b908 2fbe 79b0 4c3e 9b9e d9bd
000000c0: 276e 2cbe 61ba 12be ad60 013e 2e2c d43d
000000d0: 089f 833d 40df ac3d 75f4 373c e57d 1a3e
000000e0: 5f49 2abe 1395 0ebe 482c 6fbe bb39 9a3e
000000f0: f664 1d3e 06b0 273e de4f 6cbd b926 f4bd
00000100: de4c eebd e8f4 cfbd f421 773e eb04 7c3e
00000110: 3653 44be 6c5d f7bd 22c7 603e 6a6c 4d3e
00000120: 9153 af3e a607 043e 74c1 e9bd 15c2 03be
00000130: de1a 1dbb b29a 21be 4332 083e 34b0 1e3e
00000140: d016 32bd 8ed5 7abd 0c6a 41be 1391 91be
00000150: 943c bc3a fd8e 6ebe e905 223d f2dd 213e
00000160: 583e 633e e1c6 3cbe ecbc 5d3e 76cf 493e
00000170: d62a cc3d e535 603e 8367 a3bd 233f b03c
00000180: cf8b 11bc 9c29 ff3d 4f1d 95bd 8fd3 763e
00000190: 9b54 603d dcdc 35be 9efa bf3d 051c 383e
000001a0: 60b4 1a3e 6c95 2bbe 29bc 7b3e 9042 453e
000001b0: 2c2e 013e e67b 4dbe 00e7 863d 0e9f 0bbe
000001c0: d50c 44be 5a7e 1ebe c096 5d3e c03b 4ebe
000001d0: 1bff 65be 72fb 33be fde6 ffbd 57bd ea3d
000001e0: 0b51 23be 8e60 283d fd65 00bc 458d 2bbe
000001f0: 0e26 75be aa71 28be 085d 25bd d0ee e6bd
00000200: 0d5e 34be e469 303e 10a1 0a3e 0342 323e
00000210: 98ca cfbd 6f43 3f3e a665 5f3e 003b ec3d
00000220: e935 f43d 0284 513d 3908 1ebe fb28 bebd
00000230: 97d7 94bc 3487 853e 8646 643e bce9 243d
00000240: 5a9e 1a3e 16b1 a0bd 858f 83bd 6e7b f2bc
00000250: 6fa1 0b3e b90a 65be 31dd 55bd 831d 1bbd
00000260: 57cf 0fbe 0190 5bbd 404a 753a 9d10 3cbe
00000270: 04eb abbd c392 40be 936c 533e 207b 8dbd
00000280: ee25 cdbb 79ae 5bbd d615 f63d 44cc fb3d
00000290: c719 3fbe 69aa 4abe b811 353c 2896 3cbc
000002a0: e8f0 8abe 0ea6 41bd 7802 06bd 322b 38be
000002b0: 024c 85be 3572 22be 7040 373e 1e61 903e
000002c0: 541c 053e b4ef d3bc fadc 61be caf7 28be
000002d0: 235e 02be 8acc 133e 8487 f73d 8a90 ebbd
000002e0: add2 87bb 4de6 8d3e cd5a 0f3e 942f 113e
000002f0: ce70 4c3e d70d 82bd 3142 033e 5b2b 033e
00000300: 8f72 5fbc 8aaa 83bd 65b5 abbd 2cb0 eb3c
00000310: d630 793e 568a 8c3e 6828 5c3e 1a82 e23d
00000320: e752 0cbd aa43 d9bb ca04 14bd 3a00 cbbd
00000330: 74cf a63d 74da 32be 6344 d23d 52f9 f1bd
00000340: 4809 573e c9bc f43d 01f2 87bd 7ba2 4cbe
00000350: 868e 4ebe 57bd 6b3c 7e69 ebbd 1292 583c
00000360: 8a4d f6bd bdde babd 7067 0abe df8a 9bbd
00000370: d36a b5bd af3c 133e 2ca4 d43d 9c84 ab3e
00000380: 9b61 99bd f2dd f53d 3c77 083e 9ba6 ea3d
00000390: 3940 6abd 09e7 5cbe 2e56 5b3d 20ca 7e3e
000003a0: a225 783c e09d 9dbd 0904 4abe 9f76 a33d
000003b0: a5dc 393d b6be fe3d 7c9f d3bd 4f4a d1bd
000003c0: 413c 473e 97ab 54be e6c2 263e adb8 a13e
000003d0: e38f ab3e f436 333e 5cdd 8a3e 567a f63d
000003e0: 3fee 823e 1fa6 ddbd 9323 043e ecf2 783e
000003f0: 9a45 8f3e 8ab9 263e 77a2 e03d a6e0 bf3d

out/MatMul_bias f4 [97]
0.056606352 -0.11910815 0.061661653 0.10578292 0.005257652 0.059761632 0.09872352 -0.097343646
0.046517134 0.05224796 -0.04387317 -0.015233561 -0.15207435 -0.020872705 -0.0031656213 0.040698152
-0.17111893 0.010023132 0.11659254 -0.036829986 -0.058507044 -0.15345718 0.021099772 0.043356106
0.014364447 0.09563184 -0.012359896 0.025785936 -0.051002927 0.007910067 -0.022103887 0.02818137
-0.030206056 -0.052294306 -0.018914772 -0.011992523 -0.0506595 0.06151955 -0.06758568 -0.057080008
-0.018416783 -0.0030394162 -0.018538667 -0.12856048 0.09353665 -0.06924359 -0.07139773 -0.027804228
-0.026951626 0.024323784 0.036352918 -0.015431693 0.012999778 -0.09724305 0.25787267 -0.061063487
0.059577007 -0.056970082 0.028069487 -0.035776984 -0.028179199 -0.0668513 -0.047894232 -0.023155581
0.078026384 0.07784535 0.07755822 0.06853135 -0.055364717 0.046665814 -0.10744118 0.03469634
0.08789066 0.028220117 0.07295424 -0.058397874 -0.0063250936 0.007316856 0.0033360994 0.031020673
0.021340016 -0.02304856 -0.015533136 -0.0494706 -0.055806212 -0.0946566 -0.09652324 -0.007425692
0.04919698 -0.10591225 -0.07217766 -0.086465016 -0.08274608 0.10048291 -0.09681326 -0.07273209
-0.011933883
00000000: 10dc 673d f9ee f3bd ee90 7c3d b7a4 d83d
00000010: 6248 ac3b 9dc8 743d 8f2f ca3d 1b5c c7bd
00000020: c088 3e3d f501 563d 5ab4 33bd 3096 79bc
00000030: 61b9 1bbe 3cfd aabc 5076 4fbb 1bb3 263d
00000040: cd39 2fbe 1038 243c 12c8 ee3d 0adb 16bd
00000050: 15a5 6fbd e123 1dbe 6ed9 ac3c 2c96 313d
00000060: dc58 6b3c a0da c33d 2981 4abc 073d d33c
00000070: 72e8 50bd 3a99 013c 3613 b5bc 9edc e63c
00000080: b172 f7bc 8e32 56bd 27f3 9abc 4a7c 44bc
00000090: 5680 4fbd ecfb 7b3d 5c6a 8abd bacc 69bd
000000a0: cbde 96bc f130 47bb 67de 97bc 5ca5 03be
000000b0: 2590 bf3d 95cf 8dbd f938 92bd b1c5 e3bc
000000c0: a8c9 dcbc ac42 c73c cce6 143d 36d5 7cbc
000000d0: 05fd 543c 5d27 c7bd e307 843e b51d 7abd
000000e0: 0507 743d 7659 69bd fbf1 e53c e38a 12bd
000000f0: 10d8 e6bc 56e9 88bd be2c 44bd c6b0 bdbc
00000100: 4ccc 9f3d 626d 9f3d d8d6 9e3d 2a5a 8c3d
00000110: 1dc6 62bd a724 3f3d 1f0a dcbd c01d 0e3d
00000120: 0500 b43d e02d e73c 0869 953d 9c32 6fbd
00000130: bb42 cfbb 3dc2 ef3b 76a2 5a3b 111f fe3c
00000140: 42d1 ae3c 55d0 bcbc b27e 7ebc afa1 4abd
00000150: 0e95 64bd 52db c1bd faad c5bd 3853 f3bb
00000160: c682 493d 86e8 d8bd e2d1 93bd 9214 b1bd
00000170: c776 a9bd fcc9 cd3d 0846 c6bd 90f4 94bd
00000180: 5586 43bc

out/kernel/transpose f4 [97, 128]
-0.21551692 0.16841733 -0.31805265 0.30932528 -0.70112985 -0.79544395 -0.31348318 -0.21481507
0.014799273 -0.80302584 0.076165184 0.13954633 -0.37292358 -0.6282056 -0.018126868 0.26069477
0.20854485 -0.16453366 -0.6094262 0.06642185 0.1256725 0.2686176 0.26433575 -0.7106188
-0.9286883 0.31095383 0.28314328 -0.44139916 0.18329212 -0.8853876 -0.6241741 -0.50730026
-0.17654487 0.26570928 -0.6088886 0.09493238 0.07110906 0.10199802 0.32996225 -0.47401017
-0.28108615 -0.6357928 -1.0077199 -0.6156712 -0.5555446 -0.6472096 0.197983 0.2335557
-0.46322674 0.36661857 -0.642312 -0.37102163 -0.27066693 -0.6657636 -1.23315 -1.0251526
-0.36428672 0.21858749 -0.7898031 -0.24537413 0.3008756 0.29851517 0.3078863 -0.94976336
-0.5204053 -0.19881529 0.26847965 0.07537337 0.37736064 0.14830945 0.27331308 -0.55121607
0.2828092 -1.1336409 -0.68533623 -0.5465517 -0.4327713 0.28340203 -0.5977438 0.11605925
0.28726664 0.22735332 -0.75355816 0.24666919 -0.63499856 0.28018466 -0.66514134 -0.8067313
0.2976952 0.15442084 -0.57219476 -0.62083316 -0.14829335 0.09870287 0.28974167 -0.7187599
0.11230012 0.2668971 -0.681585 0.24784331 -0.620852 -0.80725706 0.07921346 0.31540683
-1.1957748 -0.46356902 -0.17819753 -0.39420876 -0.57982504 0.29786402 -1.424966 -1.3260927
0.25773033 0.054572992 -0.20725323 0.31197867 0.15185945 -0.79720604 0.2552205 -0.37640935
-1.3301183 -0.27178067 -0.32700998 -0.4475614 0.29913747 0.031139864 -0.7024739 -0.31055787
-1.0585357 -0.32963696 -0.9370348 -0.58694327 0.15947774 0.13144429 0.10186983 -0.945666
-0.96241826 0.025636472 0.18583533 -0.39445484 0.023769235 0.15787251 0.1346329 0.15639241
0.23102608 -0.844222 0.182116 -0.490811 0.20529495 0.22226475 -0.23380658 0.16044201
0.035645556 0.08476889 0.2124572 -0.4814952 -0.73379827 0.21022801 -0.69790864 0.21050401
-0.62767875 -0.71876055 -0.5843148 0.18257174 0.1137778 0.12298769 -0.40830615 -1.2626164
-0.8326234 0.14564128 -0.4455831 -0.2846065 -1.2984184 -0.18275896 -0.4466761 -0.5090377
-0.75295943 0.17063022 0.17745177 0.31007114 -0.8082983 -0.66915965 0.29190156 -0.99183136
-0.2790157 0.22806063 -0.55483 0.032265533 -1.0441847 -0.41638187 0.13146037 0.24601576
-0.54732925 0.19834188 0.29221946 0.25507426 0.1926406 -0.7551178 -0.9164131 -0.058552075
-0.28398278 0.09738385 -0.5035237 -0.58115476 0.14830394 0.25556907 -0.30452508 -0.84364516
-0.6304719 0.023280853 0.2853557 -0.4790103 -0.81900173 -0.25303465 0.22413304 0.064596586
0.16593912 -1.4472798 -0.2170808 0.12432879 0.14742321 0.23047982 0.28872642 0.17807211
-1.5390188 -1.4384482 -0.7529277 0.052047987 -0.19439147 0.22260754 -1.0092409 -0.5658468
0.16666736 0.22471887 -1.1559045 -0.65067333 -0.68098897 0.12015117 0.21449386 0.18501052
0.21538898 0.14954251 0.17738801 0.19521488 0.21401526 0.107575335 -0.65996444 0.18402469
-0.36252168 0.19869787 -0.13144659 0.06793896 0.2629563 0.23618291 -0.86121804 -0.42778376
00000000: 78b0 5cbe 9875 2c3e ccd7 a2be e25f 9e3e
00000010: 3f7d 33bf 37a2 4bbf de80 a0be 7bf8 5bbe
00000020: a678 723c 1a93 4dbf 7efc 9b3d 3ce5 0e3e
00000030: d7ef bebe 15d2 20bf cc7e 94bc c979 853e
00000040: c88c 553e 837b 28be 5b03 1cbf 2e08 883d
00000050: 4bb0 003e 3f88 893e 0457 873e 1deb 35bf
00000060: 84be 6dbf 5735 9f3e 28f8 903e 12ff e1be
00000070: eeb0 3b3e c3a8 62bf e0c9 1fbf 6ede 01bf
00000080: 2ec8 34be 0c0b 883e 20e0 1bbf e86b c23d
00000090: a0a1 913d 57e4 d03d d0f0 a83e 76b1 f2be
000000a0: 86ea 8fbe 51c3 22bf f7fc 80bf a19c 1dbf
000000b0: 2c38 0ebf 87af 25bf 0ebc 4a3e 3a29 6f3e
000000c0: 0e2c edbe 6eb5 bb3e 8f6e 24bf 8cf6 bdbe
000000d0: db94 8abe 7c6f 2abf dcd7 9dbf 3338 83bf
000000e0: ca83 babe 66d5 5f3e 8930 4abf 5b43 7bbe
000000f0: 5e0c 9a3e fbd6 983e 46a3 9d3e b123 73bf
00000100: 4839 05bf 3c96 4bbe 2a76 893e 5a5d 9a3d
00000110: 6a35 c13e 6fde 173e b1ef 8b3e 7f1c 0dbf
00000120: 5ecc 903e 251b 91bf 3272 2fbf d0ea 0bbf
00000130: 3394 ddbe 121a 913e bd05 19bf 79b0 ed3d
00000140: 9d14 933e 4fcf 683e 30e9 40bf d996 7c3e
00000150: 448f 22bf 5d74 8f3e b446 2abf f185 4ebf
00000160: 816b 983e 7f20 1e3e 5b7b 12bf ecee 1ebf
00000170: 36da 17be bb24 ca3d 0559 943e a600 38bf
00000180: 9bfd e53d bda6 883e 5b7c 2ebf a3ca 7d3e
00000190: 28f0 1ebf 66a8 4ebf ab3a a23d 017d a13e
000001a0: 260f 99bf eb58 edbe 6a79 36be bbd5 c9be
000001b0: 6a6f 14bf a281 983e 4965 b6bf 68bd a9bf
000001c0: 3bf5 833e ee87 5f3d 313a 54be abbb 9f3e
000001d0: 0b81 1b3e b215 4cbf 43ac 823e bab8 c0be
000001e0: 5141 aabf d626 8bbe da6d a7be c526 e5be
000001f0: 8c28 993e 0719 ff3c 54d5 33bf 7101 9fbe
00000200: 197e 87bf 2dc6 a8be 83e1 6fbf ea41 16bf
00000210: 224e 233e 5599 063e 21a1 d03d 2b17 72bf
00000220: 0b61 76bf 9403 d23c 9e4b 3e3e fcf5 c9be
00000230: b3b7 c23c 55a9 213e 35dd 093e 5525 203e
00000240: 1a92 6c3e ef1e 58bf 9e7c 3a3e 944b fbbe
00000250: d738 523e 5f99 633e fe6a 6fbe e94a 243e
00000260: 1301 123d 509b ad3d 618e 593e 8a86 f6be
00000270: 34da 3bbf 0346 573e 24aa 32bf 5d8e 573e
00000280: 8eaf 20bf b100 38bf a895 15bf 16f4 3a3e
00000290: 5604 e93d f8e0 fb3d 810d d1be 6a9d a1bf
000002a0: cf26 55bf fd22 153e 7823 e4be f1b7 91be
000002b0: 9332 a6bf 2a25 3bbe bbb2 e4be 4b50 02bf
000002c0: f3c1 40bf b0b9 2e3e ebb5 353e a5c1 9e3e
000002d0: a3ec 4ebf 0c4e 2bbf 1f74 953e a9e8 7dbf
000002e0: 25db 8ebe ba88 693e 5709 0ebf dd28 043d
000002f0: d8a7 85bf 0130 d5be 8c9d 063e 8eeb 7b3e
00000300: c51d 0cbf 221a 4b3e ca9d 953e 1899 823e
00000310: 9443 453e 664f 41bf 0d9a 6abf 4dd4 6fbd
00000320: 3166 91be 2f71 c73d eee6 00bf 8fc6 14bf
00000330: fddc 173e f3d9 823e b6ea 9bbe 21f9 57bf
00000340: 9b66 21bf 7db7 be3c 241a 923e d740 f5be
00000350: 19aa 51bf c28d 81be 2283 653e 374b 843d
00000360: f2eb 293e 7740 b9bf 6e4a 5ebe 18a0 fe3d
00000370: 1cf6 163e e702 6c3e f3d3 933e 8958 363e
00000380: 91fe c4bf 121f b8bf dfbf 40bf 4530 553d
00000390: 8f0e 47be 3bf3 633e ce2e 81bf 56db 10bf
000003a0: d9aa 2a3e b41c 663e aef4 93bf 8792 26bf
000003b0: 4b55 2ebf d111 f63d 47a4 5b3e 6673 3d3e
000003c0: ee8e 5c3e ac21 193e 34a5 353e 69e6 473e
000003d0: d126 5b3e 7550 dc3d 6ef3 28bf f870 3c3e
000003e0: 719c b9be 7477 4b3e ef99 06be 9523 8b3d
000003f0: 35a2 863e efd9 713e c978 5cbf 7906 dbbe
