bots/Tsoy.chatbot/Tsoyconverted_model.tflite (tflite, 388508 bytes, 4 tensors)

in/MatMul_bias f4 [64]
000000 bd 08 6e 3e b0 ae 92 3e 6c f1 b1 3e 34 d9 bb 3e
       0.23245521 0.286489 0.34754503 0.3668915
000010 cc bc 83 3e 82 ec 9c 3e 19 bf b2 3e a7 c9 9b 3e
       0.25729978 0.3064919 0.3491142 0.30427286
000020 82 2d 85 3e 63 2a 92 3e 66 c1 c6 3e aa c2 9f 3e
       0.26011282 0.28547964 0.38819426 0.31203204
000030 62 94 97 3e 16 49 95 3e e9 0a c2 3e 98 31 78 3e
       0.29605395 0.29157323 0.3789895 0.24237669
000040 d9 49 b8 3e 3b aa 81 3e 5c aa 93 3e cf 8c a2 3e
       0.3599384 0.25325188 0.2884091 0.31748053
000050 f4 04 b0 3e 54 3f b6 3e 25 8a a6 3e fb ff a7 3e
       0.3437878 0.3559519 0.3252727 0.32812485
000060 b9 62 8d 3e 1c 3f ba 3e b0 90 67 3e 7d 56 c9 3e
       0.27614382 0.36376274 0.22613788 0.39323798
000070 66 ea 63 3e 3d 2c 87 3e c2 9c ad 3e fe 5e 91 3e
       0.22257385 0.2640094 0.3390866 0.28392786
000080 79 35 86 3e a9 36 a7 3e 13 70 fb 3e bc 3a 92 3e
       0.2621267 0.3265889 0.49108943 0.28560436
000090 0c fe c5 3e 42 c1 9c 3e 56 e7 ca 3e 32 f7 bb 3e
       0.38670385 0.30616194 0.3962962 0.36712033
0000a0 d3 9b 8c 3e f1 7f b6 3e b5 1b 88 3e 67 ea a0 3e
       0.27462634 0.35644487 0.2658364 0.31428835
0000b0 25 ad a4 3e af 22 8f 3e 4b 3d a6 3e 84 54 80 3e
       0.3216335 0.2795615 0.32468638 0.2506448
0000c0 43 d5 c9 3e e0 64 a6 3e 4e 96 96 3e 5b a0 a7 3e
       0.39420518 0.32498837 0.29411548 0.3273953
0000d0 70 76 a3 3e ff 54 af 3e 6e 0d 72 3e 67 13 9a 3e
       0.31926298 0.34244534 0.23637936 0.30092928
0000e0 19 a2 b0 3e 8e 06 ca 3e 50 94 a1 3e bc 4a 6c 3e
       0.3449867 0.39458126 0.31558466 0.23075384
0000f0 fb 86 73 3e a4 90 92 3e e9 36 44 3e c3 b7 a7 3e
       0.2378196 0.28625977 0.19161572 0.32757387

in/kernel/transpose f4 [64, 1414]
000000 0e 96 79 bd 22 0b 11 3d 60 93 5c 3b 53 64 cc bd
       -0.06093412 0.035411008 0.0033657178 -0.09980073
000010 4a bf 68 be 9d c4 bb bd 77 11 c6 bd 4e 1f a8 bd
       -0.22729221 -0.091683604 -0.096713 -0.08209096
000020 6f 95 81 bd 5f ec 16 bd fa 67 e0 bd 92 9c c0 bc
       -0.0632733 -0.036846515 -0.10957332 -0.023512159
000030 a3 43 95 bd c3 48 82 be 3e 82 e2 bd 41 db 6f be
       -0.07288291 -0.25446138 -0.11059998 -0.23423482
000040 eb ed f1 bc 11 21 93 be 3c 8f fa bd f8 d7 66 be
       -0.029532393 -0.28736165 -0.12234351 -0.22543323
000050 9a 2f 6b be c4 e6 6c be 6a d5 71 be 23 58 7a be
       -0.22967377 -0.23134905 -0.23616567 -0.24447684
000060 65 d4 23 bd 92 d2 69 be 05 6f f9 bd aa cd 68 be
       -0.039997477 -0.22834232 -0.121793784 -0.22734705
000070 dc 91 77 3e 7a f1 77 3e 43 f9 7a be 60 bb a4 bb
       0.24176735 0.2421321 -0.24509148 -0.0050272197
000080 3f 91 5b 3e 4b 3f 37 3e 97 66 99 3e e2 ad 88 be
       0.21442126 0.17895238 0.29961082 -0.26695162
000090 82 d4 89 3e 5f c2 9a 3e 69 56 7c 3e 4f c0 65 be
       0.26919943 0.30226418 0.24642338 -0.22436641
0000a0 0e d4 ac bd 12 c3 9e 3e 6b b7 e0 bd cc b0 17 be
       -0.08438884 0.31008202 -0.10972484 -0.14813536
0000b0 e5 18 ff be 91 d3 f8 bd bd 09 84 3e 42 4a 94 3e
       -0.4982368 -0.12149728 0.2578868 0.28962904
0000c0 89 8d 90 3e d3 42 5f 3e d0 c8 bf 3d 46 c2 98 3e
       0.28232983 0.21802835 0.09364474 0.2983572
0000d0 0e e7 98 bc f8 b9 f0 bd 7e 92 0a be 0c 56 c2 be
       -0.018664863 -0.11754221 -0.13532445 -0.37956274
0000e0 ad 31 70 3c bf 39 9e bc 0b c1 02 be 5d f5 6c 3e
       0.014660281 -0.019314645 -0.12768953 0.23140474
0000f0 c0 c0 8d 3e d6 79 d7 bc 52 70 35 be c0 99 58 be
       0.2768612 -0.026303213 -0.17718628 -0.21152401
000100 1c 51 6f 3e 1c 0c 09 3e 10 e0 fc bd fd 0b 0c 3d
       0.23370785 0.13383526 -0.12347424 0.03419112
000110 a7 2b d3 3c 50 d8 e4 bd 4d b1 2d be 57 f6 82 3d
       0.025777651 -0.11174071 -0.16962166 0.06394642
000120 e8 fa 6b be e4 c3 74 3e 9a c2 77 bd 77 d0 15 be
       -0.23044932 0.23902851 -0.06048832 -0.14630304
000130 24 36 92 3e 91 8a 7d be a5 b2 21 3e 82 15 57 bd
       0.2855693 -0.2475989 0.15790804 -0.052510746
000140 44 68 89 3e 73 34 8a 3e 8e 41 81 3e 8c 29 05 be
       0.2683736 0.2699314 0.25245327 -0.1300413
000150 f5 de f9 3d d8 99 c4 3d 5e bf 6c 3e 45 67 94 3e
       0.12200729 0.09599656 0.23119876 0.28985038
000160 3b f6 6c 3e f0 85 9c bb 9a c4 ae 3e ad b8 e5 3d
       0.23140804 -0.004776709 0.3413437 0.11216865
000170 e3 60 89 3e 91 a6 b1 be aa 4d 72 bd ba 17 b3 bc
       0.2683173 -0.34697393 -0.059156097 -0.0218619
000180 7f e9 f5 bd 95 0c ee bd af 42 46 3e ed 79 93 3e
       -0.120074265 -0.116234936 0.19361375 0.2880396
000190 52 68 53 3e da 35 89 3e 5f 27 0e 3e 96 2f 6f 3e
       0.20645264 0.26798898 0.13882206 0.23357996
0001a0 47 3b 88 3e a9 d9 85 be ca 99 82 3e a8 7e a2 3e
       0.26607725 -0.26142624 0.25507957 0.31737256
0001b0 b0 23 dd bd 4f d1 a4 be cf b8 06 be ee 23 b5 bc
       -0.107978225 -0.3219094 -0.13156436 -0.02211186
0001c0 76 f8 58 3e 40 3e 7b 3e 0c d5 0f be bc 65 42 3e
       0.2118853 0.24535465 -0.14046115 0.18984121
0001d0 ee 1e 36 be 8d 53 12 3b 3a 2d 2c be 7c 56 55 3e
       -0.17785236 0.0022327632 -0.16814128 0.20833772
0001e0 9c d3 56 3e 65 48 4e be 42 c7 42 be 40 d7 20 be
       0.2097916 -0.20144804 -0.19021323 -0.15707111
0001f0 43 78 72 be 5d 0e ae 3e a0 b8 65 3e 17 ee 2f 3e
       -0.23678689 0.33995333 0.2243371 0.17180668
000200 76 28 e6 3c a2 50 a1 bd 1f f1 89 bc 24 7a 96 3e
       0.028095465 -0.078767076 -0.016838608 0.2939006
000210 3a ec 6e be 2a f9 c9 bb 3e 05 90 3d 54 37 5c be
       -0.23332301 -0.006163736 0.0703225 -0.21505481
000220 41 13 2f 3e 06 4a 8a be d9 96 47 be 19 84 54 3e
       0.17097189 -0.270096 -0.19491138 0.20753516
000230 31 a8 39 be bf ab 8f bd 74 24 0d be fd 2d a9 3d
       -0.18130566 -0.0701518 -0.13783437 0.08260725
000240 a1 f7 aa 3e ab 4a 4e 3d 64 79 91 3e 45 6b 78 3e
       0.3339205 0.050364178 0.28412926 0.2425967
000250 cb 5d 5d bc 4f d3 4b 3e 90 a6 03 be 0f a4 98 3e
       -0.0135111315 0.19904827 -0.12856507 0.29812667
000260 b7 b6 34 be d1 c0 64 3e 5b 21 88 be 4c f4 97 bd
       -0.17647825 0.22339179 -0.26587948 -0.07419643
000270 b2 dc 9d bd da 95 5a be 8b a0 a9 bd db c2 e9 3d
       -0.0770811 -0.21346226 -0.08282574 0.11414119
000280 42 6a 10 ba ba 17 34 bd 18 70 1f bb 8d 80 3d be
       -0.0005508998 -0.04396794 -0.0024328288 -0.1850607
000290 1f 7b d9 3a 6b 7e b1 bd 8c b7 a3 bd da e4 62 3e
       0.0016592479 -0.086666904 -0.07993993 0.22157612
0002a0 c4 17 a8 bd 05 f5 63 be 06 e4 65 3e 92 cb 32 3e
       -0.08207658 -0.22261436 0.22450265 0.17460468
0002b0 6b 93 0b be 91 de 8c be 59 5e 02 be 5e cd 74 3e
       -0.13630454 -0.27513555 -0.12731303 0.23906466
0002c0 fc 40 f5 bd 8d 5b 44 3e a5 11 51 bd 7a dd cc be
       -0.119752854 0.19175549 -0.051042218 -0.40012723
0002d0 07 89 75 be 32 91 93 3e 65 53 16 3e ff ac 9a 3e
       -0.23978053 0.28821713 0.1468025 0.3021011
0002e0 38 90 a9 3d 4e 73 9b bd 2c 95 04 3e 6b 0b 8c be
       0.08279461 -0.07590352 0.1294753 -0.2735246
0002f0 53 f1 b9 3e 1b 0f ee 3c d8 a9 bb be a2 3f 2e 3e
       0.36316928 0.029059937 -0.36653018 0.17016461
000300 6a e0 3c 3e b3 3d 96 3e 69 9e 96 bd aa 17 c4 bd
       0.18444982 0.29343948 -0.07354433 -0.09574826
000310 66 12 05 be b9 21 85 3e 89 a3 64 be e1 4b 98 3e
       -0.129953 0.2600229 -0.22328009 0.2974539
000320 42 0b 34 be 04 f7 87 bd 9c d7 6a be 74 af 95 bd
       -0.1758242 -0.06638911 -0.22933811 -0.07308856
000330 41 e4 22 be 61 82 29 be 9f 47 0b be 9e 24 b1 3e
       -0.15907384 -0.16553642 -0.1360154 0.3459825
000340 f3 44 60 bd fa ea d2 be 2b d4 06 be 03 48 5c 3e
       -0.054753255 -0.41194898 -0.13166873 0.21511845
000350 92 ea bd bd 6d 40 cc bd 37 d6 a9 3e 5b b9 0e bd
       -0.09273256 -0.09973226 0.33171245 -0.034844737
000360 4d 59 e8 3d 13 f6 54 3e 3c 24 8b 3e 88 54 65 3e
       0.11345158 0.20796995 0.27176082 0.22395527
000370 cc f6 6a 3e 3f e5 50 be fd c0 bc bd f8 25 86 3b
       0.22945708 -0.2039995 -0.09216497 0.0040938817
000380 2a e1 10 bc 7e 12 72 bd 64 c4 3b 3e 8c 34 85 3c
       -0.008842746 -0.059099667 0.18336636 0.016260408
000390 de d9 43 be 91 e3 6d 3e a5 2c 08 3f 4d 96 88 be
       -0.19126078 0.23231341 0.5319312 -0.2667717
0003a0 71 34 81 be ca 75 d0 3e 7f cd 13 3e f1 98 d1 bd
       -0.25235322 0.40714866 0.1443386 -0.102342494
0003b0 dc d9 87 be e9 42 a1 3e 4f be 81 bd a0 9a 51 3e
       -0.265334 0.3149636 -0.063351266 0.20469141
0003c0 34 45 ad be d0 d4 0a be d6 e7 04 be cb bb 60 3e
       -0.3384186 -0.13557744 -0.12979063 0.21946637
0003d0 17 ad 47 bc 67 64 a6 bd ea e5 9d 3e c4 c6 4d 3e
       -0.012187264 -0.08124619 0.30839473 0.20095354
0003e0 3b 6a 53 bd 08 ea d4 bc 86 ff 18 be 43 92 67 3e
       -0.05161498 -0.025990501 -0.14941224 0.22614388
0003f0 e4 3a 60 be d9 6f 86 3e ef 6d 66 be e4 8b 8b bd
       -0.21897465 0.26257208 -0.22502874 -0.068137914

out/MatMul_bias f4 [97]
000000 11 74 d9 bd 6e 27 ad bd d2 b5 f1 3d 11 da f0 3d
       -0.10617841 -0.08454786 0.118022576 0.11760343
000010 71 c7 02 3d a7 53 50 3e e1 7d 09 3e a5 d2 08 be
       0.031928483 0.20344411 0.13426925 -0.13361605
000020 29 e7 e3 3c 59 c5 7c bd 21 11 f4 bd 3b f2 d0 bd
       0.027820187 -0.061711643 -0.119173296 -0.10202452
000030 1e df 82 be fa 5e eb bb 35 04 28 3e 43 ca 57 3e
       -0.2556085 -0.007182953 0.16407855 0.2107325
000040 9a f7 06 bd 89 06 54 bc fa 6c d1 bd 6d 0b ac bd
       -0.032950975 -0.012941011 -0.10225864 -0.08400617
000050 5f fd 2a be a7 c1 a1 bd 17 55 ba 3d b5 ff b6 3d
       -0.16698216 -0.078982644 0.09098261 0.08935491
000060 b0 e3 3c bd ae f7 23 bc 31 69 d2 bd 54 1d 30 be
       -0.046115577 -0.010007782 -0.1027397 -0.17198688
000070 e4 d8 80 bd 10 f8 62 3b e3 e1 8e bd 86 0d 28 3e
       -0.062913686 0.003463272 -0.06976678 0.16411409
000080 72 d3 19 be 8b d8 ba bd 6c 3b 98 3b 3c c9 60 bd
       -0.15022066 -0.091233335 0.0046457555 -0.054879412
000090 87 36 b1 bd 34 35 dd 3d cb 99 de 3d 89 42 13 be
       -0.086529784 0.10801163 0.108691774 -0.1438085
0000a0 eb 33 50 3e 22 ea 21 3e 45 e8 8f bd 8e 36 63 b9
       0.20332305 0.15811971 -0.07026724 -0.0002166873
0000b0 56 79 15 3e 5e 1a 4c be ec 8f 02 3d a9 65 f3 bd
       0.14597067 -0.19931933 0.031875536 -0.118846245
0000c0 ef 9e e9 bd df 42 82 bd dd ca e8 3d 57 13 5f 3e
       -0.11407267 -0.06360411 0.11366818 0.21784721
0000d0 32 ad 98 bc ad be 15 3e 60 a9 01 be 72 57 56 3e
       -0.018637273 0.14623518 -0.12662268 0.20931795
0000e0 02 da 1f 3c 2e c9 d4 3b 65 f2 ed bd 73 d7 a2 bd
       0.009756567 0.006493709 -0.11618499 -0.0795125
0000f0 cc 26 1d 3d b6 14 43 3c 93 42 20 be 81 fc 13 3d
       0.038367078 0.011906793 -0.15650396 0.03612948
000100 a1 92 6d 3d c1 19 33 3d 0c 58 5c 3e 10 d8 f7 3c
       0.058001164 0.043725733 0.21517962 0.030254394
000110 42 90 a9 3d cb 9d e8 bc ee 3a 17 bb d9 ed 8d 3d
       0.08279468 -0.028395554 -0.0023075896 0.069301315
000120 54 5c ae bd 70 27 5e bd f7 f2 f0 bd bb 52 1a 3e
       -0.08513704 -0.05423683 -0.11765092 0.15070622
000130 7b 43 c1 bd 0d ea 84 3b bb a1 b2 bd 34 b8 86 bb
       -0.09436699 0.0040562213 -0.08722254 -0.004111314
000140 ce c3 82 bd c8 88 9f 3c f5 49 9a bc 18 0e c4 3c
       -0.06385003 0.019474402 -0.018834094 0.023932502
000150 33 05 fc bc 42 55 0f 3e d9 91 f1 bd 5e d9 3b be
       -0.030764198 0.13997367 -0.11795396 -0.18344638
000160 89 fa 09 3d 45 0d 89 3d 7a b6 9f bd 42 bb 06 3d
       0.033686195 0.06691984 -0.077984765 0.032893427
000170 80 3c ac bd ab 51 19 3e 7f 2b 0f be d6 a6 b5 bd
       -0.08409977 0.1497256 -0.13981436 -0.08869712
000180 0b 6b b3 bd
       -0.08760651

out/kernel/transpose f4 [97, 64]
000000 4d f8 40 3e a6 31 4d bf 0c 23 17 bf 35 96 36 bf
       0.18844719 -0.8015388 -0.5903785 -0.7132295
000010 56 51 ac be 40 94 81 bf c6 ee 81 3e 4b fe 96 bf
       -0.33655804 -1.0123367 0.25377482 -1.1796354
000020 a6 32 c4 bf fe 91 8e 3e 79 4a db bf 0f f4 50 3e
       -1.5327957 0.27845758 -1.7132102 0.20405601
000030 c2 f7 87 3e 01 22 f7 3d cd 7d b5 3e 53 25 a8 3e
       0.26556212 0.120670326 0.3544754 0.32840976
000040 4d db 30 3e f9 ba 80 bf df c0 1e 3e 80 63 83 be
       0.17271157 -1.005706 0.15503262 -0.2566185
000050 e9 b4 5f bf 0a 7b a9 bf 7c c8 42 bf d8 38 75 3e
       -0.8738542 -1.3240674 -0.76087165 0.23947465
000060 85 ef 4c 3e 59 b1 e0 bf d5 74 86 3e dc e8 0d 3e
       0.20013244 -1.7554122 0.2626101 0.1385836
000070 26 1d a1 bf ef ef f3 be 33 b2 7f bf 5c 3b 6d 3e
       -1.258702 -0.47643992 -0.99881285 0.23167175
000080 9d 28 8c bf 0a 29 ed be 11 55 99 3e 59 6f c4 bf
       -1.0949894 -0.46320373 0.29947713 -1.5346481
000090 7c 2a 52 3e 38 73 2d 3e 0e db 39 bf f4 2a 30 3e
       0.20524019 0.16938484 -0.72599876 0.17203885
0000a0 de 4b 50 bf 6d 1e 41 bf 86 68 a8 be d1 0c 82 3e
       -0.81365764 -0.7543705 -0.32892245 0.25400403
0000b0 b4 bf 9c bf 13 3a c8 3d bd a5 75 bf b3 f1 44 bf
       -1.2246003 0.09776702 -0.9595602 -0.76931304
0000c0 e6 2e 6a 3e 26 ad 80 3d 29 d0 6f bf c4 ea 91 3e
       0.22869453 0.062830254 -0.93677 0.28499424
0000d0 57 9c 65 bf 26 bb 87 3e da d9 d3 3e ff 09 5e bf
       -0.8969168 0.2650997 0.41377145 -0.86734
0000e0 52 24 91 3e 4e 20 40 3e 66 7e b3 3d fd d0 5f bf
       0.28348023 0.18762323 0.08764343 -0.87428266
0000f0 eb e4 99 bf c0 ba df 3e 94 eb 64 3e ae 55 8b 3e
       -1.2022985 0.43697166 0.22355491 0.27213806
000100 e0 27 38 3e e8 6e b2 be 0b ff b5 bf ab 6b e0 bf
       0.17983961 -0.3485024 -1.4218458 -1.7532858
000110 cc 58 5a 3e f1 ea 86 bf 91 41 89 3e da b1 33 bf
       0.21322936 -1.0540448 0.26807836 -0.70193255
000120 90 5e 71 3e ca 0f 93 bf 12 fc 74 bf bf 40 97 3e
       0.23571229 -1.1489193 -0.9569713 0.29541585
000130 1b 31 9e 3e 3c 8b 80 bf 6b c6 96 3e e0 37 25 bf
       0.3089684 -1.0042491 0.29448256 -0.64538383
000140 ac 6d 84 bf 47 56 87 3e a6 8d 7b 3e bd af 96 bf
       -1.0345969 0.26433012 0.24565753 -1.1772381
000150 b7 a4 c0 bf 98 1e e4 be b2 97 8d 3e e5 00 85 3e
       -1.5050267 -0.4455459 0.27654797 0.25977245
000160 7e 67 92 3e 73 06 8e 3e 5c 30 9b 3e bb 1f 79 3e
       0.28594583 0.27739295 0.30310333 0.2432851
000170 73 3b 81 bf f3 ba 7b bf 85 e2 14 bf f7 65 92 3e
       -1.0096267 -0.98332137 -0.5815814 0.28593418
000180 42 f1 54 bf 66 b6 9d 3e 7c f6 82 bf b2 db 93 3e
       -0.8318063 0.3080322 -1.0231471 0.28878552
000190 02 93 84 bf 13 cd 44 bf 15 2e ac bf fd 63 17 3e
       -1.0357363 -0.7687542 -1.3451563 0.14784236
0001a0 42 fb 9c 3e 54 47 8a bf 16 11 8f 3e 63 b2 91 3e
       0.30660444 -1.0803018 0.27942723 0.2845641
0001b0 45 12 b3 3e 13 e6 cb 3d 77 9c b7 bf ed f5 8b 3e
       0.34974876 0.099559925 -1.4344624 0.27336064
0001c0 4f fd 2e 3d bc 93 fd be 0f f7 ab 3e 93 14 ef bc
       0.042722043 -0.49526775 0.33586928 -0.029184615
0001d0 47 2d ae 3e 91 c4 c7 bf bd 50 38 bf f8 2f da bf
       0.3401892 -1.5606862 -0.71998197 -1.7045889
0001e0 7b 84 26 bf 27 04 a2 bf 13 6c 7b bf 59 b1 6c 3e
       -0.650459 -1.2657517 -0.98211783 0.23114528
0001f0 0d f2 a6 3e 9c b0 51 bf 66 c4 a2 3e 28 ac 34 bf
       0.32606545 -0.8191011 0.31790465 -0.7057519
000200 d9 e7 a6 3e 18 da 9e 3e 33 f3 cc 3e ba aa b5 3e
       0.3259876 0.31025767 0.40029296 0.35481817
000210 c1 bc 7a bf c2 44 6f 3e 85 e7 61 bf 9d 7f af 3e
       -0.97944266 0.23366073 -0.88243896 0.3427705
000220 df 7d b7 bd 01 72 01 bf 21 95 35 bf f3 e9 a2 3e
       -0.08959555 -0.5056458 -0.7093068 0.31819114
000230 63 ec 65 bf 21 ad 72 3e 8e 83 ae bd 01 a7 d5 bf
       -0.8981382 0.23698856 -0.08521186 -1.669159
000240 e8 37 ae bf 85 bd ad 3e 81 ac 93 3e 8f 40 ba 3e
       -1.3610811 0.33933654 0.28842548 0.3637738
000250 d3 dd 50 bf ae 7d bc 3e 06 5b 72 bf fc 9f 5a bf
       -0.81588477 0.36814636 -0.9467014 -0.85400367
000260 74 61 e8 3e 2f fe a6 bf da c1 a8 3d 74 54 a8 bf
       0.4538685 -1.3046321 0.08240099 -1.3150773
000270 9a d2 7e bf 57 39 b8 bf c8 c2 77 3e ac c0 a6 bf
       -0.995401 -1.4392499 0.24195397 -1.3027549
000280 64 af 49 3e 36 77 b3 bf 65 55 54 bf 09 8e 45 bf
       0.19695812 -1.4020755 -0.829428 -0.77169853
000290 2f 08 a2 3e d5 41 28 3e ae d8 8c bf dd ce 8b 3e
       0.3164687 0.16431363 -1.1003625 0.27306262
0002a0 fd 7c 3e 3e 07 f9 32 bf ed 5c 13 be 59 13 af bf
       0.18602367 -0.69911236 -0.14390917 -1.367778
0002b0 fc 86 08 bf 37 6e ac 3e 96 f2 64 bf 2c 2e 3c bf
       -0.5333097 0.33677837 -0.89432657 -0.7350795
0002c0 ef 2c 9a bf 65 2b 91 bf 5b 4d 8c bf ba 5a 85 3e
       -1.2044963 -1.1341368 -1.0961107 0.2604578
0002d0 32 57 50 3e 88 72 a0 bf dd 86 49 3e fe 1d 48 be
       0.20345762 -1.2534952 0.19680353 -0.19542691
0002e0 bd c8 00 3f cd 5a ab 3e 6c 80 97 3e 1a 8d 86 bf
       0.503063 0.33467713 0.29590166 -1.0511811
0002f0 0d 01 b4 3e df 67 9a bf 9c ad a2 bf 23 77 44 bf
       0.35157052 -1.2062949 -1.2709231 -0.7674429
000300 e7 39 63 3e e4 ae a4 bf fa 5b 86 3e 49 fb a1 be
       0.22190057 -1.2865872 0.26242048 -0.31637028
000310 82 4b dd bf 8b 63 b5 3e dc 45 82 3e 9f 74 b3 be
       -1.7288668 0.35427508 0.25443923 -0.35049912
000320 c0 72 91 3e 19 29 91 3e 01 66 df 3e 38 88 be bf
       0.2840786 0.28351668 0.4363251 -1.4885321
000330 fe 17 f6 3d 5e 3c e6 bd b8 7b 0c bf 45 56 e6 be
       0.12016295 -0.11241983 -0.5487628 -0.44987693
000340 97 5f 5c bf 2e 6f 16 3d 01 8e ff be 36 09 e7 bf
       -0.8608336 0.036727123 -0.49913028 -1.8049686
000350 1e 44 4a bf 46 ee ec be f9 f7 58 3e 65 44 66 bf
       -0.7901019 -0.46275538 0.21188344 -0.8994811
000360 25 68 62 3e f1 36 ac 3e 71 a5 c1 bf cc 91 00 be
       0.2211004 0.33635667 -1.5128614 -0.12555617
000370 38 1f 81 3e cd e2 fc be 1a cf aa 3e c4 38 92 bf
       0.2521913 -0.49391785 0.3336113 -1.1423573
000380 c5 b9 e2 bf b8 ea 37 3d 0e dd c1 3e ad 92 a7 3e
       -1.7712942 0.04490158 0.37863964 0.32729092
000390 80 5e f6 3e a7 e4 b9 3e be 05 f6 be 8f 4f 9e 3e
       0.48118973 0.3630726 -0.48051256 0.30920073
0003a0 c1 35 cc bf 76 69 2c bf 2d 1f 78 bf b4 6e 7b 3e
       -1.5953904 -0.6734842 -0.9692257 0.24553949
0003b0 2c a3 6e 3e 0f 42 cc bf e7 3b c7 bf ec ec 9d 3e
       0.23304433 -1.595766 -1.5565156 0.3084482
0003c0 44 37 a1 3e cf dc 73 bf 43 52 0f bf e5 af 28 be
       0.31487477 -0.952588 -0.55984896 -0.16473348
0003d0 0f 48 00 bf 77 05 ef 3e c7 39 9f bf ef be 91 3e
       -0.5010995 0.46683857 -1.2439507 0.28465983
0003e0 3e 50 cb bf 44 be e8 be c9 fe 9f 3e ad 77 9d be
       -1.5883863 -0.4545766 0.31249073 -0.30755368
0003f0 38 76 c8 bf a5 81 90 bf 0d a9 74 3e 67 cd d8 be
       -1.5661077 -1.1289564 0.23892613 -0.4234421
