bots/Tyrion.chatbot/Tyrionconverted_model.tflite (tflite, 233156 bytes, 4 tensors)

in/MatMul_bias f4 [64]
0	0x3e4d58f9	0.20053472
1	0x3e77efe7	0.24212609
2	0x3e875ac3	0.26436433
3	0x3e6bbbca	0.23020855
4	0x3e3f87d3	0.18704157
5	0x3e75b5a4	0.23995072
6	0x3e5bb87e	0.21457097
7	0x3e890b97	0.26766655
8	0x3e825ce9	0.2546151
9	0x3e9da81d	0.30792323
10	0x3e87472b	0.26421484
11	0x3e996422	0.29959208
12	0x3eaf266b	0.34208998
13	0x3e82f894	0.25580275
14	0x3ebb0d4d	0.36533585
15	0x3e2841be	0.16431329
16	0x3e4e1390	0.2012465
17	0x3e9faf57	0.3118846
18	0x3ea8027f	0.32814404
19	0x3e8bd3bd	0.2730998
20	0x3e8ab74d	0.27092972
21	0x3e607ddf	0.21923016
22	0x3e9c6d42	0.30552107
23	0x3e805e65	0.25072017
24	0x3ec8d9a0	0.39228535
25	0x3ea017be	0.31268114
26	0x3e91ffd3	0.2851549
27	0x3ea54e3f	0.3228626
28	0x3e909432	0.28238064
29	0x3e61bbc3	0.22044282
30	0x3e998cec	0.29990327
31	0x3e8fe0da	0.28101236
32	0x3eb60fd9	0.35558966
33	0x3e93fc47	0.2890341
34	0x3e8daa8c	0.2766918
35	0x3e206ffc	0.15667719
36	0x3e96fc56	0.29489392
37	0x3e8a8cfe	0.27060694
38	0x3e8c01ca	0.27345115
39	0x3eaefd2a	0.34177524
40	0x3e3f80e8	0.18701518
41	0x3e90fff1	0.28320268
42	0x3e8c7d1f	0.2743921
43	0x3e6948d5	0.2278169
44	0x3e5da82e	0.21646187
45	0x3e7d9427	0.24763547
46	0x3e810ceb	0.25205168
47	0x3e9bf728	0.30462003
48	0x3e89e5db	0.26933178
49	0x3eace0e2	0.33765322
50	0x3e77f6f2	0.24215296
51	0x3e8d38d5	0.27582422
52	0x3e7d089d	0.24710317
53	0x3ea01915	0.31269136
54	0x3e63e4fa	0.22255316
55	0x3e87d5eb	0.26530394
56	0x3e8e6f28	0.2781918
57	0x3e19c266	0.15015563
58	0x3e2f7b58	0.17136896
59	0x3e9abb9c	0.3022126
60	0x3e785b96	0.24253687
61	0x3e96fa40	0.294878
62	0x3e7e6f61	0.24847175
63	0x3e966bbd	0.29379073

in/kernel/transpose f4 [64, 862]
0	0xbe4d2160	-0.20032263
1	0xbdef0943	-0.116716884
2	0xbda3a420	-0.07990289
3	0xbd57e2d1	-0.052706543
4	0xbd30a0f7	-0.043122258
5	0xbda9bcf3	-0.08287992
6	0xbe32f08c	-0.17474574
7	0xbe76bc35	-0.24095233
8	0xbda353b0	-0.079749465
9	0x3e826380	0.25466537
10	0xbe04949e	-0.12947318
11	0x3df491c7	0.11941867
12	0x3e067226	0.13129482
13	0x3dd9afdc	0.10629246
14	0x3e4980e6	0.19678077
15	0xbddc92b8	-0.10770172
16	0xbe4ef4de	-0.20210597
17	0x3e92dcca	0.28684074
18	0xbc25d499	-0.010121488
19	0xbce18082	-0.027527098
20	0x3d8525a0	0.06501317
21	0x3ca75212	0.020424876
22	0xbe4f393f	-0.20236681
23	0x3e0bdd23	0.13658576
24	0x3e7e4739	0.24831857
25	0x3e4508dc	0.19241661
26	0x3e87dc56	0.2653529
27	0xbd6f078c	-0.058356807
28	0x3e834fa6	0.25646704
29	0x3e6fb9e7	0.2341076
30	0x3e7f20eb	0.24914901
31	0xbd3d0b81	-0.04615355
32	0x3e1b01ca	0.15137401
33	0x3e9c7f6a	0.3056596
34	0x3e68c32c	0.22730702
35	0xbe494a10	-0.19657159
36	0x3e639309	0.22224058
37	0x3e87da2a	0.26533633
38	0x3e886c29	0.2664502
39	0x3e085e37	0.1331719
40	0xbde2601c	-0.11053488
41	0xbbae5763	-0.005320476
42	0xbde08ab7	-0.10963958
43	0xbe0d0253	-0.13770418
44	0x3e78e4dc	0.24306053
45	0x3df29212	0.11844267
46	0x3e4ebc04	0.2018891
47	0xbdb69e73	-0.089169405
48	0xbe18d5cb	-0.14925306
49	0xbdb2e828	-0.087356865
50	0xbe3462d1	-0.1761582
51	0xbe4a7e40	-0.19774723
52	0x3d03a151	0.032136265
53	0xbde3a699	-0.1111576
54	0x3e9f4b07	0.3111193
55	0xbdd3c93b	-0.10341116
56	0xbe68a944	-0.2272082
57	0x3dbf3eb9	0.09338135
58	0xba903e29	-0.0011004853
59	0xbe136912	-0.1439555
60	0x3c88340f	0.016626386
61	0xbd30344c	-0.043018624
62	0xbd054a5f	-0.03254163
63	0xbdd7ac1b	-0.105308734
64	0xbdc7b85a	-0.09751959
65	0xbdbe6ffb	-0.09298702
66	0x3df39098	0.118928134
67	0xbe4115b8	-0.18855941
68	0x3deb6549	0.11493928
69	0xba8861d8	-0.0010405136
70	0x3c535ae4	0.012900088
71	0x3ed5ed94	0.4178282
72	0x3e8a662a	0.2703107
73	0x3ddf734e	0.109106645
74	0x3eb15e52	0.34642273
75	0xbe6007fc	-0.21878046
76	0x3cf15b7b	0.029462567
77	0x3e60ea1c	0.21964306
78	0xbde39ba9	-0.11113674
79	0x3e856676	0.26054734
80	0xbdbc187d	-0.09184358
81	0x3e594d90	0.21220994
82	0x3e66c4b7	0.22535978
83	0xbcd5d8e9	-0.026104407
84	0xbe2cd728	-0.1687895
85	0x3e6b1e24	0.22960716
86	0xbe0c2593	-0.13686208
87	0xbde29d88	-0.11065203
88	0x3e71af99	0.23602141
89	0x3e38301f	0.17987107
90	0x3dd639df	0.10460257
91	0xbd86a630	-0.065746665
92	0xbc88b109	-0.01668598
93	0x3df5b0c3	0.11996605
94	0xbd35691a	-0.044289686
95	0x3e3dca28	0.18534148
96	0xbdce9ebc	-0.1008887
97	0xbdfd3b01	-0.1236477
98	0xbcfbff9d	-0.030761534
99	0xbdd2631c	-0.1027281
100	0x3e6ba65c	0.2301268
101	0xbe104477	-0.14088617
102	0xbdc6aabf	-0.09700536
103	0xbd1a7e3f	-0.037718054
104	0xbd0406ad	-0.03223293
105	0xbe79686e	-0.24356243
106	0xbea071db	-0.31336865
107	0x3de4a17c	0.11163613
108	0x3e5415fe	0.20711514
109	0xbdab7d95	-0.08373562
110	0xbe574f25	-0.21026285
111	0xbe2edfd1	-0.17077567
112	0x3e95a23c	0.29225338
113	0x3dab4d59	0.08364362
114	0x3ea84306	0.32863635
115	0x3cf89e5b	0.030348947
116	0x3e624922	0.2209821
117	0x3e1e2865	0.15445097
118	0x3e51d070	0.20489669
119	0x3b157b58	0.0022809114
120	0xbe5ad57b	-0.21370499
121	0xbdebf5e0	-0.11521506
122	0xbe2eb980	-0.1706295
123	0xbd997d65	-0.0749462
124	0xbdd2c0a4	-0.102906495
125	0xbe50101e	-0.20318648
126	0x3e4ebeab	0.20189922
127	0xbde3e3ef	-0.11127459
128	0x3e327e68	0.17431033
129	0x3da9ba42	0.08287479
130	0x3e1eee0e	0.15520498
131	0x3e13bbfb	0.14427178
132	0xbde19323	-0.11014392
133	0x3e30664d	0.17226525
134	0x3d3eed6c	0.046613142
135	0x3e4b1d6f	0.19835447
136	0x3ea15002	0.31506354
137	0x3e0676b8	0.13131225
138	0x3e497f4d	0.19677468
139	0x3cee2958	0.029072449
140	0x3e1a4ec3	0.15069108
141	0x3e0893fe	0.13337705
142	0xbdcb5e68	-0.09930116
143	0x3e80ea4f	0.25178763
144	0x3e5388c6	0.20657644
145	0xbe0800b3	-0.13281517
146	0xbd3520f6	-0.044220887
147	0xbd1ab746	-0.03777244
148	0xbe86c47a	-0.26321775
149	0xbe5f83cf	-0.21827625
150	0xbe154bb6	-0.14579663
151	0x3de3e2df	0.111272566
152	0x3e61e569	0.2206017
153	0x3d83cc99	0.06435508
154	0xbac7dd15	-0.0015248383
155	0xbd9ac482	-0.07557012
156	0xbe0b7bcd	-0.13621445
157	0x3dbb5276	0.091465876
158	0xbd019222	-0.031633504
159	0xbd3d8d4d	-0.046277333
160	0xbccfb04a	-0.025352616
161	0xbce4733b	-0.027886977
162	0xbe92270b	-0.28545412
163	0x3cb1ee04	0.02171994
164	0x3e5f236d	0.21790858
165	0xbe2e24c3	-0.17006211
166	0x3e712002	0.23547366
167	0x3e503507	0.20332728
168	0x3c2f61c5	0.010704462
169	0x3cb70eb2	0.022345874
170	0xbd587ff8	-0.052856416
171	0xbbef4568	-0.007301975
172	0x3e1f9128	0.15582716
173	0x3df525f0	0.11970127
174	0xbe2331de	-0.15936992
175	0xbdbbfe61	-0.09179378
176	0xbdb067cf	-0.0861355
177	0xbd5b3ffa	-0.05352781
178	0xbd9c3da3	-0.07628944
179	0xbd4bbc3f	-0.049740072
180	0x3e994719	0.29937056
181	0x3e962744	0.29326832
182	0x3dd5cef9	0.104398675
183	0x3d905e59	0.070492454
184	0x3db99bec	0.09062943
185	0x3e32b21c	0.17450756
186	0x3d016e4f	0.03159934
187	0xbd73b68b	-0.05950026
188	0xbe209cc2	-0.15684798
189	0x3e544aa4	0.20731598
190	0x3d3fad1d	0.046795953
191	0x3e25f739	0.16207589
192	0x3e2a231f	0.1661496
193	0x3e3b0c4a	0.18266407
194	0x3e2c2d60	0.16814184
195	0x3e9b54b7	0.3033807
196	0xbd546a99	-0.051859472
197	0x3e37f4cc	0.17964476
198	0x3e53e3ea	0.20692411
199	0x3e380910	0.17972207
200	0x3ce2e259	0.027695822
201	0x3ea08a4a	0.31355506
202	0xbdd88555	-0.10572306
203	0xbd619a47	-0.05507877
204	0xbe2dac35	-0.16960223
205	0xbde20fcc	-0.11038169
206	0x3e87d380	0.2652855
207	0x3e486f0e	0.19573614
208	0x3eb74d8a	0.35801345
209	0xbdfa5473	-0.12223139
210	0xbe36a18c	-0.17835063
211	0xbdabcd08	-0.08388716
212	0xbddc1b67	-0.10747414
213	0xbe61523a	-0.22004023
214	0x3e425427	0.18977414
215	0x3e5a5d2b	0.21324603
216	0xbcdde6a8	-0.027087525
217	0x3cd4691f	0.025929032
218	0xbd8c304f	-0.06845152
219	0xbe237808	-0.15963757
220	0xbd098350	-0.033572495
221	0x3e55280b	0.20816056
222	0x3e31a8a9	0.17349495
223	0x3df82780	0.12116909
224	0x3e8e98d7	0.27850983
225	0x3dab17bb	0.083541356
226	0x3ec5be91	0.38621953
227	0xbd33f218	-0.04393205
228	0x3eb0aeba	0.34508306
229	0x3cb462c7	0.022019757
230	0x3dc4fceb	0.09618553
231	0xbe14bb16	-0.14524493
232	0xbda88f8c	-0.082305044
233	0x3ea05910	0.3131795
234	0x3e9fd8b4	0.3122002
235	0xbdce3e49	-0.10070474
236	0xbdd8eef8	-0.10592455
237	0xbe219896	-0.15780863
238	0xbe7405c7	-0.23830329
239	0x3dfed31c	0.1244261
240	0xbd9df8a3	-0.07713439
241	0xbe4f8f9e	-0.2026963
242	0xbde43b87	-0.111441664
243	0x3e4f0523	0.20216803
244	0x3d8c3a21	0.06847025
245	0x3cc10c0c	0.023565315
246	0xbd370e3b	-0.044691306
247	0x3e2758cc	0.16342467
248	0xbd0c23fb	-0.034214
249	0xbe0c46bd	-0.1369886
250	0xbd2552cf	-0.040362176
251	0x3ddb1ed2	0.10699238
252	0x3e2836e5	0.1642719
253	0xbdc98e0d	-0.09841547
254	0x3ddd5b49	0.10808427
255	0x3d80d935	0.06291429

out/MatMul_bias f4 [43]
0	0xbae5440d	-0.0017491594
1	0x3cbdd467	0.02317257
2	0xba926217	-0.0011168149
3	0xbd7894c5	-0.060688753
4	0x3dbb8f08	0.091581404
5	0xbd9e19a8	-0.07719737
6	0x3d52d6e5	0.05147447
7	0x3d4d6fc6	0.050155424
8	0xbd5896d7	-0.052878227
9	0xbd721874	-0.05910535
10	0xbbdb20e6	-0.0066872714
11	0xbcbcda64	-0.023053356
12	0xbd868c0d	-0.06569681
13	0x3d076a2d	0.03306024
14	0x3d0e9eee	0.034819536
15	0xbdb92008	-0.090393126
16	0x3dd6cb50	0.104879975
17	0x3d423855	0.047417004
18	0xbc3f3491	-0.011670248
19	0xbde27545	-0.11057524
20	0xbcd7f368	-0.026361182
21	0xbd13bdad	-0.03606956
22	0x3dbe03eb	0.09278091
23	0x3e16854e	0.14699289
24	0x3d72791e	0.059197538
25	0xbe1790dc	-0.14801353
26	0x3ced53a2	0.028970543
27	0xbe05626d	-0.13025828
28	0x3cafa68e	0.021441724
29	0xbd247809	-0.040153537
30	0x3c85c65d	0.016329939
31	0xbc7041d6	-0.014664134
32	0xbe234b0a	-0.15946594
33	0x3d8b7dd1	0.06811107
34	0x3ce3d31c	0.027810626
35	0x3d81bc88	0.063347876
36	0xbdbd3116	-0.09237878
37	0x3e078070	0.13232589
38	0xbda14a73	-0.07875528
39	0xbc1eb7c3	-0.009687367
40	0x3d51d563	0.051228892
41	0xbe4a2db9	-0.19744004
42	0x3cfc0942	0.030766133

out/kernel/transpose f4 [43, 64]
0	0xbf954b23	-1.1663555
1	0x3eba15c7	0.3634474
2	0xbf37df49	-0.7182508
3	0x3e922634	0.28544772
4	0xbe9473c5	-0.28994575
5	0xbef38eb7	-0.4756982
6	0x3e90f376	0.28310746
7	0xbf5cf80f	-0.8631601
8	0xbf001571	-0.50032717
9	0xbf659c7e	-0.89691913
10	0x3e6fa1d8	0.23401582
11	0xbf887704	-1.0661321
12	0xbf7a3fbe	-0.9775351
13	0x3ea58df2	0.32334858
14	0xbf594299	-0.84867245
15	0x3e3860ab	0.18005626
16	0xbf31beb0	-0.6943159
17	0x3e77887e	0.24173161
18	0x3d4bf4a0	0.04979384
19	0xbf43be26	-0.7646202
20	0xbf0dd033	-0.5539581
21	0xbf5424d1	-0.8286868
22	0xbe5e3b45	-0.21702297
23	0xbf1dad5e	-0.6159266
24	0xbe9e8987	-0.309643
25	0x3ec7539f	0.38930985
26	0xbf21d2ce	-0.6321229
27	0xbf28238f	-0.6567926
28	0xbe43b805	-0.19113167
29	0xbf677efd	-0.90428144
30	0x3eaccd89	0.3375056
31	0xbea29601	-0.3175507
32	0x3e3c34d0	0.18379521
33	0x3ec9681a	0.39337236
34	0x3e96f062	0.29480273
35	0x3ebcbc69	0.36862496
36	0x3e8f1a53	0.2794977
37	0x3ec65421	0.3873606
38	0x3ec5610a	0.38550597
39	0x3d84d8e2	0.064866796
40	0x3ebc9848	0.3683493
41	0x3e78009c	0.24218982
42	0x3e90b94b	0.28266367
43	0xbf7d9479	-0.99054676
44	0x3ed9bac4	0.42525303
45	0xbf838555	-1.0275065
46	0x3e75af8d	0.23992749
47	0xbe083812	-0.13302639
48	0xbf2fc790	-0.68663883
49	0x3e59cbf5	0.2126921
50	0xbf7a5468	-0.97785044
51	0x3ea4a155	0.32154337
52	0xbee3218d	-0.44361535
53	0xbfafcb56	-1.3733928
54	0x3e8dede5	0.27720562
55	0xbeaa99ed	-0.3332056
56	0xbf3b2ab0	-0.7311201
57	0x3e89b5be	0.2689647
58	0x3e9c28c0	0.3049984
59	0x3e4cebae	0.2001178
60	0xbf9b7711	-1.2145711
61	0xbf8e2ef8	-1.1108084
62	0xbed7afbb	-0.4212626
63	0xbe23b494	-0.15986854
64	0x3e334381	0.1750622
65	0x3e934b86	0.28768557
66	0x3e8c8b5b	0.2745007
67	0xbf630d3a	-0.8869206
68	0xbf543179	-0.8288799
69	0xbd636a32	-0.055521198
70	0xbd96bdac	-0.07360396
71	0x3ec42573	0.3830982
72	0x3ebb920b	0.3663486
73	0xbf06536c	-0.5247104
74	0x3eb68d24	0.35654557
75	0x3d9ee3db	0.07758304
76	0xbf069f1b	-0.52586526
77	0xbde198ab	-0.11015447
78	0x3e9e81ac	0.30958307
79	0xbf28bcc7	-0.6591305
80	0x3e78b4aa	0.24287668
81	0xbf41d3c4	-0.75713754
82	0x3f00b9b5	0.50283366
83	0x3e95d201	0.29261783
84	0xbfa5eb18	-1.296237
85	0xbb937809	-0.0045003933
86	0x3e0fd0b1	0.14044453
87	0xbf8dcae6	-1.1077545
88	0xbf197881	-0.599495
89	0x3ea4f3ad	0.3221716
90	0xbf46334b	-0.77422017
91	0x3ef1dcec	0.47238863
92	0xbf1e700e	-0.6188973
93	0xbf29d0b9	-0.6633411
94	0x3e854708	0.26030755
95	0xbf8b7e2b	-1.0897878
96	0xbf9c15d6	-1.2194164
97	0x3eaa5edb	0.33275494
98	0x3eb4c024	0.35302842
99	0x3e64878a	0.22317329
100	0xbf9333b7	-1.1500157
101	0xbed70198	-0.41993403
102	0xbf53cf0f	-0.8273782
103	0xbe1dcace	-0.15409395
104	0xbfb172cf	-1.3863162
105	0xbe5abead	-0.213618
106	0x3e907adb	0.2821873
107	0x3e5806e9	0.21096386
108	0xbf627685	-0.88462096
109	0x3edac41f	0.42727754
110	0xbe896a80	-0.26839066
111	0xbfb82ab4	-1.4388032
112	0xbdbaed9a	-0.0912735
113	0x3e1b6d27	0.15178357
114	0xbe494cb9	-0.19658174
115	0xbd99ef68	-0.07516366
116	0xbedd138c	-0.43178976
117	0x3eb90567	0.36136934
118	0x3e84f739	0.25969866
119	0x3e68af6e	0.22723171
120	0xbf5098ba	-0.8148304
121	0xbf3cb23e	-0.73709476
122	0xbf9231b8	-1.1421423
123	0xbf2d398e	-0.67665946
124	0xbf86843f	-1.0509108
125	0x3eb6ea99	0.3572586
126	0xbed4ef5f	-0.41588876
127	0x3e72bd25	0.23704965
128	0xbeb8e740	-0.3611393
129	0xbeab0e41	-0.33409312
130	0x3ea088d4	0.31354392
131	0xbf9bce1c	-1.2172275
132	0x3eac445a	0.33645898
133	0x3e6234f6	0.22090515
134	0xbf93c385	-1.1544043
135	0x3e88cc16	0.26718205
136	0xbf55bfb8	-0.83495665
137	0x3eb14c84	0.3462869
138	0x3eed6dd5	0.46372858
139	0x3e4e9ed9	0.20177783
140	0xbf523c2d	-0.8212307
141	0x3e9229c0	0.28547478
142	0xbfb2e014	-1.3974633
143	0xbf4bedad	-0.7965954
144	0xbf2aa8e4	-0.66663957
145	0x3e8fe6f3	0.28105888
146	0x3e7bdab1	0.24595143
147	0x3e8cc9e3	0.27497777
148	0x3e5719f6	0.21005997
149	0xbf5de281	-0.8667374
150	0x3e929921	0.28632453
151	0x3e53d503	0.20686726
152	0x3ea0cbf8	0.31405616
153	0xbea8a899	-0.3294113
154	0xbe93ed6e	-0.28892082
155	0xbe8c0f5a	-0.27355462
156	0x3ecd5bd4	0.40109122
157	0xbf07ef21	-0.53099257
158	0xbeb04e78	-0.34434867
159	0x3e9bd400	0.3043518
160	0xbf219275	-0.631141
161	0xbf8110b0	-1.0083218
162	0xbeabd162	-0.33558184
163	0xbef1f8ea	-0.4726022
164	0x3e458157	0.1928762
165	0xbe602208	-0.21887982
166	0x3ebc8f11	0.368279
167	0x3ed2c9f2	0.41169697
168	0xbf87cbd9	-1.0609084
169	0xbf9b9001	-1.2153322
170	0xbf864480	-1.0489655
171	0xbf887d35	-1.066321
172	0xbf7370ae	-0.9509381
173	0xbfa2afb0	-1.2709866
174	0x3ed1659d	0.40897837
175	0x3eabf6a1	0.335866
176	0xbed6d81b	-0.4196175
177	0x3e895975	0.26826063
178	0xbf39e4f1	-0.7261496
179	0xbee2f8a6	-0.4433033
180	0xbf534a10	-0.82534885
181	0x3e3593f8	0.17732227
182	0xbf596045	-0.8491252
183	0x3ed75ad7	0.42061493
184	0x3ec3a961	0.38215163
185	0xbcfba5ba	-0.030718673
186	0xbee37485	-0.44424835
187	0xbe032d0e	-0.12810156
188	0xbf1913b7	-0.5979571
189	0xbf9f33c8	-1.2437677
190	0x3dfb10f5	0.12259094
191	0x3ea030b2	0.31287152
192	0x3de20701	0.11036492
193	0xbf5dbc98	-0.86615896
194	0xbfa76e7d	-1.3080593
195	0x3eb286c3	0.3486844
196	0x3e6fb4ae	0.23408768
197	0x3eb54cfc	0.35410297
198	0x3ebd01aa	0.36915332
199	0x3eab1d01	0.33420566
200	0x3e7c8e36	0.24663624
201	0xbee86282	-0.45387655
202	0xbebd4483	-0.36966333
203	0xbd8631f2	-0.06552495
204	0xbe638920	-0.22220278
205	0x3ed1f0dc	0.41004074
206	0xbc743eac	-0.01490752
207	0xbf51ebb8	-0.82000303
208	0xbedb2169	-0.42798927
209	0xbf70e58c	-0.9410026
210	0xbe440b1c	-0.19144863
211	0xbf51be41	-0.8193093
212	0xbf2f92f3	-0.685836
213	0xbab347eb	-0.001367805
214	0xbfa8e6fb	-1.319549
215	0xbf97c8c5	-1.1858145
216	0xbf8aa884	-1.0832677
217	0x3e94f8e2	0.29096133
218	0x3ea38d06	0.3194353
219	0x3ebc8af3	0.3682476
220	0xbf83dc94	-1.030169
221	0x3e5bff3d	0.21484084
222	0x3e289f71	0.16467072
223	0xbf962d41	-1.173256
224	0xbf787aa3	-0.9706213
225	0xbedb3dba	-0.4282053
226	0x3e603a08	0.21897137
227	0xbe7f8fcf	-0.24957202
228	0xbfa74d36	-1.3070438
229	0x3ec2f9b0	0.3808112
230	0x3e81b611	0.25334218
231	0x3ec174f1	0.37784532
232	0xbefe5c88	-0.4967997
233	0x3eb7d624	0.35905564
234	0xbe5f971d	-0.21834989
235	0x3e981134	0.29700625
236	0xbe6d5b0b	-0.23179261
237	0xbeb5f524	-0.3553859
238	0x3e90a688	0.28252053
239	0xbfa9aa01	-1.3255006
240	0x3ec27b74	0.37984812
241	0xbf9bb94b	-1.2165922
242	0x3e62e744	0.22158533
243	0xbe41894e	-0.18900034
244	0xbcf0fca1	-0.029417338
245	0x3edbaa8f	0.42903563
246	0x3e603042	0.21893409
247	0x3dc6a201	0.096988685
248	0xbec5e562	-0.38651568
249	0x3ec6f34b	0.38857493
250	0xbeccead1	-0.400229
251	0xbf344cff	-0.70429987
252	0xbf628164	-0.88478684
253	0xbc66ad70	-0.014079437
254	0x3ea7213e	0.3264255
255	0x3eaf2535	0.34208074
