bots/Terminator.chatbot/Terminatorconverted_model.tflite (tflite, 139380 bytes, 4 tensors)

in/MatMul_bias f4 [64]
0	0x3e85635c	0.26052368
1	0x3e357aee	0.17722675
2	0x3e51701e	0.20452926
3	0x3e80d766	0.25164336
4	0x3e6b4204	0.22974402
5	0x3e90c9ed	0.28279057
6	0x3e9f538f	0.31118438
7	0x3e4fcf27	0.20293866
8	0x3e6b62b3	0.2298687
9	0x3e35534f	0.17707561
10	0x3e1eabbd	0.154952
11	0x3e8baf04	0.27281964
12	0x3e9c506f	0.30530116
13	0x3e612393	0.21986227
14	0x3e530487	0.20607196
15	0x3e8ad142	0.27112776
16	0x3e19a0a8	0.15002692
17	0x3ea808f1	0.32819322
18	0x3e91ebf8	0.28500342
19	0x3e572847	0.21011458
20	0x3e30e26c	0.17273873
21	0x3e37ee48	0.17961991
22	0x3e334fb8	0.17510879
23	0x3e51f04e	0.20501825
24	0x3e79bb67	0.24387895
25	0x3e83c627	0.25737116
26	0x3e57a943	0.21060662
27	0x3eaa195f	0.33222482
28	0x3e78036d	0.24220057
29	0x3e361831	0.17782666
30	0x3e3628d0	0.17789006
31	0x3e578b7e	0.21049306
32	0x3e59841c	0.21241802
33	0x3e87e81d	0.26544276
34	0x3e82feee	0.2558512
35	0x3e8d7bee	0.27633613
36	0x3e7cd879	0.24691953
37	0x3e5b73d3	0.21430902
38	0x3e816d53	0.2527872
39	0x3e1c0054	0.152345
40	0x3e7cef7d	0.24700733
41	0x3e63518c	0.22199076
42	0x3e4b4002	0.19848636
43	0x3e3a3736	0.18185124
44	0x3e78dac0	0.24302197
45	0x3e2f035d	0.17091127
46	0x3e999e1c	0.3000344
47	0x3e535b2f	0.20640253
48	0x3e4b9865	0.19882353
49	0x3e83dc0d	0.25753823
50	0x3e2ba361	0.16761543
51	0x3e90fcc3	0.28317842
52	0x3e962a16	0.29328984
53	0x3e9bae2e	0.30406326
54	0x3e98886b	0.2979158
55	0x3eb3ac50	0.35092402
56	0x3ea8394e	0.3285622
57	0x3e651620	0.22371721
58	0x3e519619	0.20467414
59	0x3e2f877a	0.17141524
60	0x3e4162ea	0.18885389
61	0x3e89458a	0.26810867
62	0x3e0e45aa	0.13893762
63	0x3e0cbd96	0.13744196

in/kernel/transpose f4 [64, 516]
0	0xbdb19164	-0.08670309
1	0xbd7681a2	-0.06018222
2	0xbe31050d	-0.17287083
3	0xbd6afff0	-0.057372987
4	0x3e2ace87	0.16680346
5	0x3db98ea5	0.090604104
6	0x3df15166	0.11783104
7	0x3e3fdc0a	0.18736282
8	0x3dfba9b4	0.12288228
9	0x3e11b03f	0.14227389
10	0x3dbc428c	0.0919238
11	0x3e8060f4	0.2507397
12	0x3de822f3	0.11334791
13	0x3df74a16	0.12074678
14	0x3d585252	0.05281288
15	0x3e81281c	0.25225914
16	0x3e4f3559	0.20235194
17	0x3e6324e6	0.22182044
18	0xbe342c6c	-0.1759507
19	0x3de2a1f3	0.110660456
20	0x3d8b1d46	0.06792693
21	0xbad65616	-0.001635256
22	0x3de4463b	0.11146208
23	0x3c9e9757	0.019359274
24	0x3e04648a	0.12928978
25	0xbe47c5c7	-0.1950904
26	0x3dc719c7	0.097217135
27	0x3e645e0e	0.22301504
28	0x3e252343	0.16126733
29	0xbd891b4c	-0.066946596
30	0x3e4a78a1	0.19772579
31	0x3e3e4df7	0.18584429
32	0xbdb0d889	-0.08635051
33	0x3d973089	0.07382304
34	0x3cf8ef6e	0.030387606
35	0x3dbf3a9f	0.09337353
36	0xbe1e7458	-0.15474069
37	0x3e41979d	0.18905492
38	0xbd89ca75	-0.06728069
39	0x3e1379c8	0.14401925
40	0x3e30ed95	0.1727813
41	0xbc902547	-0.0175959
42	0x3dd273b8	0.10275978
43	0x3e8655c0	0.26237297
44	0x3dcb922e	0.09939991
45	0x3e07bb75	0.13255103
46	0x3deada89	0.114674635
47	0x3e0cc2c8	0.13746178
48	0x3db2d144	0.087313205
49	0x3e882eb6	0.26598138
50	0x3e2d4984	0.16922575
51	0x3cbae1f7	0.022812827
52	0x3d80efad	0.062957145
53	0x3e3033e5	0.17207296
54	0xbde94bf3	-0.11391439
55	0xbe147009	-0.14495863
56	0xbc3ee1b3	-0.011650491
57	0x3e341e42	0.17589667
58	0x3e728287	0.23682605
59	0xbe1c07d6	-0.15237364
60	0x3e71d3e0	0.2361598
61	0x3dcad5e8	0.09904081
62	0x3d1e3e9f	0.03863394
63	0x3dc69659	0.09696645
64	0x3d714ee8	0.05891314
65	0x3d5c6d10	0.053814948
66	0x3e423ad8	0.1896776
67	0xbddfedbf	-0.10934018
68	0x3d7be335	0.06149598
69	0x3e234fda	0.1594843
70	0x3e1cb204	0.15302283
71	0xbd21bdc6	-0.039487623
72	0xbda581ea	-0.0808142
73	0xbdecf670	-0.11570442
74	0xbe473414	-0.1945346
75	0xbcfb92a5	-0.030709574
76	0xbde101f1	-0.109866984
77	0x3c9261c5	0.017868886
78	0xbdd876ef	-0.1056956
79	0xbdf5719b	-0.11984559
80	0x3e3ca4c7	0.18422233
81	0xbdc43795	-0.09580914
82	0x3e986ae1	0.29769042
83	0x3e9143ba	0.28371984
84	0x3dd314f6	0.10306732
85	0x3dda182e	0.10649143
86	0x3d974783	0.07386687
87	0x3d96ab02	0.07356836
88	0x3e5baf89	0.2145368
89	0x3d982c31	0.07430304
90	0x3daec62c	0.08533892
91	0x3e01d376	0.12678322
92	0xbdea53de	-0.11441778
93	0xbe3aff0f	-0.1826136
94	0x3d42f55e	0.04759728
95	0x3de2f223	0.1108134
96	0xbda10c2f	-0.07863652
97	0xbe2df32c	-0.16987294
98	0x3e75e72c	0.24013966
99	0x3e4ef2b4	0.20209771
100	0x3e8f5881	0.2799721
101	0xbe00072e	-0.12502739
102	0xbc03f16a	-0.008053163
103	0xbdbe5a05	-0.092945136
104	0x3e5854b0	0.21126056
105	0x3e86ac3f	0.26303288
106	0x3e232b54	0.15934497
107	0xbbddbbe5	-0.0067667835
108	0x3e0ac97d	0.13553424
109	0xbd2bf6d5	-0.041983444
110	0xbd04ccbb	-0.03242181
111	0x3e023b48	0.12717927
112	0x3ce1a149	0.027542727
113	0x3e8de9d7	0.27717468
114	0xbd5aff4d	-0.05346613
115	0x3dc2d79f	0.09513783
116	0x3e5a8a32	0.2134178
117	0x3e350c9b	0.1768059
118	0x3e5a320e	0.21308157
119	0x3e4fc9d7	0.2029184
120	0xbd38e1aa	-0.045137085
121	0x3b1d5ec0	0.0024012774
122	0x3e052b65	0.13004835
123	0x3e476abf	0.19474314
124	0x3cabe160	0.02098149
125	0x3e31c59d	0.1736054
126	0x3e9b13b5	0.30288473
127	0x3b8fd399	0.004389238
128	0x3e5c81e2	0.21533921
129	0x3dfb4894	0.122697026
130	0xbd874cb7	-0.06606429
131	0xbe18d2b1	-0.14924122
132	0xbd17792e	-0.0369808
133	0x3e1946ca	0.1496841
134	0x3e483dba	0.19554797
135	0x3d9c106a	0.07620318
136	0xbe7b4174	-0.24536687
137	0xbe62cb94	-0.22147971
138	0xbda06e70	-0.07833564
139	0x3d892593	0.0669662
140	0x3d834adf	0.06410765
141	0xbc82f238	-0.01598464
142	0x3dbac8b1	0.0912031
143	0x3dda7cbe	0.10668324
144	0xbdd22bd8	-0.10262269
145	0xbe0aeb36	-0.13566288
146	0x3ea1c9f4	0.3159939
147	0x3e31cd27	0.17363416
148	0x3dd66aab	0.10469564
149	0x3e036c3f	0.12834261
150	0x3dfc66e3	0.123243116
151	0xbe0008a8	-0.12503302
152	0x3d76a91e	0.060219876
153	0x3dfb4eeb	0.12270912
154	0x3e1b9e5f	0.15197133
155	0xbdb1c3bf	-0.08679914
156	0xbd9ad0ca	-0.075593546
157	0x3e23803c	0.15966886
158	0x3e197416	0.1498569
159	0x3bdc879b	0.0067300326
160	0xbde28a21	-0.11061502
161	0x3daaad67	0.08333855
162	0xbe005364	-0.12531811
163	0xbe0de497	-0.13856731
164	0x3daffa0f	0.08592617
165	0x3e040c94	0.12895423
166	0x3e0d5eef	0.13805746
167	0x3c2a3fe8	0.010391213
168	0x3dff1639	0.124554105
169	0x3e4c9b18	0.19981039
170	0x3e530cc1	0.20610334
171	0x3e10faf1	0.14158227
172	0xbd3db53d	-0.04631542
173	0xbdbe3fa5	-0.09289483
174	0x3ba08d3f	0.0048996503
175	0x3e0fba39	0.14035882
176	0xbe02c72d	-0.12771292
177	0x3dfdb7ea	0.123885944
178	0x3e73a032	0.23791578
179	0xbd5f7f24	-0.05456461
180	0xbd62d890	-0.05538231
181	0xbdd8b221	-0.105808504
182	0x3d81fc5a	0.0634696
183	0xbe83fca5	-0.2577869
184	0x3dfbb8c0	0.12291098
185	0xbda0943c	-0.078407735
186	0x3e3aef15	0.18255265
187	0xbd9157ea	-0.070968464
188	0xbde6b300	-0.1126461
189	0xbe03c8f6	-0.1286963
190	0x3e20db51	0.15708663
191	0x3c3d5928	0.011556901
192	0x3e20b426	0.15693721
193	0x3e03623b	0.1283044
194	0x3e071499	0.13191451
195	0x3e268a97	0.16263805
196	0x3d337849	0.043815885
197	0xbe1e0bfc	-0.15434259
198	0xbd675c34	-0.056484416
199	0xbe370349	-0.17872347
200	0x3d3e661a	0.04648409
201	0x3dcfdb3c	0.101492375
202	0x3cd67811	0.026180299
203	0x3c90d99d	0.017681891
204	0x3d82778b	0.06370457
205	0x3e18b0a0	0.14911127
206	0xbdad201f	-0.08453392
207	0x3d10a818	0.035316557
208	0xbe665a74	-0.22495443
209	0xbdb99fa7	-0.090636544
210	0x3de5d32c	0.112219185
211	0xbd236186	-0.039887927
212	0xbde3cc4a	-0.111229494
213	0xbe4f66c5	-0.20254047
214	0xbe0229ee	-0.12711307
215	0xbd8d86ed	-0.06910501
216	0x3d940f95	0.072295345
217	0xbda81ef8	-0.08209032
218	0xbd9e3379	-0.077246614
219	0x3cdd47da	0.0270118
220	0xbe00f57d	-0.12593646
221	0xbb308240	-0.0026933104
222	0xbc0f7e50	-0.008758143
223	0xbddfc9cc	-0.109271616
224	0x3e6c21f6	0.2305983
225	0xbdaf5769	-0.08561594
226	0xbd7a2fe0	-0.061080813
227	0x3e0f81e4	0.14014393
228	0x3dc2f042	0.09518482
229	0x3e2a2cf4	0.16618711
230	0x3ddd68d1	0.10811008
231	0x3e2717c1	0.16317655
232	0x3e14db72	0.14536837
233	0x3e8322a7	0.25612375
234	0x3d528ff4	0.051406816
235	0xbe3d85ff	-0.18508147
236	0xbe552c28	-0.20817626
237	0x3dd503c7	0.10401111
238	0x3e1eb27a	0.15497771
239	0x3d24f2ba	0.040270545
240	0x3d60a597	0.05484542
241	0x3eba7e22	0.36424357
242	0x3e2570fa	0.16156378
243	0x3ea9bfc6	0.33154124
244	0xbdbd2a64	-0.09236601
245	0xbe3c8444	-0.1840983
246	0x3e73d595	0.23811944
247	0x3dddec73	0.10836115
248	0xbd87a630	-0.066234946
249	0x3db6bce7	0.08922749
250	0xbe3aa3a3	-0.18226485
251	0x3de9abcf	0.11409723
252	0x3df16803	0.11787417
253	0xbd9304af	-0.07178628
254	0xbdd25dc3	-0.1027179
255	0x3ae67b46	0.0017584346

out/MatMul_bias f4 [23]
0	0x3da37585	0.079813994
1	0x3de12013	0.10992446
2	0xbcd42f80	-0.025901556
3	0xbdb8ab60	-0.09017062
4	0x3c6338b5	0.0138685005
5	0x3dddd778	0.10832113
6	0x3de8ef88	0.11373812
7	0xbe4ed74e	-0.2019932
8	0xbde4de89	-0.11175258
9	0xbb1c0e22	-0.0023812135
10	0xbcd97976	-0.026547175
11	0xbd15384b	-0.03643064
12	0xbd4e753a	-0.050404765
13	0xbc63cb57	-0.01390346
14	0xbd50c052	-0.05096466
15	0x3d628a67	0.055307772
16	0x3d773515	0.060353357
17	0xbe26cab7	-0.16288267
18	0xbcd6e25b	-0.026230982
19	0x3e0a9b7e	0.13535878
20	0xbd4d38aa	-0.050102867
21	0x3d71d35a	0.05903945
22	0xbdbdb286	-0.09262566

out/kernel/transpose f4 [23, 64]
0	0x3e6b11b5	0.22955973
1	0x3e499162	0.19684365
2	0xbf372d25	-0.7155326
3	0x3e8146df	0.25249383
4	0x3eadc4be	0.33939165
5	0x3e6e8b24	0.23295265
6	0xbecdc6b5	-0.40190664
7	0xbe8df391	-0.2772489
8	0xbefa4789	-0.48882702
9	0xbf71ee29	-0.9450403
10	0xbf38c7f1	-0.72180086
11	0xbf51b865	-0.8192199
12	0x3eafc632	0.343309
13	0xbee7d97c	-0.45283115
14	0xbf00b78c	-0.5028007
15	0x3eaa907a	0.33313352
16	0xbf2b7d53	-0.66988105
17	0x3e8d5a33	0.2760788
18	0x3e58e7a3	0.21182112
19	0xbef20fcc	-0.47277677
20	0xbf50fc70	-0.8163519
21	0xbf0e10ad	-0.55494195
22	0xbf0193e2	-0.50616276
23	0xbf0251de	-0.5090617
24	0xbe9ff998	-0.31245112
25	0xbf02d2b9	-0.5110279
26	0x3eaf4697	0.34233543
27	0xbeeb3c4a	-0.45944434
28	0x3e087f96	0.1332992
29	0xbeb5e310	-0.35524797
30	0xbf4085fb	-0.7520444
31	0x3ead8e9f	0.33897874
32	0x3f028d05	0.5099643
33	0x3e92179d	0.2853364
34	0xbec712d9	-0.38881567
35	0x3e6f61e3	0.23377185
36	0xbe4dd5b4	-0.20101053
37	0x3e9c4174	0.30518687
38	0xbdd937b6	-0.10606329
39	0x3e9334ea	0.28751308
40	0x3e897366	0.26845855
41	0x3d03f246	0.03221347
42	0xbf60b669	-0.87778336
43	0xbf897386	-1.073838
44	0xbf1c539c	-0.6106508
45	0xbe50cd1a	-0.2039074
46	0x3efd57f0	0.49481153
47	0xbdb4a450	-0.088204026
48	0x3e8f98c6	0.28046244
49	0x3d77a663	0.060461413
50	0x3eb736b0	0.3578391
51	0x3ed4eb50	0.4158578
52	0x3e7bc7a5	0.24587877
53	0x3e5eb2ec	0.21747941
54	0xbf2fefda	-0.6872536
55	0x3e469013	0.19390897
56	0x3eba550b	0.36393008
57	0x3eb69b68	0.3566544
58	0xbf5737a8	-0.840693
59	0xbe326b47	-0.17423736
60	0xbf4c2020	-0.7973652
61	0x3e873473	0.26407203
62	0x3ed46f8a	0.41491348
63	0xbf37442b	-0.7158839
64	0xbf31b0b7	-0.6941027
65	0xbf7c0761	-0.9844876
66	0xbf3c58e2	-0.73573124
67	0x3e417b86	0.18894777
68	0x3ecdc1ca	0.40186912
69	0xbf2b39e2	-0.668852
70	0x3ef05552	0.46940094
71	0xbf1ce62e	-0.61288726
72	0x3eac38c8	0.3363707
73	0x3e972ccc	0.29526365
74	0xbef020c7	-0.46900007
75	0x3eb2017b	0.34766755
76	0x3e95a77b	0.2922934
77	0x3efef189	0.49793652
78	0x3e64346f	0.22285627
79	0x3ebff76e	0.3749346
80	0xbf769cb3	-0.96332854
81	0x3e8e8d49	0.27842167
82	0x3e9f4684	0.31108487
83	0xbf6e952e	-0.9319638
84	0x3e795f64	0.24352795
85	0xbf79cc5d	-0.9757746
86	0x3ea329c6	0.31867808
87	0xbf42be2e	-0.7607144
88	0xbf282269	-0.65677506
89	0x3e8eb27e	0.27870554
90	0xbf0d7010	-0.5524912
91	0x3ee6645f	0.44998452
92	0x3e91a517	0.28446266
93	0xbf3904a6	-0.7227272
94	0xbf394049	-0.72363716
95	0xbf3a5f7c	-0.7280195
96	0xbf708e3a	-0.9396702
97	0x3e36aa35	0.17838366
98	0x3e2a5fe3	0.1663814
99	0x3e78df82	0.24304011
100	0x3f00ae2d	0.5026577
101	0x3e2b3a6d	0.16721506
102	0x3e939e54	0.28831732
103	0x3dbc095a	0.09181471
104	0x3eaa7587	0.3329279
105	0x3e23266e	0.15932629
106	0x3d4b57ba	0.04964421
107	0xbf2c4e88	-0.6730733
108	0x3e5e5282	0.21711162
109	0xbf6b1dc4	-0.91842294
110	0x3e5a9475	0.21345694
111	0xbf4083b4	-0.75200963
112	0xbf07ddd9	-0.5307289
113	0x3e93576f	0.28777644
114	0xbf4173bc	-0.7556722
115	0x3ecaf47d	0.39639655
116	0x3e526ac9	0.20548548
117	0x3e2b9f6a	0.1676003
118	0x3ea0e82e	0.3142714
119	0x3e886112	0.2663656
120	0x3ea2e27b	0.31813416
121	0xbf508a80	-0.81461334
122	0x3e3edb3c	0.18638319
123	0xbf2b5524	-0.6692679
124	0xbf184b13	-0.59489554
125	0x3e8bc90d	0.27301827
126	0xbf1da5fa	-0.61581385
127	0xbf2c3c65	-0.67279655
128	0x3e4dfbfc	0.20115656
129	0xbe4d7fdc	-0.20068306
130	0x3e5f11e3	0.21784167
131	0xbec26a24	-0.37971604
132	0xbf53c66f	-0.8272466
133	0xbecd3f17	-0.40087196
134	0xbe09739e	-0.1342301
135	0xbf60f1ea	-0.8786913
136	0xbefc4831	-0.49273828
137	0x3dffe9d8	0.12495774
138	0x3ee24c29	0.4419873
139	0xbf276097	-0.6538176
140	0xbf13f2cd	-0.5779236
141	0xbe9338d9	-0.2875431
142	0xbf5c8b76	-0.861503
143	0xbf3beea5	-0.7341102
144	0xbf55b456	-0.83478296
145	0x3ea48f6f	0.3214068
146	0x3e9acddf	0.30235192
147	0xbef6091c	-0.48053825
148	0x3eb59690	0.35466433
149	0xbf1c531c	-0.61064315
150	0xbee282ff	-0.44240567
151	0xbf18d506	-0.5970005
152	0xbedb0534	-0.42777407
153	0x3eb8d91a	0.36103135
154	0xbf17eb04	-0.5934298
155	0xbeb272c0	-0.34853172
156	0x3eb6b433	0.35684356
157	0xbf141d46	-0.5785717
158	0xbd8b512e	-0.06802593
159	0x3e90a7f5	0.2825314
160	0x3f007505	0.5017856
161	0xbea419ab	-0.32050833
162	0x3ea36aa1	0.3191729
163	0x3ecc8fe5	0.39953533
164	0x3e9103a8	0.28323102
165	0xbf2f570d	-0.68492204
166	0xbf6905c6	-0.91024435
167	0xbf470630	-0.77743816
168	0xbf1e5552	-0.6184894
169	0xbec6d186	-0.3883173
170	0x3ed8559f	0.42252824
171	0xbf4b07ea	-0.7930895
172	0x3ee5f829	0.44915894
173	0x3ea00525	0.31253925
174	0xbf147713	-0.5799419
175	0xbf330480	-0.6992874
176	0xbf17d70f	-0.5931253
177	0xbf50920d	-0.81472856
178	0xbf338c8a	-0.7013632
179	0xbe6ab69d	-0.22921224
180	0xbf7e3cd8	-0.9931159
181	0x3e6d986e	0.23202679
182	0x3ee3f25e	0.4452085
183	0x3ebbbab5	0.36665884
184	0x3e22d471	0.15901352
185	0x3e1b6c8c	0.15178126
186	0x3e8e8e3d	0.27842894
187	0xbf4fada8	-0.81124353
188	0x3e9b34f4	0.30313838
189	0xbf409d45	-0.75239974
190	0x3eaff1f6	0.3436429
191	0x3eb911e5	0.36146465
192	0xbf8416c7	-1.0319451
193	0xbf160ee7	-0.5861649
194	0xbead91b1	-0.33900216
195	0x3ead45d8	0.3384235
196	0xbf09b84a	-0.5379683
197	0xbefe91fd	-0.49720755
198	0xbf0ee8bf	-0.5582389
199	0x3eb0dcb0	0.3454337
200	0x3e9adc03	0.3024598
201	0x3ebc6a0b	0.36799654
202	0xbf591fcb	-0.8481414
203	0xbf2c67ce	-0.67345893
204	0xbf1d1fbd	-0.61376554
205	0x3e6bc791	0.23025347
206	0x3e774eba	0.24151126
207	0xbf48d3bd	-0.78448087
208	0x3ebe6675	0.37187544
209	0xbeaeedb3	-0.34165725
210	0x3e0b2180	0.13586998
211	0x3e82cb57	0.2554576
212	0x3e83b803	0.25726327
213	0xbf449e66	-0.76804197
214	0x3e531f21	0.20617343
215	0x3e972f29	0.29528168
216	0xbf3d1767	-0.73863834
217	0x3ea01c33	0.31271514
218	0x3e41ffb3	0.18945198
219	0xbf17f16a	-0.59352744
220	0x3e832f2b	0.25621924
221	0x3e88ed06	0.26743335
222	0xbee34bcc	-0.44393766
223	0xbf76c019	-0.9638687
224	0x3e7deb96	0.247969
225	0x3e4f83ee	0.20265171
226	0x3e466fc9	0.1937858
227	0x3e178c23	0.14799552
228	0xbf029232	-0.51004326
229	0xbf128c97	-0.57245773
230	0x3e92af9a	0.28649598
231	0x3e7e1e34	0.24816209
232	0x3eaef0aa	0.34167987
233	0x3ebd369f	0.36955735
234	0xbec6a1c0	-0.3879528
235	0x3e864872	0.26227146
236	0x3eaee74e	0.34160846
237	0xbe25e340	-0.1619997
238	0xbecf996d	-0.40546742
239	0x3ea0049a	0.3125351
240	0xbeda4d00	-0.4263687
241	0xbf1322ea	-0.5747515
242	0x3ed7f941	0.42182353
243	0x3ef2d8f8	0.4743116
244	0xbed5ecde	-0.41782278
245	0xbf7c43a3	-0.98540705
246	0xbf25b7ad	-0.6473339
247	0xbe97fe43	-0.29686174
248	0xbf24fc8a	-0.64447844
249	0xbe5c3d7d	-0.21507831
250	0xbf4eb8c4	-0.8075068
251	0x3e9d5866	0.30731505
252	0xbf5e1cf1	-0.8676291
253	0x3e902b32	0.28157955
254	0x3e2fba90	0.17161012
255	0x3e2f2918	0.1710552
