bots/Confucius.chatbot/Confuciusconverted_model.tflite (tflite, 255444 bytes, 4 tensors)

in/MatMul_bias f4 [64]
0.21348032 0.27675337 0.26213062 0.3138719 0.26619947 0.30987602 0.3521698 0.2990841
0.21264029 0.3238764 0.21367168 0.251546 0.23337524 0.30944097 0.20784178 0.2835776
0.28336668 0.18724951 0.26530677 0.29637417 0.2751694 0.25206342 0.25450057 0.24633852
0.30138633 0.2961921 0.23381165 0.2593213 0.25437957 0.26164144 0.25784934 0.22279535
0.3541906 0.25424057 0.27088743 0.26073104 0.25084302 0.24484125 0.2670911 0.23108812
0.2501775 0.22244796 0.24001126 0.23206702 0.27712348 0.2778156 0.2791443 0.24728744
0.31058216 0.31622943 0.22687541 0.20007686 0.3271351 0.23408741 0.25589517 0.28349513
0.2912825 0.29201385 0.25002354 0.30864456 0.23797634 0.23811562 0.2697102 0.2638991
00000000: 969a 5a3e 9eb2 8d3e fc35 863e d1b3 a03e
00000010: 4c4b 883e 12a8 9e3e 9a4f b43e 8d21 993e
00000020: 60be 593e 21d3 a53e c0cc 5a3e a3ca 803e
00000030: ebf9 6e3e 0c6f 9e3e 7ad4 543e 1531 913e
00000040: 7015 913e 56be 3f3e 4ad6 873e 5bbe 973e
00000050: 01e3 8c3e 750e 813e e64d 823e 2a40 7c3e
00000060: 4f4f 9a3e 7ea6 973e 526c 6f3e c3c5 843e
00000070: 0a3e 823e def5 853e d404 843e 7724 643e
00000080: 7858 b53e d22b 823e c2b1 8a3e 8a7e 853e
00000090: 7f6e 803e aab7 7a3e 2ac0 883e 5da2 6c3e
000000a0: 4417 803e 66c9 633e 83c5 753e faa2 6d3e
000000b0: 21e3 8d3e d93d 8e3e 00ec 8e3e eb38 7d3e
000000c0: a004 9f3e d3e8 a13e 0752 683e f3e0 4c3e
000000d0: 407e a73e 9cb4 6f3e b104 833e 4626 913e
000000e0: fb22 953e d782 953e 1603 803e a906 9e3e
000000f0: 12b0 733e 95d4 733e 7517 8a3e c81d 873e

in/kernel/transpose f4 [64, 945]
-0.02681693 -0.014702908 -0.023316264 -0.14145263 -0.008266322 0.17110361 -0.031461347 0.2008934
-0.09608149 -0.038348347 0.008107562 -0.04449816 -0.10977797 -0.26084933 0.24212717 -0.10460521
-0.12333307 0.17426749 -0.20638041 -0.119482525 -0.28470972 -0.06844304 0.05061671 0.20127678
0.03793808 -0.15635084 0.18454331 -0.013063397 -0.27081898 -0.12271095 0.07423141 0.2885524
-0.12968433 -0.14523175 0.0086644655 -0.069658145 0.035729364 -0.03877908 0.042593632 -0.22427084
-0.107151836 -0.16171485 -0.15163164 -0.18355161 -0.07047382 -0.3103121 -0.22591515 -0.19513622
-0.11135925 -0.22999926 -0.08441824 -0.21390314 -0.09707327 -0.11651769 0.19333538 -0.12850477
0.22043559 0.2598003 0.10738574 0.22158995 0.17854802 0.19029498 0.101025596 0.117541865
-0.22014712 0.12826462 -0.06505923 0.15719548 -0.11470892 0.043870308 0.22776313 -0.13296235
-0.019965384 0.06659323 0.21395336 0.23776163 0.19184676 0.22509898 0.05448277 -0.01342921
-0.1560953 0.28198722 0.10923614 -0.045248076 -0.10930061 0.09904975 0.07622439 -0.066945516
-0.021853037 -0.23364595 -0.099055484 -0.14215307 -0.19114345 -0.08986653 -0.2246247 0.16510591
-0.21696772 -0.28568158 0.275557 -0.07284873 0.26347673 -0.08263068 0.14689136 -0.046470057
-0.030188002 -0.31383374 -0.070934355 -0.0033192285 0.1565239 -0.109459415 0.1659634 0.0047369823
-0.029619055 0.13021278 -0.106597096 0.005200456 -0.11799413 -0.07116927 0.24229716 -0.034474354
0.16377567 0.3003906 -0.27973622 0.11042356 -0.17079832 -0.2883317 0.15779607 0.13336985
-0.059925992 0.057290457 0.14789805 0.050483745 -0.09737317 -0.042271674 -0.12567295 -0.11715836
-0.0042783045 -0.12236004 0.1714101 -0.1930359 -0.23352976 -0.20093597 -0.09564205 0.06037249
-0.041781012 -0.030338375 -0.13678265 0.1970283 -0.2175978 -0.12135601 0.04599176 0.28273967
0.01971073 0.19020703 0.14503348 -0.115651116 0.144609 0.11011488 -0.32662317 0.058420517
-0.102244 0.0895785 -0.0830754 0.074769884 0.20429476 0.2490704 -0.048909843 -0.19628036
0.11886394 -0.05474062 0.2218515 0.16943258 -0.0906413 -0.22963768 0.10071094 0.23108596
-0.31511676 -0.13431506 -0.1789556 -0.04619981 0.060699694 -0.20206535 -0.25331944 0.1665721
-0.12005554 -0.24277279 -0.060070693 -0.074596375 0.18141301 -0.040014237 -0.08489812 -0.14379986
-0.20917486 0.31781188 -0.19231176 0.09250511 0.205039 0.088240854 -0.056345407 -0.020506956
-0.05923412 -0.16493545 -0.03356245 0.19609584 0.26362643 0.09138674 -0.23080818 -0.16818842
-0.1108314 -0.116570674 -0.16636704 -0.023009254 -0.101356 0.30106568 -0.038170256 -0.21324266
0.09931684 0.2064236 -0.14079432 0.118479766 0.21625824 -0.017594824 -0.0946557 0.10672201
0.19582403 -0.08302948 -0.2872668 0.032083396 -0.03910479 0.09664327 -0.06195244 -0.119858004
0.23043157 -0.045748077 -0.17318945 -0.060006756 -0.22162181 0.1267168 -0.17205645 0.12184751
0.3776195 0.1405829 -0.20503931 -0.22153279 0.2043849 0.04426835 0.20523365 0.24581876
-0.027698612 0.08298436 -0.017118346 0.17970456 0.2604169 0.03949321 -0.06841861 0.22707486
00000000: 2eaf dbbc 77e4 70bc c001 bfbc f5d8 10be
00000010: 786f 07bc c935 2f3e 9ddd 00bd 00b7 4d3e
00000020: 5fc6 c4bd 2813 1dbd 94d5 043c b443 36bd
00000030: 46d3 e0bd 0b8e 85be 2ff0 773e 423b d6bd
00000040: 0c96 fcbd 2d73 323e 6355 53be 41b3 f4bd
00000050: 79c5 91be dd2b 8cbd 7853 4f3d 801b 4e3e
00000060: f664 1b3d 6f1a 20be ecf8 3c3e dc07 56bc
00000070: c9a8 8abe e14f fbbd a306 983d 24bd 933e
00000080: f8cb 04be a2b7 14be 67f5 0d3c eea8 8ebd
00000090: f458 123d d0d6 1ebd a976 2e3d 41a7 65be
000000a0: 6c72 dbbd 9498 25be 5345 1bbe f4f4 3bbe
000000b0: 9454 90bd 3ae1 9ebe 4d56 67be cad1 47be
000000c0: 5210 e4bd ed84 6bbe 78e3 acbd 6d09 5bbe
000000d0: 5ace c6bd d4a0 eebd b6f9 453e c196 03be
000000e0: deb9 613e 8b04 853e 0eed db3d 7ae8 623e
000000f0: 4bd5 363e b0dc 423e 82e6 ce3d cab9 f03d
00000100: 3f6e 61be cd57 033e c63d 85bd daf7 203e
00000110: 83ec eabd 5ab1 333d bd3a 693e 4827 08be
00000120: 728e a3bc 0862 883d 9716 5b3e c977 733e
00000130: 7a73 443e 5980 663e 5329 5f3d 3006 5cbc
00000140: 72d7 1fbe a160 903e 33b7 df3d 0c56 39bd
00000150: 00d9 dfbd 98da ca3d 881b 9c3d bb1a 89bd
00000160: 2405 b3bc e240 6fbe 9add cabd 9390 11be
00000170: 1cbb 43be f10b b8bd 0404 66be 8611 293e
00000180: c92c 5ebe db44 92be cf15 8d3e b731 95bd
00000190: 6ce6 863e 463a a9bd b06a 163e 6357 3ebd
000001a0: d44c f7bc d1ae a0be 0846 91bd 6a87 59bb
000001b0: cd47 203e 422c e0bd 4ff2 293e b038 9b3b
000001c0: a9a3 f2bc 8056 053e 944f dabd 9668 aa3b
000001d0: e8a6 f1bd 32c1 91bd bf1c 783e fb34 0dbd
000001e0: cfb4 273e cccc 993e 9639 8fbe bf25 e23d
000001f0: c1e5 2ebe 36a0 93be 4b95 213e 1b92 083e
00000200: f574 75bd 66a9 6a3d 9672 173e 0bc8 4e3d
00000210: 966b c7bd 1025 2dbd 69b0 00be b9f0 efbd
00000220: 0531 8cbb e797 fabd 2186 2f3e 34ab 45be
00000230: 6d22 6fbe 29c2 4dbe fbdf c3bd 2549 773d
00000240: 9122 2bbd 2f88 f8bc c010 0cbe c9c1 493e
00000250: f5d1 5ebe 8089 f8bd db61 3c3d 41c3 903e
00000260: 6678 a13c a2c5 423e a883 143e 7eda ecbd
00000270: 6214 143e e983 e13d 273b a7be 5a4a 6f3d
00000280: 4d65 d1bd ef74 b73d 6f23 aabd f420 993d
00000290: a532 513e 500c 7f3e b055 48bd b8fd 48be
000002a0: f06e f33d b337 60bd 0a2d 633e bc7f 2d3e
000002b0: 25a2 b9bd 2426 6bbe 8a41 ce3d cca1 6c3e
000002c0: fc56 a1be e389 09be 2340 37be 033c 3dbd
000002d0: 3ea0 783d 38ea 4ebe 16b3 81be e091 2a3e
000002e0: aedf f5bd 6e99 78be b00c 76bd fcc5 98bd
000002f0: 55c4 393e f8e5 23bd 11df adbd 4540 13be
00000300: ef31 56be 3db8 a23e 60ed 44be 5273 bd3d
00000310: bef5 513e 9fb7 b43d 71ca 66bd 34fe a7bc
00000320: 7a9f 72bd d7e4 28be c878 09bd 59cd 483e
00000330: 0bfa 863e f928 bb3d fb58 6cbe 9639 2cbe
00000340: 93fb e2bd 9bbc eebd 1f5c 2abe e77d bcbc
00000350: bc93 cfbd 4825 9a3e 6a58 1cbd 495c 5abe
00000360: a166 cb3d b560 533e 632c 10be 85a5 f23d
00000370: cd72 5d3e 0523 90bc d9da c1bd 1291 da3d
00000380: 1886 483e 5c0b aabd a214 93be e169 033d
00000390: 582c 20bd e8ec c53d d7c1 7dbd 1d78 f5bd
000003a0: 41f6 6b3e 5662 3bbd 9358 31be a5c9 75bd
000003b0: d4f0 62be 0cc2 013e 912f 30be 308b f93d
000003c0: 5857 c13e f7f4 0f3e d3f5 51be 7ed9 62be
000003d0: 464a 513e bb52 353d c528 523e eab7 7b3e
000003e0: 33e8 e2bc b4f3 a93d c63b 8cbc 7904 383e
000003f0: 5d55 853e a2c3 213d 0e1f 8cbd 5086 683e

out/MatMul_bias f4 [47]
-0.10581224 0.03863073 0.06129684 -0.09736841 0.08987101 -0.1690285 -0.024288805 -0.06624613
-0.05392028 0.042764824 -0.102256946 -0.11222323 0.07307336 0.02076853 -0.03775949 0.16381049
0.07772474 -0.0002925087 -0.0038985058 0.024687922 0.038563013 -0.05820648 -0.026558217 0.092393145
-0.079076774 -0.04786283 -0.017246045 -0.010973879 0.043210108 0.10009993 -0.039599795 0.027052293
-0.10989342 0.11332834 0.0033873986 0.1268288 0.05266742 0.034688637 0.014237589 -0.096416965
-0.006890366 -0.021165198 -0.107997544 -0.0077509964 -0.012259398 0.0034676734 -0.044283953
00000000: 16b4 d8bd 423b 1e3d 6512 7b3d 1769 c7bd
00000010: 4b0e b83d cf15 2dbe 51f9 c6bc 0dac 87bd
00000020: 83db 5cbd 2b2a 2f3d 176c d1bd 4bd5 e5bd
00000030: 7ca7 953d c422 aa3c b2a9 1abd f0bd 273e
00000040: 262e 9f3d da5b 99b9 137e 7fbb 533e ca3c
00000050: 40f4 1d3d eb69 6ebd 9e90 d9bc 9e38 bd3d
00000060: 01f3 a1bd d10b 44bd 9447 8dbc c9cb 33bc
00000070: 15fd 303d 3101 cd3d 6533 22bd c59c dd3c
00000080: cd0f e1bd b018 e83d 1eff 5d3b 69df 013e
00000090: cbb9 573d ac15 0e3d c744 693c 4276 c5bd
000000a0: 94c8 e1bb a362 adbc d12d ddbd 12fc fdbb
000000b0: a4db 48bc e841 633b 1763 35bd

out/kernel/transpose f4 [47, 64]
-1.149244 0.37778878 0.10451648 0.26281497 -1.3503122 0.33536413 0.4413768 0.31033197
0.12052616 0.24296357 -0.43737757 0.46105474 0.08566304 -0.7847281 -0.11971836 -1.158743
-1.2842557 0.2979811 -0.67901856 0.26807043 0.2624378 0.17757164 -1.1598667 0.34611115
-0.8673154 0.28355646 -0.46977383 -0.9229971 0.15079577 -0.6225757 -0.95949465 -0.7125264
0.22307003 -0.954657 0.20710531 -0.43972683 0.1886491 0.33570978 -1.1244364 -0.9287462
-1.3116063 0.3233661 0.32875547 0.20142937 0.16157752 -0.12676924 0.25558618 -0.15234275
-0.9116433 0.16145597 -0.2975615 -1.2907611 -0.29924643 0.256044 -1.2782166 0.17524002
-1.1216044 0.1444914 -0.8397934 0.3227645 0.21158105 -0.37756595 -1.3361914 -1.0492797
0.14484806 0.35631502 -0.89812726 -0.5486296 0.35471746 -0.52699846 -1.0633566 -0.6127358
0.23325922 0.29490528 0.3525666 -0.8395526 -0.91613394 0.4290176 -0.48240086 0.30546075
-0.61742073 -1.0154636 -1.0883102 -0.049026273 0.2621376 0.41883308 0.39465898 -1.1218729
-0.437744 0.26052374 -0.7561073 0.33939654 -0.7948483 -0.22911409 0.3304927 0.26655152
-0.42482805 0.3874046 0.36028817 -0.4598698 -0.6373557 0.2933344 0.36808217 0.33180943
0.22544777 -0.8486015 -0.60852534 0.25416175 0.32419538 0.2753962 -0.80953264 0.38918602
-0.6548054 -1.0916338 -0.4447764 -0.831964 0.49023235 -0.9964566 -1.2319177 -0.91949815
-0.67875385 0.3458603 -1.1265595 -0.97413063 0.29266766 -0.31013757 -0.5572692 -0.5073924
-0.47561002 0.32789946 -0.98197263 0.36949664 0.26636174 0.3198381 0.4640253 -0.4387059
-0.77990377 0.17011335 -1.2500576 0.26941505 -0.41866478 0.34708428 0.231519 -0.1875847
0.23460734 -0.76334727 0.25621805 -0.808199 -0.6781598 -0.8459838 0.17948583 0.29702833
-0.7844749 -0.9238434 -0.890691 -0.88008004 -0.6863058 -1.1491382 -0.7240076 -0.49143225
0.36324975 0.19416746 -0.3172348 0.33604673 0.36267275 -0.537852 -0.9827407 0.06616455
0.15958557 0.2953414 -0.40747315 -0.6493661 -0.06632898 -0.6938407 -0.5779516 0.17028913
0.3700613 0.34141973 0.19988388 -1.045126 0.28710818 -0.059448328 0.23856795 -0.9609517
0.27405807 0.08159781 -0.75274444 0.22923405 0.25395876 0.28861704 0.2720678 0.3466422
-0.7708029 0.29982546 0.19250579 -0.92211974 -0.8878751 -0.8938467 0.1862174 0.228961
0.2044559 -1.0810343 0.29784134 -0.8719262 -0.58815914 0.27781284 0.27311713 0.2353679
-0.87646466 0.28738478 0.1861539 -1.3749946 0.32925037 0.26811323 0.34245688 -0.8326653
0.2723194 0.23940846 0.08872351 -0.5021512 0.315208 -0.3952102 0.2640718 -0.5529886
-0.48234066 0.2690126 -0.9411062 0.33184016 -0.8875177 0.002776933 0.17547831 -0.46046904
-0.5453898 0.27628374 -0.5331037 0.24779746 -0.87594926 0.23323771 0.22296867 0.11479969
0.17883535 0.1939779 0.28070813 0.16430128 -0.58440644 -0.82883084 -1.0175484 0.023836773
-1.015923 0.2937813 -1.0955707 -0.89811546 -0.9194963 0.22829027 0.2622629 -0.835606
00000000: 6d1a 93bf 886d c13e bc0c d63d af8f 863e
00000010: 08d7 acbf d9b4 ab3e 24fc e13e d5e3 9e3e
00000020: 6bd6 f63d 71cb 783e f4ef dfbe 5e0f ec3e
00000030: 1b70 af3d f1e3 48bf e62e f5bd b151 94bf
00000040: 7e62 a4bf fb90 983e 29d4 2dbf 8740 893e
00000050: 3f5e 863e 57d5 353e 8376 94bf 7b35 b13e
00000060: 6208 5ebf 502e 913e 3286 f0be 8a49 6cbf
00000070: 356a 1a3e 1f61 1fbf 71a1 75bf 2168 36bf
00000080: 786c 643e 6764 74bf 6a13 543e e023 e1be
00000090: 3b2d 413e 27e2 ab3e 88ed 8fbf 50c2 6dbf
000000a0: b7e2 a7bf 3e90 a53e a352 a83e 8043 4e3e
000000b0: 9474 253e cccf 01be 31dc 823e bdff 1bbe
000000c0: 7561 69bf b754 253e fb59 98be a937 a5bf
000000d0: d436 99be 3318 833e 9a9c a3bf 1f72 333e
000000e0: bc90 8fbf 8ef5 133e b3fc 56bf 6341 a53e
000000f0: b4a8 583e 5350 c1be 5208 abbf cc4e 86bf
00000100: 0d53 143e ec6e b63e abeb 65bf fd72 0cbf
00000110: 879d b53e 5fe9 06bf 121c 88bf 41dc 1cbf
00000120: 81db 6e3e d3fd 963e 9c83 b43e ebec 56bf
00000130: c187 6abf 32a8 db3e 3ffd f6be 5a65 9c3e
00000140: 490f 1ebf b6fa 81bf c04d 8bbf c6cf 48bd
00000150: e636 863e 4a71 d63e be10 ca3e 8899 8fbf
00000160: fb1f e0be 5e63 853e 3f90 41bf 62c5 ad3e
00000170: 2e7b 4bbf e29c 6abe 5736 a93e 7179 883e
00000180: 1083 d9be e559 c63e b177 b83e 0e74 ebbe
00000190: be29 23bf ed2f 963e 4475 bc3e ede2 a93e
000001a0: c8db 663e f33d 59bf 51c8 1bbf 7d21 823e
000001b0: f0fc a53e bb00 8d3e 883d 4fbf 6443 c73e
000001c0: 54a1 27bf a8ba 8bbf bbb9 e3be 98fb 54bf
000001d0: bcff fa3e c817 7fbf 7baf 9dbf 3b64 6bbf
000001e0: d0c2 2dbf 9a14 b13e 1a33 90bf a060 79bf
000001f0: 89d8 953e 5aca 9ebe 32a9 0ebf 78e4 01bf
00000200: 2883 f3be 70e2 a73e 8f62 7bbf aa2e bd3e
00000210: 9160 883e d2c1 a33e b994 ed3e 0f9e e0be
00000220: c6a7 47bf 3232 2e3e e301 a0bf c5f0 893e
00000230: 3b5b d6be 08b5 b13e 5113 6d3e 3416 40be
00000240: e83c 703e ba6a 43bf 032f 833e 21e6 4ebf
00000250: e19b 2dbf 6592 58bf 22cb 373e 1914 983e
00000260: 59d3 48bf 0081 6cbf 5304 64bf ed4c 61bf
00000270: bdb1 2fbf f616 93bf 9058 39bf 029d fbbe
00000280: dffb b93e d6d3 463e 9a6c a2be 510e ac3e
00000290: 3eb0 b93e abb0 09bf e594 7bbf 4881 873d
000002a0: 666a 233e fd36 973e 52a0 d0be db3c 26bf
000002b0: 7dd7 87bd 8b9f 31bf a3f4 13bf 4660 2e3e
000002c0: ad78 bd3e 91ce ae3e 5cae 4c3e b0c6 85bf
000002d0: d8ff 923e 1780 73bd 284b 743e ee00 76bf
000002e0: 5751 8c3e c11c a73d dcb3 40bf 55bc 6a3e
000002f0: e206 823e 9dc5 933e 784c 8b3e 167b b13e
00000300: 5753 45bf b982 993e 3d20 453e 0a10 6cbf
00000310: c84b 63bf 23d3 64bf c6af 3e3e c174 6a3e
00000320: e35c 513e 555f 8abf a97e 983e 8e36 5fbf
00000330: 9991 16bf 7c3d 8e3e 02d6 8b3e 4804 713e
00000340: fd5f 60bf 1924 933e 219f 3e3e d3ff afbf
00000350: 8193 a83e 2346 893e 8256 af3e 8e29 55bf
00000360: 736d 8b3e 7e27 753e acb4 b53d fb8c 00bf
00000370: f162 a13e fe58 cabe 6b34 873e a990 0dbf
00000380: 5bf5 f6be 05bc 893e 56ec 70bf f4e6 a93e
00000390: 5c34 63bf 34fd 353b 96b0 333e 99c2 ebbe
000003a0: aa9e 0bbf 1075 8d3e 7c79 08bf 9ebe 7d3e
000003b0: 363e 60bf ded5 6e3e e651 643e 1a1c eb3d
000003c0: 9d20 373e 25a2 463e fab8 8f3e 983e 283e
000003d0: a99b 15bf 422e 54bf 073f 82bf 5645 c33c
000003e0: c409 82bf 816a 963e a93b 8cbf e5ea 65bf
000003f0: 1c64 6bbf edc4 693e 5347 863e 46ea 55bf
