bots/Napoleon.chatbot/Napoleonconverted_model.tflite (tflite, 284416 bytes, 4 tensors)

in/MatMul_bias f4 [64]
00000000: ae8c 573e 9cd9 be3e fb88 873e 1a71 793e
00000010: 16f8 903e 4cb0 443e e6df 4b3e 9ac4 a03e
00000020: aa77 323e 73c7 7a3e 49da 9a3e 8c26 653e
00000030: b149 7a3e 5254 af3e 442a 863e b2ca a23e
00000040: 758f 723e 0408 843e b9a7 5a3e 5a62 9d3e
00000050: c68d 853e 763b 793e 3adf 6b3e e81b 853e
00000060: ac3f a23e fd05 bb3e ab5b 9e3e 32e1 993e
00000070: 5af9 903e 396d 6f3e 6e6e 923e 7da2 523e
00000080: 79f1 8f3e c164 663e 74e4 5d3e c196 ae3e
00000090: b2fc 4f3e 8283 913e 3b9e ac3e 48df aa3e
000000a0: b576 9f3e b8e2 7c3e 8ddc ab3e f639 813e
000000b0: 2f78 b73e bb2b 893e 0f33 a63e 1624 963e
000000c0: c1ce b63e f20d 9d3e 2538 843e 4789 9d3e
000000d0: d47e 7b3e a829 863e 362c a23e 5d26 903e
000000e0: d126 a93e 2356 973e 3176 9c3e 6da6 663e
000000f0: 2f24 a23e 6264 6f3e c1ca ad3e 8259 7f3e
0.21049759 0.37275398 0.26471695 0.24359551 0.28314275 0.19207877 0.19909629 0.31399995
0.1742846 0.24490146 0.30244663 0.22377986 0.24442174 0.3424402 0.2620412 0.3179527
0.23687537 0.25787365 0.21353044 0.307391 0.26084727 0.24339089 0.23034373 0.25997853
0.31689203 0.36528006 0.30929312 0.30054623 0.2831524 0.23381509 0.28599876 0.20569797
0.28113917 0.22499372 0.21669179 0.3409939 0.2031124 0.28420645 0.3371447 0.33373475
0.31145254 0.24695861 0.33566704 0.25239533 0.3583388 0.26791176 0.3246083 0.29324406
0.35704616 0.30674702 0.25824085 0.30768797 0.245601 0.26203656 0.31674355 0.2815427
0.33037427 0.29557905 0.30558923 0.22524424 0.3166823 0.23378137 0.3394375 0.24936488

in/kernel/transpose f4 [64, 1047]
00000000: 76a4 59be 0c79 90bd f180 703e 3ee4 623e
00000010: 31fe 333e a071 393e 86b6 65be 09cd 403e
00000020: 10ff 25be 88d7 833e 69bb 923e 2867 0f3e
00000030: c094 583e 6d6d 1b3e 6a57 a93e aa31 e83d
00000040: 9f03 59be 796a 783e fb49 393e 2ea3 563e
00000050: 2293 9d3d 249e 103e 49bd 6f3e fd3b 5f3e
00000060: e2a0 5c3e bb3b 1e3e 097c 9abd 3738 43be
00000070: 137c 1ebe 99ee ce3d ce0a 523e a45c ef3d
00000080: b691 e1bd 5856 eb3d b49e 2b3e 062e 753e
00000090: 4386 80bc e49f 083e 37c6 543e cb56 05be
000000a0: 8abb 8ebd 048c 5bbe f3cc ca3d 5c35 7f3e
000000b0: 43b2 babd cba5 e7bd 63c1 5f3d d397 93bc
000000c0: e623 11bc 3db5 babd fc16 5dbd bd74 afbd
000000d0: f43a a2bd 6e97 47be 4563 fc3d a4a9 023e
000000e0: cb0b 9f3e 4077 793e 9503 26be d351 3fbc
000000f0: 518d 09be ced7 353e 5332 11bd 8336 863c
00000100: 3944 05bd 5dca 02bd 7ad9 a2bd d204 803d
00000110: 3109 5f3e 5f3b 223e 3add 043e d8f1 ef3b
00000120: 6ea9 173e 8ba6 c23e 1404 1a3e 0009 54bc
00000130: ae90 a03d f074 19be dece 08be 4811 7a3d
00000140: 671e 65bd 556d 26be 47f7 38be 7a09 90bd
00000150: 5df4 253d 175a 3ebd 8b9c 3c3e c1dc 423e
00000160: 220b b9bd 4e7a 6ebe 2188 c4bd 1e7e 4a3e
00000170: 25bd 493e b028 d2bd e06b 8d3e 9c3d 983d
00000180: 9729 0dbd b686 2fbe 68a5 073e 5876 6d3e
00000190: 30cd 433e 603e 893d d77c 50bd b548 6a3e
000001a0: e38e 423e ff85 14be 0b57 133e cb8a 153e
000001b0: 61a5 833e cef6 703e 08e7 193e 05f1 a53e
000001c0: a5ec 89bd 5fe1 02be a40f 7b3e 66ae 4e3e
000001d0: de0f 14be 0082 f0bd eeee 143e e606 053d
000001e0: 93be 6f3e 09c6 dcbd d0f4 82be cc79 393e
000001f0: 3760 253e 7f50 9f3d a2fc b7bd 3d26 43be
00000200: 1d6e 82be 5bc3 cc3e 4dcc 5b3e fba5 f93d
00000210: 3cfe e23d 79b7 f13d 9f3b 9ebc ee8f b8bd
00000220: ea86 c23d fb69 c5bd ccc9 0bbe 669d 32be
00000230: a5df 61be 09aa e83d ad67 673e 19a0 5a3d
00000240: b440 1f3e b379 11be 6c8e 993d 7e96 613e
00000250: b1e1 09be 620b f7bd 0e49 983e c535 813e
00000260: 0d29 91be 3f30 01be ef59 153e d8c1 883e
00000270: 409a 0cbe 999b 323e 0826 a73e efbf e73b
00000280: b0b2 21be 86fe 0fbe a0d0 86bd c933 d53d
00000290: a00b 493e b807 45bd f180 973c 3421 603e
000002a0: e97e 6f3e 0c87 0a3e 0e00 643d f11d f3bd
000002b0: 68ad 5cbe 0f31 b1bd 9ce3 2a3e 392d 9cbd
000002c0: 5d99 56bd b35f ef3d a3f8 2f3e f7a0 98bd
000002d0: 3fdb 613d 2970 913e bd67 523e 5dbd 24be
000002e0: 526f fb3d f567 1abe bade 11be 7aeb dc3d
000002f0: 1f06 d93c dd71 10be 32bb 093e a6c2 033d
00000300: f635 953c 3e63 503e cba9 c03d cfd1 503e
00000310: 5c94 5b3e 1781 4d3e 0bfe 493e c4fb 153e
00000320: ebf4 2d3e bbf9 4d3e 251b b33c f1b0 b0bc
00000330: b875 ba3e 3365 983e b5b3 f3bd 288f 4c3e
00000340: 4319 083e 0aaa 7b3e d4b1 cebb 3c4a 82bd
00000350: 0c83 773e e8ab 1d3e 693c 22be 264e 8abd
00000360: ecb0 d7bd 3961 563e 4052 5b3e 168c 93be
00000370: e1af d6bd 5423 0bbe 9b87 ce3d e3d8 d5bd
00000380: 060e 623e b655 43bd da8c 8c3e eb4e 2d3e
00000390: 17e6 96bd 2a1d aebd 2053 853c d67c 943e
000003a0: 7b8d 6a3e a23c 853e 78f3 4e3e 69be 1bbe
000003b0: 22f0 103e 556b ea3d bc9d b8bd 691d 8fbd
000003c0: bd71 58bd 81f5 323d e5fe e2bc 492d 573e
000003d0: 5932 8d3e 1b98 093e 00c9 493a b85f 07be
000003e0: ef92 333e 2eb3 ad3e 0322 013e e6ae b33d
000003f0: 2e33 b7bd 06dc 593e 3f17 0bbd 061e 6a3e
-0.21254143 -0.07054338 0.23486687 0.2215738 0.17577435 0.18109751 -0.22432908 0.18828215
-0.1621058 0.25750375 0.28658608 0.14004195 0.21150494 0.15178461 0.33074504 0.11337598
-0.21192788 0.24259366 0.18094628 0.20960686 0.07694079 0.14122826 0.2341205 0.21800227
0.21545747 0.15452473 -0.07543189 -0.19064413 -0.15477018 0.10104103 0.20511934 0.11687592
-0.1101412 0.11491078 0.16759759 0.23943338 -0.015689021 0.13342243 0.20778738 -0.1302139
-0.06969364 -0.2144013 0.09902372 0.24922699 -0.09116032 -0.113109194 0.054627787 -0.018016731
-0.0088586565 -0.091166 -0.053976998 -0.08567188 -0.07921401 -0.1949136 0.12323622 0.12760025
0.31063685 0.24361897 -0.16212304 -0.011677223 -0.13432814 0.17758104 -0.035448384 0.016383415
-0.032535765 -0.03193127 -0.079516366 0.062509194 0.2178085 0.15842961 0.12975016 0.007322531
0.14810726 0.38017687 0.15040618 -0.012941599 0.078400955 -0.14986014 -0.13360164 0.061051637
-0.055937197 -0.16252644 -0.18063079 -0.070330575 0.040516246 -0.046472635 0.18419091 0.19029523
-0.090353265 -0.23288843 -0.09596277 0.19774672 0.19701059 -0.10261667 0.27621365 0.07433626
-0.03446349 -0.17141232 0.13246691 0.23189676 0.19121242 0.0670135 -0.050900307 0.22879298
0.1899982 -0.1450424 0.14388673 0.14603727 0.25712112 0.23531649 0.15029538 0.32410446
-0.067345895 -0.12781285 0.24517685 0.20183715 -0.14459178 -0.117435455 0.1454427 0.032477282
0.23412542 -0.1077996 -0.25577402 0.18112868 0.16149984 0.07779025 -0.08983733 -0.19057555
-0.25474635 0.39992794 0.21464653 0.121898614 0.110836476 0.11802573 -0.019315539 -0.090118274
0.09498389 -0.09639355 -0.13651198 -0.17442855 -0.2205797 0.11360557 0.22598143 0.053375337
0.15552026 -0.14206581 0.07497868 0.22030064 -0.13465 -0.12062718 0.29743236 0.25236335
-0.28351632 -0.1261606 0.14585088 0.2671039 -0.13730717 0.17442168 0.32646203 0.007072441
-0.1579082 -0.14061937 -0.06582761 0.10410268 0.19633341 -0.048103064 0.018494101 0.21887666
0.23388256 0.13528079 0.055664115 -0.11870945 -0.21550524 -0.08651935 0.16688389 -0.07625813
-0.052392352 0.11688175 0.17184691 -0.074525766 0.05514073 0.28405884 0.20547386 -0.16087861
0.12277092 -0.15078719 -0.1424512 0.10787101 0.026492177 -0.14105935 0.13450316 0.032168053
0.018214207 0.20350358 0.094073854 0.20392536 0.21443313 0.20068775 0.19725816 0.14646822
0.1698796 0.20114796 0.02186353 -0.021568747 0.36417937 0.2976471 -0.11899511 0.19976485
0.13290887 0.24576584 -0.00630782 -0.06361815 0.24171084 0.15397608 -0.15843357 -0.06753187
-0.10531792 0.20935525 0.21418095 -0.28817815 -0.10482765 -0.13587695 0.100844584 -0.104417585
0.22075662 -0.047689162 0.2745121 0.16924636 -0.07368105 -0.08501656 0.016274989 0.29001492
0.22905533 0.26022822 0.20210063 -0.15209354 0.14154103 0.11446253 -0.090144604 -0.069880314
-0.052842844 0.043691162 -0.027709434 0.21013369 0.27577475 0.1343693 0.0007697493 -0.13220108
0.1753652 0.33925766 0.1261063 0.087735936 -0.089453086 0.21275339 -0.033957716 0.22863016

out/MatMul_bias f4 [58]
00000000: 863a 833d 3dbe a7bd 7a75 303e 3a80 45bd
00000010: 6f53 8c3a 022d 17bd 8b79 a53d 0db4 863d
00000020: 3b5d ccbc 3d53 45be d69e afbb cd38 7e3d
00000030: c92f 06be a4b4 de3c a5d9 e4bc b282 4a3e
00000040: 31cd 293b 2ce6 f9bd 9b9c edbc 736c babd
00000050: 6ac6 a5bc a451 fcbd 4268 d53d a449 b0bd
00000060: 6592 8b3d 2ad0 ab3d 2c6d 8a3b 6ab3 2a3c
00000070: ed15 eebd 081e 29be 5da5 bfbd dc73 1e3e
00000080: 06b8 a73b c9a6 20bd 15f9 a7bd 0b8f 0b3e
00000090: 8889 653d c028 46bd 0118 4e3e 03ed bfbc
000000a0: 45e0 153e b68f 5ebd cd06 c93c bdbd f0bc
000000b0: ad9e 11be d6ea 88bc 2abc 08bd ec7f 72bb
000000c0: 3615 89bb 538c 0cbe 7c53 e5bd bc5d 143c
000000d0: 8fa4 b03c e2b4 763c 27c7 273c 6524 cfbd
000000e0: 3341 8f3d d713 c1bb
0.06407647 -0.08190582 0.17232314 -0.04821799 0.0010706017 -0.036908157 0.08079823 0.06577311
-0.0249468 -0.19270034 -0.005359511 0.06206589 -0.13104166 0.027185746 -0.027935812 0.19776419
0.0025909657 -0.12202105 -0.02900534 -0.09102716 -0.020236213 -0.12320259 0.10420276 -0.08607796
0.06815032 0.083893135 0.00422444 0.010418752 -0.11625276 -0.16515362 -0.093577124 0.15473884
0.005118373 -0.03922156 -0.082018055 0.13628785 0.056039363 -0.048378706 0.20126344 -0.023428446
0.14636333 -0.054336272 0.024539376 -0.02938735 -0.14220686 -0.016713541 -0.033382572 -0.0037002517
-0.0041834367 -0.13725404 -0.11197564 0.009055551 0.021562843 0.015057774 0.010240353 -0.101143636
0.06994858 -0.0058922577

out/kernel/transpose f4 [58, 64]
00000000: 1076 cd3e da34 96bf 295d 2ebf fdb3 db3e
00000010: eeed 1bbe 92a6 9f3e bdd0 223e 899b 46bf
00000020: d31d 4b3e 8f7a 393e 56a3 51bf 753e 34be
00000030: fdd0 19bf 4364 84bf 02e3 38bf f296 373e
00000040: 58e9 e33e 2280 0abf a8da 06bf 6d77 9a3e
00000050: 3880 ce3e b37a 99bf 1e13 b33e c0a6 44bf
00000060: 05b7 47bf 27d1 923e 99ac 82bf 05c8 333e
00000070: 41bd 17be e06b 17bf 97df f4be f771 8ebe
00000080: 10b2 833e 9b81 e1be 4fc5 7abf 365f abbf
00000090: 4325 293e fe17 90bf c8cf 9d3e 3d22 d4be
000000a0: 053f 49bf e75d 3abf 8eed c33e 3338 483c
000000b0: cd8d c83e c430 d6be 6326 1bbf 2c29 963e
000000c0: f2dd 8c3e 8cdc 54bf 9a4a 25bf 2938 84bf
000000d0: 58ea 823e 57e0 5c3e 5c5a 42bf 2375 07bf
000000e0: af3f 93bf 67c4 0a3e adc5 93bf 1ed3 42bf
000000f0: 9514 b7bf e4c4 903e 6309 0abf dc4a e33e
00000100: d9bc ea3e 0617 a33e f17a 68bf 6563 2cbf
00000110: 538c 883e d33a 6d3e 8d6b 20bf faa6 123e
00000120: ad5f a1bf 8b04 3ebf d571 173e 49df 323e
00000130: 0901 b9bf ec00 dcbe b6eb 54bf 4cc7 45bf
00000140: 7e9d 083e b41f 4a3e fca7 b2be b89a 33bf
00000150: c2af 803e 1ce0 023e 6362 453e afbc a83e
00000160: a241 86bf 956f 4fbf d236 66bf 7dd2 a73e
00000170: b296 6abf 86b9 933e 56d9 f3be b6cc 733e
00000180: 6475 86bf 2191 103e a302 e63d af45 89bf
00000190: a7ed 943e 7736 823e 24c6 05bf cef8 6bbf
000001a0: 3041 03bf 3390 a53e 584b 4b3e 6bfc 40bf
000001b0: 3487 6cbf c10a 29bf 1476 743e dab1 6cbf
000001c0: da9e 7bbf 378c b0bf 5cd9 a83e e377 973e
000001d0: 5f92 8d3e a74a 583e fade 59bf 5bf1 1c3e
000001e0: d109 84bf 8cc0 3f3e 6cec 3c3e 84e1 bd3e
000001f0: 529d 7bbf a271 74bf aaaf 8a3e 9910 ab3e
00000200: afc1 6cbf df1b c53e e7b7 2cbf c597 ce3e
00000210: 8079 04bf b477 a4be 0b2f cebe 0697 6abf
00000220: e1c8 59be 8579 803e 9221 43bf 3b06 80ba
00000230: 3081 50bf 2341 01bf 77f7 34bf 018a 58bf
00000240: f97e dfbb faaa 82bf 9be0 50bf 951a 8cbf
00000250: ce4b 6fbf 0343 1fbf 1b63 97bf ba0a 5fbf
00000260: c1ab 84bf 2e14 e9be 3ca7 86bf 6a97 50bf
00000270: 51f4 63bf 58e8 063f b6ea 6bbf 523b df3e
00000280: 1c89 c7bf e043 48bf ce5b d43e 0356 ad3e
00000290: 27fc a23e bc88 b73e 6caa 08bf 2e22 babe
000002a0: 9859 e73e ceda fc3d 78b6 ffbe 579e 6abf
000002b0: eac9 ca3e 2e9d 3fbf 6648 b23e be98 913e
000002c0: efcb cb3e 8923 c13e ddca e23e cd98 f43e
000002d0: 9d17 6cbe c6ae b83e b223 70bf d3e1 c8be
000002e0: 74e4 a33e 3824 10bf f6a3 0cbf 05a3 c8bd
000002f0: 4ec0 be3e 60ad 96bf 9527 c53e ec36 6ebf
00000300: 03a2 963e b5cb ab3e 8b20 43bf d070 7a3e
00000310: a61d 26bf 771c 133e 3dfe a4bf 0f2b 9b3e
00000320: 9552 90bf a512 1b3e ffad 203e e47b e3be
00000330: acce ff3d e6c1 87be 18f1 d73d 5170 933e
00000340: dd92 643b 598f a43e c267 983e f319 76bf
00000350: 8248 88bf 4f74 7abf 0796 713e 3886 f83d
00000360: 986d 463e e625 47be 2711 b13e 128c 023e
00000370: 9b5f 53bf 7fcb 953e 4540 22bf 8260 6ebf
00000380: 9ff1 b43e d881 043e 0258 493e 6fb1 58bf
00000390: d5ee a2bf bffe 64bf a82f a43e 5a39 a03e
000003a0: d046 e9be 73e4 3dbf 36b1 a4bf d5e6 83bf
000003b0: a17b 933e 36c2 5b3e e1ea 0bbf 9c7c e9be
000003c0: c61e 3f3e ec18 4e3e 4db1 6dbf 6dec d0be
000003d0: 4398 993d 8cf8 353e c006 7a3e c699 2dbf
000003e0: f1b9 1e3e b9fa acbf d294 19bf cf4d 54bf
000003f0: 2eed 743e b4bd 343e 5618 813e 1127 a1bf
0.40129137 -1.1734879 -0.681109 0.42910758 -0.15227482 0.3118177 0.1589994 -0.7758108
0.19835596 0.18113159 -0.81889856 -0.1760195 -0.60084516 -1.0343097 -0.72221386 0.17928675
0.44513965 -0.54101765 -0.5267739 0.3016924 0.40332198 -1.199057 0.34975523 -0.7681694
-0.7801364 0.28675196 -1.0208923 0.1755677 -0.14818288 -0.5914898 -0.47826836 -0.27821323
0.25721788 -0.44044194 -0.9795732 -1.3388431 0.1651812 -1.1257322 0.30822587 -0.41432372
-0.78611785 -0.72799534 0.38267177 0.01222043 0.39170685 -0.4183408 -0.6060545 0.29328287
0.2751308 -0.8314903 -0.6456696 -1.0329639 0.25569415 0.21569954 -0.7591913 -0.5291311
-1.150381 0.13551484 -1.1544701 -0.7610339 -1.4303156 0.28275216 -0.53920573 0.4439305
0.45847204 0.31853503 -0.90812594 -0.67339164 0.2666956 0.23166971 -0.6266411 0.14321509
-1.2607323 -0.7422568 0.14789517 0.17467989 -1.4453441 -0.42969453 -0.83172166 -0.7725723
0.13341329 0.19738656 -0.34893787 -0.7015796 0.25134093 0.12780803 0.19275813 0.32956454
-1.048878 -0.81029636 -0.899274 0.32777777 -0.9163619 0.2885248 -0.47626752 0.2380856
-1.0504575 0.14117862 0.11230972 -1.0724391 0.29087564 0.25432178 -0.52255464 -0.9217652
-0.51271343 0.32336578 0.1985296 -0.7538516 -0.92393804 -0.66032034 0.23873168 -0.9245888
-0.98289263 -1.379279 0.32978332 0.29583654 0.27650735 0.21122228 -0.8510586 0.15326445
-1.0315496 0.18725795 0.18449563 0.37086117 -0.98286927 -0.9548589 0.27087146 0.334111
-0.9248304 0.38497826 -0.6746811 0.40350166 -0.51747894 -0.32122576 -0.40270266 -0.91636693
-0.21268035 0.25092712 -0.762231 -0.0009767482 -0.81447124 -0.50490016 -0.706901 -0.8458558
-0.0068205562 -1.0208428 -0.8159272 -1.0945612 -0.93475044 -0.62211627 -1.182712 -0.8712574
-1.0364915 -0.45523208 -1.0519786 -0.8148104 -0.8904467 0.5269828 -0.92155015 0.43599945
-1.5588717 -0.7822857 0.4147629 0.33854684 0.31833002 0.35846508 -0.53385043 -0.36354202
0.45185542 0.12346421 -0.499439 -0.9164786 0.39607173 -0.7484921 0.3482086 0.28436846
0.39804026 0.37722424 0.44295397 0.47772828 -0.23055883 0.36070842 -0.93804467 -0.3923479
0.32010233 -0.56305265 -0.54937685 -0.097967185 0.37256092 -1.177166 0.3850676 -0.93052554
0.2942048 0.33553854 -0.7622153 0.24457097 -0.6488899 0.14366327 -1.2890087 0.3030629
-1.1275202 0.15143831 0.15691374 -0.4443046 0.124905914 -0.2651512 0.10544032 0.28796628
0.0034877576 0.32140616 0.2976666 -0.96133345 -1.0647128 -0.9783372 0.23592387 0.12134975
0.19377744 -0.19448051 0.345834 0.12748745 -0.8256776 0.29256818 -0.6337932 -0.9311601
0.35340592 0.12940156 0.19662479 -0.8464574 -1.2729136 -0.8945121 0.3206761 0.31293756
-0.45561838 -0.7417671 -1.286658 -1.0304819 0.2880526 0.21460804 -0.5465527 -0.45602882
0.18664083 0.20126694 -0.92848665 -0.4080538 0.07499745 0.17770594 0.24416637 -0.67812765
0.15500619 -1.3514014 -0.59992707 -0.82931226 0.23918602 0.17650491 0.2521388 -1.2590047
