bots/Karlson.chatbot/Karlsonconverted_model.tflite (tflite, 192692 bytes, 4 tensors)

in/MatMul_bias f4 [64]
000000 f9 d1 a9 3e 06 49 50 3e 18 6e ab 3e a2 76 81 3e
       0.3316801 0.20340356 0.33482432 0.25285822
000010 84 7e 70 3e c7 01 6f 3e a5 88 98 3e 86 6b 49 3e
       0.23485762 0.23340522 0.29791752 0.19669923
000020 0c 44 8c 3e a2 3d 48 3e 19 5e a1 3e 7e 3e 6b 3e
       0.27395666 0.19554761 0.31517103 0.22973058
000030 cb d0 99 3e 25 2e 51 3e 69 af b1 3e 1b 0d c0 3e
       0.3004211 0.20427759 0.3470414 0.3751
000040 0d d2 47 3e d2 71 74 3e 49 67 55 3e 08 93 34 3e
       0.19513722 0.23871544 0.20840181 0.17634213
000050 86 68 72 3e 75 03 20 3e 5a 27 97 3e ef ec 77 3e
       0.23672685 0.15626319 0.2952221 0.24211477
000060 a6 cb 97 3e 73 13 59 3e cc db 71 3e 63 14 62 3e
       0.2964756 0.21198826 0.23619002 0.2207809
000070 ea 6c be 3e 0c 8f 74 3e a3 06 4f 3e a8 89 9a 3e
       0.3719247 0.23882693 0.20217375 0.30183148
000080 ce aa 80 3e 77 f7 84 3e 11 9b b1 3e a2 ca 96 3e
       0.25130314 0.2597005 0.3468862 0.29451472
000090 44 5b 61 3e 96 60 63 3e 0c bc af 3e a4 6a ae 3e
       0.22007471 0.22204813 0.34323156 0.34065735
0000a0 27 56 78 3e c3 64 7d 3e 54 da 59 3e a2 49 76 3e
       0.24251615 0.24745469 0.21274692 0.24051526
0000b0 ea be 81 3e bb cb 8a 3e 62 14 9d 3e 59 1a 66 3e
       0.25340968 0.2710856 0.30679613 0.22470988
0000c0 21 14 5d 3e 40 c5 8f 3e b3 ee 86 3e 58 82 a5 3e
       0.2158971 0.28080177 0.26353988 0.32326007
0000d0 98 b1 8f 3e 2d cb a3 3e 28 e2 94 3e 6c 9c b1 3e
       0.2806518 0.31990948 0.29078794 0.34689653
0000e0 5e 85 aa 3e 60 e1 70 3e 8f 17 96 3e 1c 8e aa 3e
       0.33304876 0.23523474 0.2931485 0.33311546
0000f0 f9 5e 36 3e d9 22 53 3e e5 7e ac 3e af bc 9b 3e
       0.17809667 0.20618762 0.33690563 0.30417392

in/kernel/transpose f4 [64, 708]
000000 e5 3d 7a 3e bc 09 4e 3e 12 87 a0 3e 6a 30 c0 3d
       0.24437673 0.20120901 0.3135305 0.09384234
000010 95 52 fe 3d 99 5e 82 be fc 37 10 be e7 46 47 be
       0.12418095 -0.25462797 -0.14083856 -0.19460641
000020 4e 62 3a be 66 51 53 be c0 ea 8f be b8 dc 1e be
       -0.18201563 -0.2063652 -0.28108788 -0.15513885
000030 fe 52 90 bd f3 d5 87 3e 84 35 4f bd 4d 89 d0 3c
       -0.070470795 0.26530418 -0.050588146 0.025456095
000040 60 62 e0 bd 55 b0 91 3d d1 98 93 3e 9e b7 0d 3e
       -0.109562635 0.07113711 0.28827527 0.13839576
000050 45 b1 d4 3d c4 6b 6e 3e 7c 44 f1 bd a6 34 70 be
       0.10385374 0.23283297 -0.117806405 -0.23457584
000060 d3 a8 3c 3e db b0 37 3e e1 cf 46 3e f6 98 11 be
       0.18423776 0.17938559 0.19415237 -0.14218506
000070 2f 2e 8a bd 32 43 70 3e 4e 90 4e 3d 79 1c 5c bd
       -0.0674709 0.23463133 0.05043059 -0.05373809
000080 26 31 f4 bd a8 a2 bb bd fb f9 92 3e ac 80 1c 3e
       -0.11923437 -0.091618836 0.28706345 0.1528346
000090 e2 31 7e 3e 32 6d 36 bd ba d8 18 be 86 ad 1b 3e
       0.24823716 -0.04453773 -0.14926425 0.15202913
0000a0 59 11 12 3e bb e1 d1 3d ad fc 20 3e d5 33 1d be
       0.1426443 0.10248133 0.15721388 -0.15351804
0000b0 00 4f 35 be 01 3e b2 bd 0c f3 99 bd 13 ec 7a bd
       -0.17705917 -0.087032326 -0.07517061 -0.061260294
0000c0 a5 31 cf bd ea ee 32 3e 24 44 4f bd 9b 65 a8 bd
       -0.10116891 0.17473951 -0.050602093 -0.08222505
0000d0 44 d1 b2 bc b7 50 ee bd 5b 30 0c be ff f1 c1 bd
       -0.021828301 -0.11636489 -0.13690321 -0.09469985
0000e0 49 47 9e bd 10 93 d1 3d b8 0e 96 bd 2a fb 36 be
       -0.0772844 0.10233128 -0.07327026 -0.17869249
0000f0 3b a8 5e be ea 57 c8 bd d4 a1 d3 3d bf dd 13 be
       -0.21743862 -0.09782393 0.10333601 -0.14440058
000100 c0 f9 47 3d 12 ee 05 bb ee 4c dd bd da e4 2f be
       0.048822165 -0.002043609 -0.10805689 -0.17177144
000110 6a d7 dc bd cf cf 3a be 42 ad a1 bd 1f af 3c be
       -0.107832745 -0.18243335 -0.078943744 -0.18426178
000120 6f 1c 1c be c8 a3 68 3e 3c 6e b1 3e f3 91 12 3e
       -0.15245222 0.22718728 0.34654415 0.14313488
000130 0d 00 24 be a9 09 01 bc 15 cd 86 bd bb 9a 18 be
       -0.16015644 -0.007875838 -0.06582085 -0.14902775
000140 97 e0 54 3e f9 09 37 3e 6b b3 db 3d 85 e1 50 3d
       0.20788799 0.17874898 0.10727581 0.050996322
000150 0e 14 50 3d 1a 97 09 3e 2b 7d e4 3b b8 36 c4 bd
       0.050800376 0.13436547 0.006972929 -0.09580749
000160 aa ed 7c 3d 80 19 24 be 19 aa e3 3b cb d9 ae 3d
       0.06175009 -0.16025352 0.0069477675 0.085376345
000170 19 81 0e 3e f2 d5 10 be 7f b1 c3 3d 4d ba 20 3d
       0.13916434 -0.14144114 0.09555339 0.03924017
000180 eb e2 04 bb 8a 3e 25 3e 66 1f 11 be 4a 3b 1c 3d
       -0.0020276855 0.16137138 -0.14172134 0.03814248
000190 aa f9 fb 3d 77 d9 c7 3c cc d3 2c be e8 57 09 be
       0.12303479 0.024395688 -0.16877669 -0.1341244
0001a0 85 55 0c 3e 35 90 03 be a5 82 76 3e d0 42 1a bb
       0.13704498 -0.1284798 0.24073274 -0.0023538359
0001b0 a5 65 0b 3e 8c 28 01 be 8d 3b f5 bd 4f fd b9 3b
       0.13612993 -0.12613124 -0.11974249 0.0056759487
0001c0 87 f3 2c 3e 14 9a 2c 3e f8 1b 1c 3e 6f e5 a8 bd
       0.16889773 0.16855651 0.15245044 -0.08246886
0001d0 90 81 0d bd 36 bc 55 3d 07 a4 b9 bd 2b eb 5b bd
       -0.03454739 0.052181445 -0.09064489 -0.05369107
0001e0 66 4e 8e 3e ec ab 59 bc 2b f2 95 bd f4 83 35 be
       0.27794188 -0.013285618 -0.073215805 -0.17726117
0001f0 51 c7 30 be 06 9e d6 3c 05 25 a5 bd 60 f7 41 3e
       -0.17263533 0.026198398 -0.080637015 0.18942022
000200 52 8c 4e be d4 c0 8f bc ab 8a 2f 3e 36 f8 86 bd
       -0.20170715 -0.017548002 0.17142741 -0.06590311
000210 ea 1f bf bd c7 24 0b bd af 13 30 be c7 14 2e be
       -0.09332259 -0.03397062 -0.17195009 -0.17000113
000220 88 06 6a 3e 2c 6d 85 3d 38 0f 9b 3e 0a 83 48 3e
       0.22854054 0.065149635 0.30285048 0.19581237
000230 1f fd 45 3e 3a da c3 3d 21 47 1f be 65 19 4d 3e
       0.1933484 0.09563108 -0.15554477 0.20029218
000240 d2 3c 5b bb b8 cf 1d be a9 6f e4 bd 8e ac a5 bd
       -0.0033453 -0.1541127 -0.1115411 -0.08089553
000250 dc e4 10 3e 81 36 15 3e e7 0e ef bc a9 3b d8 3d
       0.14149803 0.14571573 -0.02918191 0.10558254
000260 3d 91 c6 bd 43 89 19 be 4d 83 11 be 5a 16 82 be
       -0.09695671 -0.14993767 -0.14210244 -0.25407678
000270 ef ae 18 be 26 5f 52 3e 9c f5 4e 3d c0 cd f6 ba
       -0.14910482 0.20544109 0.0505272 -0.0018829629
000280 4c 0a 69 bd ec 5f 41 3e 49 92 46 bd 5b 92 0f 3e
       -0.056894585 0.18884248 -0.048479352 0.14020674
000290 f5 31 8f 3e d2 8c 21 be 93 d4 b0 bd 40 f0 e5 bd
       0.27967802 -0.15776375 -0.08634295 -0.11227465
0002a0 42 63 60 3e c0 32 2d 3e 62 96 46 be 47 f4 05 bd
       0.21912864 0.16913891 -0.19393304 -0.032703664
0002b0 e8 a1 a1 bd 5a 42 64 3e ea 56 12 be 6c fd a8 bc
       -0.07892209 0.22290936 -0.14290968 -0.020628653
0002c0 ef e4 1f be 8a 90 05 be e1 c8 53 be 55 37 7c be
       -0.15614675 -0.13043419 -0.20682098 -0.24630482
0002d0 cd df 8f 3e e0 e9 29 be e5 bc 81 be f5 04 be bd
       0.28100434 -0.16593122 -0.25339428 -0.09278289
0002e0 cb cc f5 bd d9 b1 5b be 4b 3e 6a 3d ea af 95 bd
       -0.12001952 -0.21454562 0.057188313 -0.073089436
0002f0 80 b5 89 bd 57 b5 5e bc 81 63 80 be 6a 60 6f 3e
       -0.067240715 -0.0135930395 -0.25075915 0.23376623
000300 da 4e 02 3e 63 26 20 be bb d6 42 be 4f 9d ae 3d
       0.12725392 -0.15639643 -0.19027226 0.08526098
000310 30 ca ee bd eb 18 05 be a2 17 0c 3e c8 2c ff bd
       -0.11659658 -0.12997787 0.1368089 -0.12459713
000320 ab d6 1d be e8 e8 2a 3e ce b2 01 be 51 d3 37 be
       -0.1541392 0.16690409 -0.12665865 -0.17951705
000330 00 f8 5d 3e 05 44 15 3e 77 43 c1 bd 67 bd 93 3d
       0.21676636 0.14576729 -0.09436696 0.0721386
000340 1d f5 b3 3c 5c 51 4f 3e 24 31 0c 3e 9a fb 98 3d
       0.021967465 0.2024588 0.1369062 0.07469864
000350 02 a3 e5 3c af fb 34 3e a8 5b f1 bd 38 41 1c 3d
       0.02803183 0.17674135 -0.1178506 0.038148135
000360 83 03 86 3e bb 40 ce 3d 88 54 d5 bd 32 56 a0 bd
       0.26174554 0.1007094 -0.10416514 -0.078289405
000370 85 a1 45 3e b5 7b dd 3d 0f f8 44 3d 1d f3 e9 bd
       0.19299896 0.10814611 0.04808813 -0.11423323
000380 f2 c7 57 3e 77 54 50 3e 5a 92 0a be 17 b6 17 be
       0.21072367 0.20344721 -0.13532391 -0.14815556
000390 d5 b0 a6 3e c9 1f 13 3e 4e cb d9 3d 12 ff d7 bd
       0.32556787 0.14367594 0.106344804 -0.10546698
0003a0 3a 6a 43 3d 59 0c cf bd bf 8f 8a bd 70 b0 25 be
       0.047708727 -0.10109777 -0.06765699 -0.16180587
0003b0 10 a4 b0 3d 4f c0 bb bd 20 d6 e6 3d 5a 8a ef bd
       0.086250424 -0.09167539 0.1127131 -0.1169631
0003c0 7a 85 6a be 53 1e c4 3d 0e 60 f1 bd 87 31 60 bd
       -0.2290248 0.095760964 -0.11785899 -0.054734733
0003d0 02 3b 28 be 31 24 01 3e e6 4e f8 3d 03 47 b2 bc
       -0.1642876 0.12611462 0.12124424 -0.021762377
0003e0 0f 35 3c be 13 d5 c7 3d a3 98 b8 bc 56 da 8b 3d
       -0.18379615 0.097574376 -0.02253372 0.06828754
0003f0 85 81 83 bd 92 0e 70 3d b7 98 0a be 5a 87 15 be
       -0.06421188 0.058607645 -0.13534819 -0.14602414

out/MatMul_bias f4 [39]
000000 b3 9a 15 3e df 90 bb bd 80 08 e4 bd f8 66 8c 3d
       0.14609794 -0.09158491 -0.11134434 0.06855577
000010 44 72 c8 bd be 26 f4 bc be ed 9f 3c 0e 7d 58 bd
       -0.097874194 -0.02980363 0.019522544 -0.052853636
000020 9a ca 21 bd 94 92 ab 3d 89 68 16 be 71 87 ae bc
       -0.039499857 0.08377567 -0.14688314 -0.021304818
000030 65 3a 2f bc bc d1 08 bd 8f f3 f3 bd 77 75 d0 bd
       -0.010695075 -0.033403143 -0.119116895 -0.10178655
000040 69 bf e9 3d c8 2e 82 bd 77 31 d0 bd a8 86 de b9
       0.11413462 -0.06356579 -0.10165685 -0.00042443466
000050 87 78 c0 3d 22 d4 2f 3d ca bf 45 3d 21 ad cc 3c
       0.09397989 0.042926915 0.048278607 0.024984898
000060 4a ac 93 3d 8d 6d 23 3e 7b c5 12 be 49 02 3e bd
       0.07210596 0.15959759 -0.14333145 -0.046388898
000070 c3 b2 52 3d 79 79 a1 3d 5e e5 52 bd a1 4e ca 3d
       0.05144001 0.07884497 -0.051488273 0.098782785
000080 aa 02 78 3d 9b 75 8a 3d 94 a3 18 3d a5 1b 2b bd
       0.060549416 0.06760713 0.037265375 -0.04177441
000090 ba b3 4d bc cf 10 ed bc 29 b5 21 be
       -0.012555057 -0.028938679 -0.15791763

out/kernel/transpose f4 [39, 64]
000000 c4 d2 62 bf c4 0a 04 bf 64 df 77 bf 30 57 c5 be
       -0.8860285 -0.5157893 -0.9682524 -0.3854308
000010 24 4c 97 bf 52 2b 11 bf 70 94 7f bd 54 b8 85 3e
       -1.1820111 -0.56706727 -0.06239742 0.26117194
000020 3c f7 17 bf b0 a3 c8 3e d4 51 14 bf f4 cf 82 3e
       -0.59361625 0.39187384 -0.5793736 0.2554928
000030 78 b4 83 bf dc 4f 91 be ad 06 a6 3e bd 77 e3 3e
       -1.028945 -0.2838124 0.32426968 0.4442729
000040 bc 89 68 3e 1f 2c 83 bd d5 4c 39 bf 91 54 42 bf
       0.22708791 -0.064049 -0.7238286 -0.7591029
000050 14 f2 65 bf 93 bc 89 bf c5 ca 89 be 62 e5 c4 be
       -0.89822507 -1.0760673 -0.26912513 -0.38456255
000060 7f 84 0d bf 76 4b ba 3d f9 ed ca 3e 79 84 92 bf
       -0.552803 0.09096424 0.39634684 -1.1446677
000070 48 eb 14 bf 21 57 55 3d e5 5e 93 be c4 2a 62 bf
       -0.5817151 0.052085046 -0.28783336 -0.88346505
000080 9c 09 cd 3e d4 a3 8e be c3 4b ad 3e e7 27 11 bf
       0.40046394 -0.27859366 0.33846864 -0.5670151
000090 38 3e 84 be 8c d9 07 bf e2 e4 8f 3e 1d ca cd 3e
       -0.2582872 -0.53066325 0.2810431 0.40193263
0000a0 c8 36 dc 3e b3 56 a1 3e d6 6f 1b bf 9c 59 a9 3e
       0.43010545 0.3151146 -0.60717523 0.3307618
0000b0 6e de 28 3e 8f ef 3e bf ca 62 93 bf c0 1d 71 bf
       0.164911 -0.7458429 -1.1514523 -0.9418602
0000c0 3b 41 3f bf 3b ce c3 3e 51 1f bf 3e 9d 32 9a bf
       -0.7470891 0.3824328 0.3732858 -1.2046696
0000d0 ae f1 c0 3e 42 38 3f bf cd a4 b4 3c 39 7b fc 3e
       0.37684387 -0.7469522 0.02205124 0.4931276
0000e0 de 86 23 bf 0a 2d 8b 3e 06 cb 70 3e 9c c0 a7 3e
       -0.63877666 0.271828 0.23514947 0.32764137
0000f0 d9 e1 97 bf 2e bb 9a bf 27 03 81 bf ab ee 3f bf
       -1.1865798 -1.2088373 -1.0079087 -0.74973553
000100 22 f7 cc be 28 bf 92 3e de 78 35 bf 1d d2 c2 3e
       -0.40032297 0.28661466 -0.70887554 0.3805093
000110 ff 70 a6 3e ce 3c 90 3e 69 2b 8b bf 51 9e 62 bf
       0.32508084 0.2817139 -1.0872623 -0.8852282
000120 c7 ea 7d 3c 6d e9 9f 3e 14 e7 8e 3d bf 37 92 3e
       0.01549787 0.31232777 0.069776684 0.28558156
000130 62 89 2a 3d 36 26 59 bf 7b e3 8e 3e de f6 4b bf
       0.041634925 -0.8482393 0.2790793 -0.79673564
000140 c0 49 6e bf de a1 2a bf 44 15 4e bf a3 e0 29 bf
       -0.93081284 -0.6665324 -0.805012 -0.66358393
000150 dc 9a a7 3e ca b2 89 3e 38 c6 a9 3e 84 10 81 3e
       0.32735336 0.26894218 0.3315904 0.25207913
000160 be 97 8f be 32 16 10 bf 55 6e cb 3d bf bc 77 3e
       -0.28045458 -0.5628387 0.099331535 0.24193095
000170 80 aa 0f 3e 5f a5 24 3e 03 5e 7a bf a2 88 7a bf
       0.14029884 0.16078709 -0.977997 -0.97864735
000180 a3 53 56 3e 6b e3 82 3e b0 46 24 bf 92 99 67 3c
       0.20930342 0.2556413 -0.6417036 0.014135735
000190 24 f1 2b be 72 3e 2e bf 02 be 9b 3e e5 fd c7 3e
       -0.16791207 -0.68064034 0.30418402 0.39060894
0001a0 4f d4 75 bf d7 8a 04 bf d3 7d 7a 3e bf 92 2f bf
       -0.9602708 -0.5177435 0.2446206 -0.6858329
0001b0 aa 6c 3d bf b1 9a e4 be 29 36 91 bf 59 fc 84 3e
       -0.73993933 -0.4464927 -1.1344653 0.25973776
0001c0 32 d0 80 3e 57 f4 04 bf 1a b6 1d bf 3e a8 6a bf
       0.2515884 -0.51935333 -0.6160599 -0.9166297
0001d0 45 14 7c bf 02 b7 64 bf 56 f5 b3 3e 46 03 8a 3e
       -0.9846843 -0.8934175 0.35148114 0.26955622
0001e0 9f 47 8a 3e 22 35 11 3e 53 1b 30 3e 41 6e 85 3e
       0.27007768 0.14180425 0.17197923 0.2606068
0001f0 e0 af 3f 3e 37 24 4a bf 45 e1 30 bf b3 0e 86 bf
       0.18719435 -0.7896151 -0.69093734 -1.0473236
000200 a2 4f 80 3e 76 cc 95 3e 48 e1 15 bf 04 c1 d4 be
       0.25060755 0.29257554 -0.58546877 -0.4155351
000210 d7 e6 a5 3e 99 30 9e 3e b2 3e 1d 3e d8 c2 9d be
       0.3240268 0.30896452 0.15355948 -0.30812716
000220 65 75 01 bc b6 9f bf 3e 8e 68 0c 3e e1 cc a9 3e
       -0.007901524 0.37426537 0.1371176 0.33164123
000230 30 5e 3f bf 21 34 9d 3e 2a 03 72 bf 63 2e 61 bf
       -0.74753094 0.30703834 -0.9453608 -0.87961406
000240 63 d6 c0 3e 5a fa 8e bf bd df 97 3e b8 87 62 3e
       0.37663564 -1.1170151 0.29662886 0.22122085
000250 77 e4 49 be 9f 81 9a 3e 05 95 8e 3e b4 09 9d bf
       -0.19716059 0.30177018 0.27848068 -1.2268586
000260 69 ca 9f 3e 37 04 0a bf f6 d0 a2 be 4f 1e 90 bf
       0.31209114 -0.5391268 -0.3180005 -1.125925
000270 9b 89 14 bf d4 b9 3e 3e 22 30 89 be aa c1 f0 be
       -0.5802247 0.18625575 -0.26794535 -0.47022754
000280 7e 06 cb 3d 35 21 6f bf c8 42 7c 3d d5 78 ad be
       0.09913348 -0.93410045 0.061587125 -0.3388125
000290 fb f4 24 bf 3d f3 75 3e 11 56 48 be e2 19 6b bf
       -0.6443631 0.2401857 -0.19564082 -0.9183637
0002a0 01 d4 a0 3e 5a ca 9a 3e e2 8e e4 be 71 a6 82 3e
       0.31411746 0.30232507 -0.4464026 0.2551761
0002b0 69 c9 88 3e 20 30 b1 3e 4b 12 98 3d 48 86 a8 3e
       0.26716164 0.3460703 0.07425364 0.32914948
0002c0 40 2a 18 bf d5 55 a9 bf 58 ad a6 be 22 58 6a bf
       -0.5943947 -1.3229319 -0.32554126 -0.9154073
0002d0 eb cd 78 bf 6d fd aa 3e f1 80 a5 be d6 70 a2 3a
       -0.97189206 0.33396474 -0.32324937 0.0012393247
0002e0 ef 15 5f bf e4 62 33 3e 48 ff 47 bf 77 7e 56 bf
       -0.87142843 0.17518193 -0.78123903 -0.8378672
0002f0 b0 2d 27 be 3f 4e 9e 3e 05 e2 0c bf d6 7c c3 3e
       -0.16326022 0.30919072 -0.5503238 0.3818118
000300 86 4d 07 bf cf fd 8b bf 79 6f 47 bf 66 2c c4 be
       -0.52852666 -1.0936831 -0.7790447 -0.38315123
000310 4b ce 50 bf d4 8a 8b 3e 04 58 bf 3e 1d cf ed 3d
       -0.8156478 0.27254355 0.37371838 0.11611769
000320 56 87 45 bf da ad a2 be 4a 3b 32 bf c1 f6 8b bf
       -0.7715963 -0.31773263 -0.6962172 -1.0934678
000330 89 97 99 bd d6 d0 56 bf ff 46 89 3e 6b cb 52 bf
       -0.07499606 -0.8391241 0.26811978 -0.8234164
000340 8b c2 46 bf 8c 49 64 3e b3 25 9d 3e ba ec a7 3c
       -0.776406 0.22293681 0.30692825 0.020498622
000350 fd 63 0c bf 25 b5 b6 be 36 ff 55 be 03 6d bb 3e
       -0.5484007 -0.35685077 -0.20898136 0.36606607
000360 b9 ae 19 be d3 85 dc 3e ca 42 a6 3e e1 3a de 3d
       -0.15008058 0.4307085 0.3247283 0.10851074
000370 87 23 1d 3e cc ce 67 3e 5a 4e a5 bf 3c 71 d9 bd
       0.15345584 0.2263748 -1.2914536 -0.10617301
000380 6c e5 a2 3d 1c 44 c3 be e6 3c cb bd f0 a3 57 bf
       0.07953915 -0.381379 -0.09923725 -0.84234524
000390 07 45 70 3e 69 cc 18 bf dc 2f f9 be 34 f6 4d be
       0.23463832 -0.59686905 -0.48669326 -0.2011345
0003a0 d2 a5 13 bf a9 6b b4 3e 26 d0 a9 3e b2 b9 d8 3c
       -0.57674897 0.35238388 0.33166617 0.026455734
0003b0 f9 46 ea bd 0c 4b 20 bf 0c 96 b7 3e d4 18 ca 3e
       -0.11439318 -0.6261451 0.35856664 0.39472067
0003c0 f5 c9 bc 3e 74 f1 26 bf 76 c9 94 3e 81 b7 88 3e
       0.3687283 -0.6521218 0.29059952 0.26702502
0003d0 17 7c 24 bf 87 74 d2 be 72 33 b6 3e 17 50 ac 3e
       -0.64251846 -0.41104528 0.35586125 0.33654854
0003e0 32 d6 09 bf 04 75 58 3e d1 20 8e bf b6 fb 54 bf
       -0.5384246 0.21138388 -1.1103765 -0.8319658
0003f0 63 d9 e1 be cb 30 37 bf 95 3c 41 bf 83 6d d5 3d
       -0.44111165 -0.7155883 -0.75483066 0.10421278
