bots/Assistant.chatbot/converted_model.tflite (tflite, 273516 bytes, 4 tensors)

in/MatMul_bias f4 [64]
00000000: 1836 513e 3047 8d3e b979 933e 0e5d c53e
00000010: 49a0 af3e 0e16 743e 9141 d13e 5058 1d3e
00000020: d880 803e 14ed dc3e c98a c63e 4478 9d3e
00000030: bdf9 653e 7117 ce3e d6f1 573e bf37 9b3e
00000040: 46e9 9c3e 96fb 903e 8851 bc3e d18b 9f3e
00000050: 3a8a a93e 62a9 4d3e bc48 903e 4112 d03e
00000060: 8c96 813e f234 763e bc5a b73e 67ff ad3e
00000070: 7e9f 873e 59cc 273e a0a7 7d3e 9d95 b73e
00000080: 75b3 273e b2ef 863e 1f92 573e dc1f 6a3e
00000090: 401d a83e 7d5c cd3e 32ce 7b3e b650 5b3e
000000a0: 7290 9f3e c4d7 af3e 1f81 d33e 37c6 553e
000000b0: 9872 923e 5001 bb3e d801 a23e 840c 7d3e
000000c0: ae95 7d3e 0d8d 7a3e 6235 603e cc44 d23e
000000d0: 6219 2a3e 4f8c 8e3e d445 8c3e 9004 413e
000000e0: 452b 973e deb7 c63e 753b b63e f852 9f3e
000000f0: f214 ad3e e330 873e 5b0d 373e da10 2d3e
0.20430791 0.27593374 0.28803805 0.38547558 0.34301975 0.23836538 0.40870336 0.1536572
0.250983 0.43149626 0.3877776 0.30755818 0.22458549 0.4025226 0.21088347 0.30315968
0.30646724 0.28316945 0.36780953 0.3116136 0.3311327 0.20084146 0.28180492 0.40638927
0.2531017 0.24043635 0.35811412 0.3398392 0.2648887 0.16386546 0.24770975 0.35856333
0.16377051 0.26354748 0.21051835 0.22863716 0.32834816 0.40109625 0.24590376 0.21417508
0.3116489 0.34344304 0.4130945 0.20876394 0.28603053 0.3652444 0.31642032 0.24711806
0.2476413 0.24467869 0.21895364 0.41068113 0.16611245 0.27841422 0.27397025 0.18849397
0.295252 0.38812155 0.35592237 0.31117988 0.33805043 0.26404485 0.17876188 0.1690096

in/kernel/transpose f4 [64, 977]
00000000: 4759 93bd 58e1 19be 5d07 983e 54da fb3e
00000010: 9b57 4abe 324a 8bbb fe2e 3f3d 9482 393e
00000020: 29ca 7dbe 3c4c 7ebe 9f24 34be 69dd bb3e
00000030: 1202 ad3e e1bc 1b3f df1f b43c a6e3 a73e
00000040: b2f7 b73e 555a c73e c2ee 473c 258f b23e
00000050: dadb 993e f7f0 ea3e e403 a2be fcc1 e6be
00000060: 9173 10be 4179 76be 6cf6 433e f81f c8bb
00000070: 5b83 e13e c911 393e fae8 a33e 2e66 6e3e
00000080: c9b3 3dbe 039d a03e 461c 7fbe 8fc2 68be
00000090: b08f 3dbe d4d6 023d f3ea 8d3e a771 9bbd
000000a0: 9661 dbbe 25d0 ae3e 8c3c 8f3e cde5 87bd
000000b0: 3eca 593e 2d52 eebd 0fc6 f03b d3d3 6fbe
000000c0: a3b6 0bbd b464 313e 4891 59be 7a12 e0bd
000000d0: 2162 a63e f82d 90be 6679 b1bd f0f0 e73e
000000e0: 2c4c 48bd cde2 2bbe 7adc 6abe dd0a 233e
000000f0: e566 ae3e e69d c63e db92 173e 8c75 963e
00000100: e0b6 cabd 8650 bdbd 2140 16be 753d d23e
00000110: ba45 a43e 4695 d53d 08de 093e f432 343e
00000120: a108 653e a5d7 cbbd 4d7f 653c dc62 a8be
00000130: 70d4 61be 1d00 0bbe 17a7 82bd 925d 7dbe
00000140: 19a2 5bbe 43d4 a0be 6f0f 55be 064f c6bd
00000150: e14d aabd bc17 2cba 1d8a 9f3e 8ab5 143d
00000160: 8cf6 5bbe d099 83be ef48 95be 6c07 853e
00000170: 19df b63e d938 9bbe 5151 c9bd 9d26 8a3d
00000180: fb33 b2bd e350 a23e a26e 833c 065d 1c3e
00000190: bdfa 1c3e 0a1c 3c3e 0377 09be 9584 3ebe
000001a0: 305f adbd 985f 5fbe 7e70 b03d 50c5 863d
000001b0: 57ef 0c3e 5a7b e63e 40f4 f7bd 824f 833e
000001c0: c56e 613e 3a31 853e 1137 26bd 85ca a5bd
000001d0: 1d70 bcbd aad6 d7bd e08f 233e c6e4 97bc
000001e0: 0e4a 7cbe 79cc 08be 02fb 89bd 2ebc 67be
000001f0: 9769 71be 6d52 823d 5e1a 88be 5c2f 2fbe
00000200: 0994 c6be 267c 093d f748 c93e 61d2 093f
00000210: 387c 2c3c 9c0b 2bbe c2a1 ffbe 98cb d9be
00000220: 2286 b9be 01e7 273e 6e92 b6bd 1bb0 7bbe
00000230: 9a89 f5bd b121 b6bd 42ad ffbe 9394 12bf
00000240: 2e78 8abe a393 36be 48df b4bd 662a e4bd
00000250: ff4e 3bbe 18b4 59be 4b0a 8bbd 4ac5 1ebd
00000260: bf25 6dbe d5f6 b53e 5e3e f5bc 26ad 6c3e
00000270: 2f55 573e d3d1 a03e 647d 8f3e d9ad fe3e
00000280: c996 1ebe 8ecb 2bbc bbb8 993e 1a96 debc
00000290: c313 5d3d d96d f83d 80b3 44be 8593 223e
000002a0: 78f9 ae3e 5676 103e 65cb 1bbe 688f 773e
000002b0: c539 d43e 58c6 88be cbca 603e 9381 9a3e
000002c0: e806 953e 2800 3c3e eae7 b13d d823 123d
000002d0: 2123 9c3e f744 9fbe 18a1 82be f5c7 493e
000002e0: c031 d63e 7ddc 69be 3c53 c83e 132b 103e
000002f0: f247 0b3f 0178 753e 07df 023f 60c7 c33e
00000300: 9043 2bbe 4e0a 71bd 3a86 493e 8b38 02be
00000310: 1e66 6dbe 25c2 a13c 1d67 8fbd a6b6 02bf
00000320: d142 35bd 5de7 82be 207a b6be d5b5 d9bc
00000330: 57f2 a5bd 4c03 0cbe 3eb3 ca3d caf4 dabe
00000340: 1f31 de3e 349d 483e 8c3f 9abe 5145 3a3e
00000350: 9a1d fd3d 54ba d33d 2cd3 59be b7d4 1ebd
00000360: 6534 0dbe f7b9 b23e 65c4 7f3e 81c5 023f
00000370: 4da5 a33e 3d5b 3c3c 2368 ef3d 678b 2b3e
00000380: f2e0 983e a20a 43bd 40d7 9bbc 40b2 593e
00000390: cc33 243f 436a be3e 9092 0e3e 615d cebd
000003a0: bf8c 04be 36a4 8ebd ba97 5e3e 080d 71be
000003b0: e0a2 7bbe bb53 90be ebb7 aa3e 2235 e53c
000003c0: 76d1 71be 7dff 65be 428e 76be b990 eebd
000003d0: ff72 22bd 7a82 debd 2076 b1be 7b01 a8be
000003e0: e5c1 e63c 2e55 aabd 238a 59be cf3e 693e
000003f0: f056 223e 4bb1 b8bd ff99 f7bd 76f1 3b3e
-0.07194763 -0.15027368 0.29693118 0.4919001 -0.19759981 -0.004250788 0.046675675 0.18116218
-0.24784149 -0.24833769 -0.17592095 0.3669236 0.33790642 0.6083508 0.021987854 0.3279087
0.35931164 0.38936105 0.01220292 0.34874836 0.30050546 0.45886967 -0.31643593 -0.45069873
-0.14106585 -0.24069692 0.19136971 -0.0061073266 0.4404553 0.18073191 0.32013685 0.23281166
-0.18525614 0.3136979 -0.24913129 -0.22730468 -0.18511844 0.031943157 0.27718315 -0.07590037
-0.4284789 0.34143177 0.2797588 -0.06635628 0.21268556 -0.116367675 0.007347829 -0.23420648
-0.034109723 0.17323571 -0.21246827 -0.10941024 0.3249674 -0.2816007 -0.08665733 0.45301008
-0.04890077 -0.16785736 -0.22935668 0.15922113 0.34062877 0.38792342 0.14802115 0.29386556
-0.09898162 -0.09243874 -0.146729 0.41062513 0.32084447 0.10428862 0.13463604 0.17597562
0.22366573 -0.0995324 0.014007402 -0.32887924 -0.22053695 -0.13574262 -0.06379526 -0.24742725
-0.21448554 -0.31411943 -0.20806669 -0.09683041 -0.083156355 -0.0006564816 0.3116006 0.03630594
-0.21480769 -0.25703287 -0.29157206 0.25982225 0.35717085 -0.3031681 -0.09829963 0.06745646
-0.08701321 0.31702337 0.016043965 0.1526986 0.15330024 0.18370071 -0.13424306 -0.18605264
-0.08465421 -0.2181381 0.08615206 0.06580603 0.13763176 0.45015985 -0.12107134 0.25646597
0.22014911 0.2601412 -0.04057986 -0.08095268 -0.092010714 -0.10538991 0.15972853 -0.018541705
-0.24637625 -0.1335925 -0.06737329 -0.22630379 -0.23575436 0.06363378 -0.26582617 -0.1710791
-0.38784817 0.033565663 0.3931348 0.5383664 0.010527663 -0.16703647 -0.499281 -0.42538142
-0.36235148 0.16396715 -0.08914648 -0.24578898 -0.11989136 -0.08893145 -0.49936873 -0.57257956
-0.27044815 -0.17829756 -0.0883165 -0.11140899 -0.18291853 -0.21260107 -0.067890726 -0.03876237
-0.2315893 0.3553988 -0.029936966 0.23112926 0.21028589 0.31410083 0.28025353 0.4974201
-0.15487207 -0.010485543 0.3002375 -0.027171183 0.053973924 0.12130327 -0.19209099 0.15876587
0.34174705 0.14107642 -0.15214308 0.24175799 0.41450325 -0.26713824 0.2195236 0.30176982
0.29106832 0.18359435 0.08686812 0.035678715 0.3049555 -0.31107304 -0.2551353 0.19705184
0.4183483 -0.22838016 0.39126003 0.14078932 0.54406655 0.23971559 0.5112156 0.3823805
-0.16724992 -0.058847718 0.1968011 -0.12716882 -0.23183486 0.019745896 -0.07002089 -0.5105995
-0.044253174 -0.2556714 -0.3564005 -0.026575962 -0.08102863 -0.13673133 0.09897469 -0.42764884
0.4339685 0.19591218 -0.30126607 0.18190505 0.12359162 0.10338274 -0.21271962 -0.03877708
-0.13789518 0.34907505 0.24977262 0.5108262 0.31962052 0.011496362 0.116897844 0.16752397
0.2985912 -0.047617562 -0.019023538 0.21259403 0.64141536 0.37190446 0.13923097 -0.10076404
-0.12944315 -0.069649145 0.21737567 -0.23540127 -0.2457385 -0.2818888 0.33343443 0.027979437
-0.2361506 -0.22460742 -0.24077705 -0.116486974 -0.03966045 -0.1086473 -0.34660435 -0.3281363
0.028168628 -0.08317028 -0.21244101 0.22777866 0.15853477 -0.09018191 -0.12089919 0.18353829

out/MatMul_bias f4 [85]
00000000: 8b37 8e3d b421 3b3e ceaf cb3d e658 82bd
00000010: c68b ccbd 8273 0f3e 5c2c f2bd c518 623d
00000020: 219a 6b3e 6a8b c53c aeaf 24be 26f5 b43d
00000030: a245 d4bd 55a5 aabc 5fd5 e3bd 141b 92bd
00000040: 5337 813d 13b8 ce3d f5e1 f63c 6565 ebbc
00000050: 7e5f d2bd 24f8 a1bc f3b8 e03c d1bd 763e
00000060: f744 023e 44d8 9abb afdf bc3d 9b0e c4bc
00000070: bc22 073e 91e0 78be b742 1dbe ee54 b1bd
00000080: 9ecf 99bc e22d b2bd 08b6 e03d 7eef 84bb
00000090: 6104 663e 45f9 d63d 6846 f0bd b32e 8a3d
000000a0: f70c ccbd feed e8bd bd9b 4dbd 174b e9bc
000000b0: 4553 c83d 1566 9fbd 7974 ccbd 797d 2a3e
000000c0: 3d86 433e 39ee 1bbd fad0 22be 440b f33d
000000d0: 605d 303d 18c3 3bbe 66e6 94bd 2491 1b3e
000000e0: 7a6f da3d 46e4 673d a3f4 573d b15b b23c
000000f0: 0dc9 32bb 9c59 1cbe dc3c 9e3d 2376 61bd
00000100: b237 5fbe 3ead 1dbe 3b8d ddbe 5828 00be
00000110: ff8d b93d 5fcb 30bd f316 50bd e7cb e13d
00000120: bb31 eabd 5fa1 cb3d b462 463e 0ea9 0f3e
00000130: 3f62 71bd 993e 513c cea5 413b 8594 02bc
00000140: 43c8 023d 4a96 223e 0e6b 183c 7f8f b8be
00000150: 3749 8d3d
0.06944188 0.18274575 0.099456415 -0.06364612 -0.09987597 0.14008906 -0.11824867 0.055199403
0.23008014 0.02411433 -0.16082641 0.08835821 -0.10364844 -0.02083079 -0.11124682 -0.07134071
0.063093804 0.10093703 0.030137042 -0.028734872 -0.1027212 -0.019771643 0.02743194 0.24095847
0.1272162 -0.004725488 0.09222352 -0.023932746 0.13196844 -0.24304415 -0.15357481 -0.08658777
-0.018775757 -0.08700158 0.1097222 -0.00405687 0.22462608 0.10496763 -0.11732179 0.067471884
-0.0996341 -0.113735184 -0.05019735 -0.028478188 0.097815074 -0.077831425 -0.09983153 0.16649427
0.19094177 -0.038068984 -0.1590003 0.11867383 0.0430578 -0.18336141 -0.072705075 0.15192086
0.10665794 0.056614183 0.052723538 0.021772237 -0.002728048 -0.15268558 0.07726452 -0.055044305
-0.2179859 -0.15398118 -0.43271813 -0.1251539 0.09060287 -0.0431627 -0.050803136 0.110252194
-0.114352666 0.099428885 0.1937359 0.14029333 -0.058931585 0.012771272 0.002954829 -0.00796998
0.031929266 0.15877643 0.009302868 -0.3604698 0.0689873

out/kernel/transpose f4 [85, 64]
00000000: b1ee eabe fea5 0dbf 9f59 b13e 5a7a b6bf
00000010: 3ef7 8ebf 9326 ed3e e4a4 e9bf 5c9b 713e
00000020: cb8a 9bbf 4f80 aebf 926a 913e ca07 a63e
00000030: b4f8 8abf 9944 7f3e 5cb3 a5bf 6989 bd3e
00000040: dd93 a23e a7d0 2cbf ee60 f8bf 4612 283e
00000050: 8b90 b53e 3efb ce3e 2f1f 6a3e 53a8 ae3e
00000060: 8332 c1bf 8afa 7cbf 7c9b ec3e 6171 82bf
00000070: 7038 53bf 086a 3dbf 7dc9 393e 50f3 c1bf
00000080: 3f6d 5d3e 4d66 0bbf bf33 e63e fa26 22bf
00000090: 13c3 c33e 1bcd 26bf 720a 84bf bfd5 843e
000000a0: fc2f aa3e 2880 80bf c303 c5bf 4d4f 49bf
000000b0: d4d7 cfbf f765 de3e 125f ab3e b078 9f3e
000000c0: b17f dfbe 0038 90bf 5403 aebe ad43 b6bf
000000d0: 6a90 91bf dc0e 70bf eb5c 20bf 7586 563e
000000e0: 119c 50bf 2e56 d43e 1834 8d3e 4feb c5bf
000000f0: c6b0 debf c8ae 933e 31d5 373e 7753 f4be
00000100: 5b9a 33bf 8036 6e3e c295 d33e 5e4c a8bf
00000110: 3217 a63e 9cd7 64bf 08a0 dbbf 1c73 6cbe
00000120: 2926 b23e ab8a 8bbf 2cef 41bf 7c2c bbbf
00000130: 8c60 93bf 8dc4 013a e712 b83e c9c9 f53e
00000140: 5660 a93e 272d d53e e1c0 a2bf ca78 c63e
00000150: 2f13 8d3d 65f8 0fbf 330b 53bf a779 ccbf
00000160: 1bac 34bf 19ae be3e 1d21 6dbf 91ea c5bf
00000170: 7d2c a2bf f18d 6d3e 4a39 b23d 705a 49bf
00000180: 64be 023e 8cb6 86bf 922a 35bf 4cd2 da3e
00000190: fcd8 99bf 9e13 58bf 59b4 04bf 38d2 f53e
000001a0: dc7c 10bf 0d0e e63e bd13 7dbf 8f7d b13e
000001b0: c569 92bf 6421 d1bf b7ba b3bf 6955 a93e
000001c0: 9247 47bd b2fc 90bd a50b 76be 4f87 78be
000001d0: 1dbf 7dbf c4c0 c33e c27e da3b 0976 a43e
000001e0: b0bb 04bf 88f6 973e d0d4 9abf 8698 73bf
000001f0: 4070 82bf 2d68 40bf 7a48 ba3e b35d f7bf
00000200: 6f92 733e 1575 5fbe ae4b cdbe 2938 dbbd
00000210: e34c f53e 2d09 8abf 47b3 7d3e 8e1e 99bf
00000220: dc98 7bbf e8cd 9fbf 3e60 d03e 270b e0be
00000230: 945f 8bbf aad3 23bf 9eaa 863e f8a6 38bf
00000240: afe1 5bbf e939 b8bf 1e3a e43e e602 a6bf
00000250: 46c3 48bf 7bbc aa3e c8cb d6be cfed f1bd
00000260: 0043 59bf aeb8 8f3e 7efe 53bf 5959 bd3e
00000270: 5d2d b6bf d15b 56bf ac46 763e 37e1 ea3e
00000280: 277d 97bf 25d7 5c3e 1462 5fbf 29a6 943e
00000290: d336 b1be b2df 59bf ab2c 8e3b fa51 6bbf
000002a0: 7fa7 9c3e d394 94bf ed4b f33e 1d96 b83e
000002b0: 40f4 583e e549 583e 37cd b83e ae96 b5bf
000002c0: 917c be3e 8f11 b83e 1140 25bd 3e57 adbf
000002d0: f545 96bf ae53 e2bf 7a3b 6d3e 2612 c3bf
000002e0: b1cf 22bf de67 0abf b21d 89bd da01 c43e
000002f0: 0ab2 45bf 7620 b2be 2825 c6bf ea10 9c3e
00000300: 6bbc 87be a504 b73e 84c4 8e3e 3421 9f3e
00000310: 71bd 67bf 8d15 7f3e 3a32 453e 5dce 7e3e
00000320: 19d7 d5bf 582f 8fbf 8c78 ca3e 149f 6abf
00000330: d685 a83e bb2c 84bf f219 19bf 857a 8cbe
00000340: 4b55 7b3e 5bfc 07bf 7272 3fbf 8e76 423e
00000350: 69fd 65bf 44a1 8e3e 87bb 8b3e 9281 8ebf
00000360: a00b 9f3e 3358 ac3e 8990 6bbf d354 86bf
00000370: 4839 6d3e d68f acbe 155d ab3d f018 c13e
00000380: 83cf 8c3e d8d6 3ebf 0c1c f03e 8f47 8c3e
00000390: 49ca c7bf 9c35 a2bf 6df7 b23d fb81 a93e
000003a0: d3af 72bf f096 b33e a7ad 9fbf c5d2 673e
000003b0: e4da 95bf 3cbb 8e3e d01b d9be c3c9 4dbf
000003c0: 8dce 19bf 50b1 3abe 5683 233d c9c9 4fbf
000003d0: 1296 c8bf 41dc ab3e 5acb abbf 1fde 583e
000003e0: 70ef c5be b67b 393e 9ade 50bf daa1 aabf
000003f0: 6be6 87bf e5e0 b1bf e721 6ebf 68a6 9abf
-0.45885232 -0.5533141 0.34638688 -1.4256089 -1.1169202 0.46318492 -1.8253446 0.23594421
-1.2151731 -1.3632907 0.2840162 0.32427818 -1.0857148 0.24928512 -1.2945361 0.37018898
0.31753436 -0.6750588 -1.940458 0.16413221 0.3546184 0.40426058 0.22863458 0.34112796
-1.509354 -0.9881979 0.46212375 -1.019085 -0.8250799 -0.73989916 0.18143268 -1.5152378
0.21623705 -0.54452974 0.44961354 -0.63340724 0.38234767 -0.65156716 -1.0315688 0.25944325
0.33239734 -1.003911 -1.5391773 -0.7863663 -1.623774 0.43437168 0.3347097 0.31146765
-0.43652108 -1.126709 -0.33986914 -1.4239403 -1.1372197 -0.93772674 -0.6264178 0.20949729
-0.8148814 0.41472 0.27578807 -1.5462435 -1.7397697 0.28844285 0.1795242 -0.4771993
-0.701574 0.23262978 0.41325194 -1.3148305 0.32439572 -0.89391494 -1.7158213 -0.23090786
0.3479474 -1.0901693 -0.7575557 -1.462295 -1.1513839 0.0004950248 0.3595192 0.48005512
0.3308131 0.4163601 -1.2715112 0.3876403 0.068884246 -0.56238395 -0.82438964 -1.5974625
-0.7057511 0.372422 -0.9262865 -1.5462209 -1.2669827 0.23198678 0.08702333 -0.7865362
0.12767941 -1.0524459 -0.7076808 0.4273857 -1.2019343 -0.84404933 -0.5183769 0.48011947
-0.5644052 0.44932595 -0.98858243 0.34666106 -1.1438528 -1.6338315 -1.4041356 0.33072975
-0.04865224 -0.07079448 -0.2402788 -0.24270366 -0.9911974 0.38233006 0.0066679427 0.32121304
-0.5184889 0.29680276 -1.2096195 -0.9515461 -1.0190506 -0.7515896 0.3638342 -1.932547
0.23786329 -0.21822007 -0.40096802 -0.10704071 0.47910222 -1.078405 0.2477542 -1.196245
-0.9828012 -1.2484713 0.40698427 -0.4375851 -1.0888543 -0.6399485 0.26302046 -0.72129774
-0.8589124 -1.4392673 0.4457559 -1.2969635 -0.78422964 0.33346924 -0.41952348 -0.118129365
-0.8486786 0.28070587 -0.828102 0.3698223 -1.4232594 -0.8373385 0.24050397 0.4587495
-1.1835068 0.21566446 -0.8725903 0.2903302 -0.3461214 -0.85106957 0.004338821 -0.9192196
0.3059654 -1.1607918 0.47518864 0.36052027 0.21186924 0.21121939 0.36094067 -1.4186609
0.37204412 0.35950896 -0.0403443 -1.3542249 -1.1740099 -1.7681787 0.2316722 -1.5239913
-0.6359816 -0.5406474 -0.06695117 0.38282663 -0.7722479 -0.3479039 -1.5480089 0.30481654
-0.2651094 0.3574573 0.27884305 0.3108002 -0.9052344 0.24910565 0.19257441 0.24883409
-1.6706268 -1.1186323 0.39545095 -0.91648984 0.3291461 -1.0326151 -0.59805214 -0.27437225
0.24544255 -0.5311944 -0.74784005 0.18990538 -0.898398 0.2785741 0.2729151 -1.1133292
0.31063557 0.3366104 -0.9201742 -1.0494636 0.23166382 -0.33703488 0.08367363 0.37714338
0.2750207 -0.74546576 0.46896398 0.27398345 -1.5608608 -1.267261 0.08738599 0.3310698
-0.94799536 0.35076094 -1.247487 0.22638996 -1.1707425 0.27877223 -0.42404032 -0.8038599
-0.60080796 -0.18231702 0.039920174 -0.81167275 -1.5670798 0.33566478 -1.3421433 0.21178482
-0.3865924 0.18113598 -0.81589663 -1.3330643 -1.0617193 -1.3896757 -0.9302048 -1.2082033
